user/tutorials/python/UVFlash/ANN/OnnxModel2.onnx (onnx, 146951 bytes, 40 tensors)

model/vf4/MatMul/ReadVariableOp:0 f4 [32, 32]
0	0xbe451687	-0.19246875
1	0x3d908343	0.07056286
2	0xbd826341	-0.063665874
3	0xbdb09e47	-0.08623939
4	0xbd40d206	-0.047075294
5	0xbe1ae032	-0.15124586
6	0x3e05c1c8	0.13062203
7	0xbe3e170c	-0.18563479
8	0x3e148f4b	0.14507787
9	0x3d54c9f7	0.05195042
10	0x3ddedced	0.10881982
11	0xbd75913c	-0.05995296
12	0xbe45d1d3	-0.19318323
13	0x3e388998	0.18021238
14	0xbcea12f5	-0.028573493
15	0xbdc420e1	-0.09576584
16	0xbe1e817d	-0.15479083
17	0x3da56975	0.08076755
18	0xbe036f09	-0.12835325
19	0xbd9ffa33	-0.078113936
20	0x3e1667ee	0.14688084
21	0x3e4d40ae	0.20044205
22	0xbcf47e86	-0.029845487
23	0xbd81be1e	-0.0633509
24	0x3e98dacd	0.29854432
25	0xbdf61313	-0.12015357
26	0x3d608d19	0.05482206
27	0xbe3513d2	-0.17683342
28	0x3e1ef1fb	0.15521996
29	0xbd88a9db	-0.06673022
30	0xbdb029e0	-0.08601737
31	0x3dd71c82	0.10503484
32	0xbe48d6c3	-0.19613175
33	0xbe2d814a	-0.16943851
34	0xbcd299cf	-0.025708107
35	0x3e16ea6b	0.14737861
36	0x3c23914f	0.009983375
37	0xbd7263e6	-0.0591773
38	0x3d20bacf	0.039240655
39	0xbd63f3ca	-0.055652417
40	0x3e1fd260	0.15607595
41	0xbd391107	-0.045182254
42	0xbd9af460	-0.07566142
43	0xbdc1c2f3	-0.09461012
44	0xbe4c2933	-0.19937591
45	0xbc53fde1	-0.012938947
46	0xbd516850	-0.05112487
47	0xbca98ab7	-0.020696027
48	0xbcede2de	-0.029038843
49	0x3d054168	0.03253308
50	0x3c6390b7	0.013889483
51	0xbe1641af	-0.14673494
52	0x3ca8a073	0.02058432
53	0x3d8a5d7d	0.06756113
54	0xbce7a2e5	-0.028275916
55	0x3ce1f197	0.02758102
56	0x3d5b4bb7	0.053539004
57	0xbdd01a4e	-0.10161267
58	0x3d4e9381	0.05043364
59	0x3e0889f2	0.13333872
60	0x3d81226a	0.06305392
61	0xbd79f545	-0.061024923
62	0xbda0ab64	-0.0784519
63	0x3dbe16c2	0.092816845
64	0x3d3b3404	0.045703903
65	0x3dd42102	0.10357858
66	0x3e1d4130	0.15356898
67	0xbda91d00	-0.082574844
68	0xbd13ce75	-0.036085565
69	0x3d3a248a	0.045445003
70	0xbce673fd	-0.02813148
71	0x3da03451	0.078224786
72	0x3dd1307e	0.10214327
73	0xbe09d646	-0.13460645
74	0x3ca8fed7	0.02062933
75	0xbde5afe7	-0.11215191
76	0xbe28a363	-0.16468577
77	0xbcd49492	-0.02594975
78	0x3d8a60ed	0.067567684
79	0x3d808ae6	0.06276493
80	0x3cf58782	0.029971842
81	0x3db20f1f	0.0869429
82	0x3d84e21f	0.06488442
83	0xbd6007bd	-0.05469488
84	0xbe4f2892	-0.2023032
85	0xbd8297d6	-0.06376617
86	0x3d327381	0.043567184
87	0xbde25e7c	-0.11053178
88	0x3c2273ef	0.009915336
89	0x3d762b89	0.060100112
90	0x3d033566	0.032033347
91	0xbbee8f33	-0.0072802543
92	0x3dc605f3	0.096691035
93	0x3c46ca77	0.012133232
94	0xbd88243f	-0.066475384
95	0xbbb3e420	-0.005489841
96	0x3e7f7583	0.24947171
97	0xbbd40c7c	-0.006471215
98	0xbcad78d0	-0.021175772
99	0x3db31eaf	0.08746087
100	0x3d932df5	0.071865
101	0xbd810c23	-0.06301143
102	0xbd05bd30	-0.032651126
103	0xbdfd65d8	-0.12372941
104	0xbd4832ff	-0.04887676
105	0xbd9be968	-0.07612878
106	0xbc8f246a	-0.017473418
107	0xbd906a3b	-0.07051512
108	0x3dc20d6a	0.09475215
109	0xbb8eb8e6	-0.0043555377
110	0x3d982d27	0.07430487
111	0xbc7bc755	-0.015367349
112	0x3d36209e	0.0444647
113	0x3d9d0b2c	0.076681465
114	0xbcc12487	-0.023576988
115	0xbd6950ab	-0.056961697
116	0x3d53a57e	0.051671498
117	0x3d854e2f	0.06509053
118	0x3ca21561	0.019785585
119	0x3d8731d7	0.06601303
120	0xbcea1754	-0.028575577
121	0x3d3435e2	0.0439967
122	0xbc3b08f1	-0.011415706
123	0x3baa0b8f	0.005189366
124	0xbd353a87	-0.04424527
125	0x3c8af531	0.01696262
126	0xb95da316	-0.00021136957
127	0x3d618e8d	0.055067588
128	0xbd4d6a2b	-0.050150078
129	0x3ce9ffc4	0.028564341
130	0xbd5c552b	-0.05379216
131	0x3d53e36f	0.05173057
132	0xbd81c87a	-0.06337066
133	0x3d2fb8f9	0.042901013
134	0x3cc7796a	0.024349887
135	0xbd7f8099	-0.0623785
136	0xbd273f46	-0.040831827
137	0xbe6f6f6f	-0.23382352
138	0xbd8a10a9	-0.06741459
139	0xba3aa2d2	-0.0007119599
140	0x3d96d509	0.07364852
141	0x3d3787b2	0.044807144
142	0xbd33a616	-0.043859564
143	0x3da391de	0.07986806
144	0x3d28e021	0.04122937
145	0xbd53c1db	-0.051698547
146	0x3c14e107	0.009086854
147	0xbe580c7b	-0.21098511
148	0x3dcce6f6	0.1000499
149	0xbcc15bfe	-0.023603436
150	0xbdf321ce	-0.11871682
151	0x3d5556e5	0.052084822
152	0x3e5a7cb8	0.21336639
153	0xbd8a1b9b	-0.067435466
154	0xbdda15da	-0.10648699
155	0xbe3881ba	-0.18018237
156	0x3dbfe6f4	0.09370223
157	0xbcf26862	-0.02959079
158	0xbd7ee5c1	-0.06223083
159	0xbc8ee498	-0.017442986
160	0x3da3162b	0.079632126
161	0x3dab24c1	0.083566196
162	0x3d897c16	0.06713121
163	0xbcf1d2ef	-0.029519526
164	0x3da75e5d	0.08172295
165	0xbe19042d	-0.14942999
166	0x3e010030	0.12597728
167	0xbe2a4bf8	-0.16630542
168	0xbd6bfe59	-0.05761561
169	0xbe0cf716	-0.13766131
170	0xbd5bd7fd	-0.05367278
171	0xbd9e91b8	-0.077426374
172	0xbdf9eaa5	-0.12202958
173	0x3c9fbbaf	0.019498674
174	0x3e4ae349	0.19813265
175	0xbdc2a8bf	-0.09504842
176	0x3e113b10	0.14182687
177	0x3e04b93d	0.12961288
178	0xbeaedbda	-0.34152108
179	0xbe1c6639	-0.1527337
180	0x3d4c4ee6	0.04987993
181	0x3d08f247	0.03343418
182	0xbca894fb	-0.020578852
183	0x3dd24b66	0.10268287
184	0xbd887387	-0.0666266
185	0xbd512d55	-0.051068623
186	0xbcb54de0	-0.02213186
187	0xbda35308	-0.07974821
188	0x3e031973	0.12802677
189	0xbd82c6af	-0.06385552
190	0x3e0c77d2	0.13717583
191	0x3b21476d	0.0024609223
192	0xbda36038	-0.07977337
193	0xbd414fd2	-0.047195263
194	0xbca33b76	-0.019925814
195	0x3caa0c62	0.020757858
196	0xbd01d9d2	-0.03170187
197	0xbe6e0937	-0.23245703
198	0x3d857b3b	0.06517645
199	0xbda3a36c	-0.079901546
200	0xbe38a396	-0.18031153
201	0x3c2e05aa	0.010621468
202	0x3d130184	0.035890117
203	0x3df693d8	0.12039918
204	0xbd933de1	-0.07189537
205	0xbe25315e	-0.16132113
206	0xbd00f982	-0.03148795
207	0x3ddb01ee	0.106937274
208	0x3db22933	0.086992644
209	0xbd0bf926	-0.034173153
210	0x3c683cf7	0.014174691
211	0x3cb8d410	0.022562057
212	0xbde73f93	-0.11291423
213	0x3d7d831a	0.061892606
214	0xbd1698a0	-0.03676665
215	0xbde723fa	-0.11286159
216	0x3d93ad29	0.07210762
217	0xbd9c08dc	-0.07618877
218	0x3d56130d	0.052264262
219	0xbd106501	-0.035252575
220	0xbcbc1b9b	-0.022962382
221	0x3e1a16f3	0.15047817
222	0xbe287e15	-0.16454346
223	0x3d8bbe42	0.06823398
224	0x3c944187	0.018097652
225	0x3be5490b	0.006997233
226	0xbd4ce127	-0.05001941
227	0x3d079be3	0.03310765
228	0x3d61021c	0.054933652
229	0xbdaf884b	-0.08570918
230	0xbd7e7704	-0.06212522
231	0x3dcb969a	0.09940834
232	0x3dd70c9a	0.105004504
233	0xbc5d29b7	-0.013498715
234	0xbdb9affa	-0.09066768
235	0xbe30bf50	-0.1726048
236	0xbe414179	-0.18872632
237	0xbc80182b	-0.015636524
238	0xbda9a0a6	-0.082825944
239	0x3d42d079	0.047562096
240	0x3dba4566	0.09095268
241	0x3db5be04	0.08874133
242	0xbab3b746	-0.0013711236
243	0xbe214f40	-0.15752888
244	0xbc3bfbf6	-0.011473646
245	0xbe024db2	-0.12724951
246	0xbd687783	-0.0567546
247	0x3e5082b8	0.20362365
248	0xbd8cf507	-0.06882673
249	0x3e30c16d	0.17261286
250	0x3e98f093	0.29871044
251	0xbd240bb8	-0.04005024
252	0x3dac313b	0.084078275
253	0xbe23a7e1	-0.1598201
254	0x3d8743f6	0.066047594
255	0x3d9deda5	0.07711343

model/vf4/BiasAdd/ReadVariableOp:0 f4 [32]
0	0xbdf16cbd	-0.11788318
1	0x3e526e23	0.20549826
2	0x3c632d65	0.013865803
3	0x00000000	0.0
4	0x3e08d108	0.13360989
5	0xbd6e9fc1	-0.058257822
6	0x3e6d2bd6	0.23161253
7	0xbd975f7b	-0.07391258
8	0x3e6f4bfe	0.23368832
9	0x3e749f59	0.23888911
10	0x3e639413	0.22224455
11	0xbd00079d	-0.03125726
12	0xbd162ed4	-0.036665753
13	0x3e79c5cd	0.24391861
14	0x3e15552c	0.14583272
15	0xbd1a7259	-0.037706707
16	0xbc6adad2	-0.014334397
17	0x3e67bfdf	0.22631787
18	0x00000000	0.0
19	0xbc85b5ff	-0.016322134
20	0x3e711f72	0.23547152
21	0x3e834d1a	0.2564476
22	0xbd328edd	-0.043593276
23	0xbc3d9c4a	-0.011572907
24	0x3e85d021	0.26135352
25	0xbd8ceafc	-0.06880757
26	0x3e4ddcbe	0.20103738
27	0xbe318187	-0.17334567
28	0x3e746a04	0.23868567
29	0xbd105710	-0.03523928
30	0x3c7b9178	0.015354507
31	0x3e75b622	0.2399526

model/vf3/MatMul/ReadVariableOp:0 f4 [64, 32]
0	0xbdddda76	-0.10832684
1	0x3d9b1ed3	0.07574239
2	0x3ba8c52f	0.0051504592
3	0xbdc79d7c	-0.09746835
4	0x3d490133	0.04907341
5	0xbdc83e87	-0.09777551
6	0x3d92c595	0.07166592
7	0xbe29c243	-0.16578011
8	0x3dffc464	0.124886304
9	0x3cd65e51	0.02616802
10	0x3dc24ca9	0.09487278
11	0x3be23521	0.006903306
12	0xbdfab257	-0.12241047
13	0x3de9a20c	0.11407861
14	0x3d63f5e9	0.05565444
15	0xbcad4c5a	-0.021154571
16	0xbde5414a	-0.111940935
17	0x3db18056	0.08667056
18	0xbdc6c1c3	-0.09704926
19	0xbcac0787	-0.020999683
20	0x3dbb3b00	0.09142113
21	0x3e06fe9c	0.13183063
22	0xbb09e94c	-0.0021043597
23	0xbd7ecce3	-0.062207114
24	0x3e84e563	0.25956258
25	0xbda2642b	-0.07929262
26	0x3daad0e1	0.08340622
27	0xbcb78b57	-0.02240531
28	0x3de51e0a	0.1118737
29	0xbca96af9	-0.020680891
30	0x3d02b580	0.031911373
31	0x3dc4cd27	0.09609442
32	0xbe20d8f1	-0.15707757
33	0xbe125446	-0.1428996
34	0x3c11b6ef	0.008893712
35	0x3e0f20fa	0.13977423
36	0x3de9082c	0.11378512
37	0xbd2b7d6f	-0.04186767
38	0x3c9035d3	0.01760379
39	0xbd8ce395	-0.06879345
40	0x3e0b3017	0.13592564
41	0xbdad8eb4	-0.08474484
42	0xbd9ba9fc	-0.07600781
43	0xbd5831d8	-0.05278191
44	0xbe330c29	-0.17485107
45	0xbd355353	-0.044268917
46	0x3d3dbf25	0.046324868
47	0xbc345d3e	-0.011008559
48	0x3be87e89	0.0070951623
49	0xb98a3d58	-0.00026367116
50	0x3d060ef7	0.032729115
51	0xbe019d4d	-0.12657662
52	0xb99bb1b7	-0.00029696312
53	0x3cf0b632	0.029383752
54	0x3c87e482	0.016588453
55	0x3c80f5f3	0.015742278
56	0x3d0de649	0.034643445
57	0xbdcda104	-0.10040477
58	0x3dc82333	0.09772339
59	0x3e12e56f	0.14345334
60	0x3d583f8b	0.052794974
61	0xbd8bf0b0	-0.06833017
62	0xbccc8b14	-0.024968661
63	0x3d8e7419	0.069557376
64	0x3d7f236e	0.062289648
65	0xb9ca0468	-0.00038531725
66	0x3db48faa	0.08816464
67	0xbe10689f	-0.1410241
68	0xbddc933c	-0.1077027
69	0x3cd1b325	0.025598118
70	0xbdae5339	-0.08511967
71	0xbc0cb47c	-0.008587953
72	0x3c22528a	0.009907374
73	0xbe5f0e58	-0.21782815
74	0xbdcce401	-0.10004426
75	0xbe10477c	-0.14089769
76	0xbe6be18a	-0.23035255
77	0xbd4c18c6	-0.049828313
78	0x3ac54486	0.0015050329
79	0xbcd28f6e	-0.025703158
80	0xbc8f70f9	-0.017509924
81	0x3d045b87	0.03231385
82	0x39f8aa79	0.00047429258
83	0xbdaff316	-0.08591287
84	0xbe728e75	-0.23687156
85	0xbe9e15f5	-0.30876127
86	0xbd18d2cd	-0.03731041
87	0xbe3ab724	-0.18233925
88	0xbd8b1133	-0.0679039
89	0x3c526905	0.012842421
90	0xbc7e5ef8	-0.015525572
91	0xbdb95fde	-0.09051488
92	0x3d4cc8b7	0.049996104
93	0x3c878569	0.016543107
94	0xbdd06691	-0.10175813
95	0xbdb525cd	-0.088451006
96	0x3e87b306	0.26503772
97	0xbe47e9f6	-0.19522843
98	0xbe0e1648	-0.13875687
99	0xbc83b66f	-0.016078202
100	0xbda6d436	-0.08145945
101	0xbd936f92	-0.07199015
102	0xbdaba3d4	-0.08380857
103	0xbe40fb5e	-0.18845889
104	0xbe468b9d	-0.19389196
105	0xbe58df35	-0.21178897
106	0xbe54905a	-0.20758191
107	0xbe22248a	-0.15834251
108	0xbd6d6153	-0.057954144
109	0xbd45e5a0	-0.04831469
110	0xbd301c95	-0.042996008
111	0xbe1f51fe	-0.15558621
112	0xbd4ee35f	-0.050509807
113	0xba6c0fc3	-0.0009005034
114	0xbe0ca685	-0.13735397
115	0xbdfdff43	-0.12402203
116	0x3c134805	0.008989339
117	0xbef23813	-0.47308406
118	0xbe2eec46	-0.17082319
119	0xbb86a9fd	-0.0041096197
120	0xbe0830d6	-0.1329988
121	0xbd7fa7e5	-0.062415976
122	0xbdb7c89d	-0.08973811
123	0xbe0e3216	-0.13886294
124	0xbd904ac7	-0.07045513
125	0x3cb8b204	0.022545822
126	0xbdc4ceae	-0.096097335
127	0xbd67524d	-0.056474973
128	0xbcffee5f	-0.031241594
129	0x3d305feb	0.043060225
130	0x3cb88a7e	0.022526976
131	0x3d579710	0.0526343
132	0xbc8ded15	-0.017324964
133	0x3dba79d2	0.09105267
134	0x3a87863c	0.0010339688
135	0xbd915d93	-0.07097926
136	0xbd11f4a8	-0.035633713
137	0xbe5b8976	-0.21439156
138	0xbd895847	-0.06706291
139	0x3d5396ed	0.051657606
140	0x3dd30363	0.1030338
141	0x3c1b9269	0.009495356
142	0xbb00183c	-0.0019545695
143	0x3dd58c8e	0.10427199
144	0x3dc2892f	0.09498822
145	0xbd4c247f	-0.049839493
146	0x3d13eb74	0.036113217
147	0xbe403d37	-0.18773352
148	0x3d9810eb	0.07425102
149	0xbd48b663	-0.049002063
150	0xbdac4781	-0.08412076
151	0x3d68d580	0.056844234
152	0x3e5587c7	0.20852576
153	0xbbbfd392	-0.0058540786
154	0xbdb132ab	-0.08652242
155	0xbce49dae	-0.027907219
156	0x3d9a201e	0.07525657
157	0xbcf26862	-0.02959079
158	0x3d8138b6	0.06309645
159	0xbbee5632	-0.007273459
160	0x3e008118	0.12549245
161	0x3d2f2539	0.042760108
162	0x3d03ccc1	0.03217769
163	0xbd3836cf	-0.044974145
164	0x3d693b37	0.056941237
165	0xbe0e35f5	-0.1388777
166	0x3d4258c5	0.04744794
167	0xbe36d2bf	-0.17853831
168	0xbdd5b3d8	-0.10434693
169	0xbe05495c	-0.13016266
170	0xbdca8c40	-0.09890032
171	0xbd454985	-0.048165817
172	0xbdb328ce	-0.08748017
173	0xbd4b2490	-0.049595416
174	0x3e325fc6	0.17419347
175	0xbd8ae212	-0.06781401
176	0x3e233dad	0.15941496
177	0x3dba1ecc	0.09087905
178	0xbea62fe4	-0.32458413
179	0xbde6a0ed	-0.11261163
180	0xbc9c1f84	-0.019057997
181	0xbda0273b	-0.078199826
182	0xbca6d683	-0.020365959
183	0x3dd0ba84	0.10191825
184	0xbdccbf87	-0.099974684
185	0xbd4e149c	-0.050312623
186	0xbd42c213	-0.047548365
187	0xbc78e105	-0.015190368
188	0x3d9c3b67	0.076285176
189	0xbd6b4ff0	-0.05744928
190	0x3e21c6e1	0.15798523
191	0xbd12b478	-0.03581664
192	0xbd89833f	-0.06714486
193	0xbd88329e	-0.066502795
194	0xbd82083a	-0.06349225
195	0x3b0b26e5	0.00212329
196	0xbd51c8fa	-0.051217057
197	0xbe80d25f	-0.251605
198	0x3d3114e7	0.043232825
199	0xbdcf15b0	-0.101115584
200	0xbe42c634	-0.19020921
201	0x39af67bf	0.00033455898
202	0x3c8ba3ac	0.017045818
203	0x3ded3205	0.11581806
204	0xbd96bba2	-0.07360007
205	0xbe2d81ca	-0.16944042
206	0xbd396868	-0.045265585
207	0x3dddd1c9	0.10831029
208	0x3da6fe56	0.081539795
209	0xbd249f38	-0.040190905
210	0x3bf3bc89	0.0074382466
211	0x3d189d1b	0.037259202
212	0xbdf9312d	-0.12167583
213	0x3dacbf40	0.084349155
214	0xbd3d1c54	-0.046169594
215	0xbdff3215	-0.12460724
216	0x3d90a0ae	0.07061897
217	0xbdc64ea7	-0.096829705
218	0x3d42c965	0.047555346
219	0xbcfa021e	-0.030518588
220	0xbc802e22	-0.015646998
221	0x3e1ef322	0.15522435
222	0xbe3b43ca	-0.18287578
223	0x3d68810c	0.056763694
224	0xbed6a46b	-0.41922316
225	0xbf254a4d	-0.645665
226	0xbed37547	-0.41300413
227	0xbee06eb3	-0.43834457
228	0xbe9d5567	-0.3072922
229	0xbde22f6b	-0.110442005
230	0xbdefdf34	-0.117124945
231	0x3d94f916	0.07274072
232	0xbeaab516	-0.33341283
233	0xbec24c9a	-0.37949067
234	0xbe8a1638	-0.26970077
235	0xbee05a33	-0.43818817
236	0xbe7220d1	-0.23645331
237	0xbde48078	-0.11157316
238	0xbe9180b1	-0.28418496
239	0xbebb4d32	-0.36582333
240	0xbe719844	-0.23593241
241	0xbe63abb9	-0.22233476
242	0xbe3297b9	-0.1744069
243	0xbe807d56	-0.25095624
244	0xbdc968df	-0.09834456
245	0x3e91e043	0.2849141
246	0xbedb0de4	-0.42784035
247	0x3d969e87	0.073544554
248	0xbed163ab	-0.40896353
249	0xbe6afb0f	-0.22947334
250	0xbdfd487e	-0.123673424
251	0xbe9ab6d2	-0.30217606
252	0x3c4763be	0.0121697765
253	0xbe1a4e36	-0.15068898
254	0xbe9d6ca7	-0.30746958
255	0xbeb13c22	-0.3461619

model/vf3/BiasAdd/ReadVariableOp:0 f4 [32]
0	0x3e376aab	0.17911784
1	0x3ce6bacf	0.02816525
2	0x3c0ae53e	0.008477507
3	0xbbf53820	-0.0074834973
4	0xbb194cff	-0.002339184
5	0xbd9de022	-0.077087656
6	0xbd59e557	-0.05319723
7	0xbd3ef304	-0.046618477
8	0xbbbee235	-0.005825306
9	0x3c9de436	0.019273859
10	0x3b827cb2	0.00398215
11	0xbc6e4247	-0.014542169
12	0x3d5f7957	0.054559078
13	0xbd3a6424	-0.045505658
14	0xbc27348c	-0.010205399
15	0x3c6d29a5	0.014475261
16	0x3a486e17	0.0007645799
17	0x3e1f052b	0.15529315
18	0x3dc410b0	0.095734954
19	0x3e07679e	0.1322312
20	0xbd2b32eb	-0.041796606
21	0x3d327412	0.043567725
22	0xbcb7519d	-0.022377783
23	0xbe16d5ad	-0.14729948
24	0xbae32b4f	-0.0017331633
25	0xbc764528	-0.015031137
26	0x3def74bc	0.11692187
27	0xbc79d69e	-0.015248923
28	0xbcdb632e	-0.026780691
29	0xbc0e8309	-0.008698233
30	0x3c91dd25	0.017805645
31	0x3dd51b78	0.1040563

model/vf2/MatMul/ReadVariableOp:0 f4 [64, 64]
0	0xbe4904c6	-0.19630727
1	0x3cd0554e	0.025431301
2	0xbb8c7bc2	-0.004287214
3	0xbda26bb1	-0.07930697
4	0xbc5ceb03	-0.013483766
5	0xbdbb4af0	-0.091451526
6	0x3da6f327	0.081518464
7	0xbd58fd40	-0.052975893
8	0x3db673b1	0.08908785
9	0x3d8374e2	0.06418778
10	0x3da0f7c4	0.078597575
11	0xbd1bb9b8	-0.038018912
12	0xbe2cdae6	-0.16880378
13	0x3dcfba4b	0.101429544
14	0xbb1c482a	-0.0023846724
15	0xbd83464a	-0.06409891
16	0xbe1becab	-0.15227
17	0x3d56c688	0.052435428
18	0xbe0ef434	-0.13960344
19	0xbd56594c	-0.052331254
20	0x3deadf82	0.11468412
21	0x3e0533f9	0.13008107
22	0xbbf39a38	-0.007434156
23	0xbdb09756	-0.08622615
24	0x3e61d6e4	0.2205463
25	0xbd11e4f1	-0.035618726
26	0xbc572c4c	-0.01313312
27	0xbd7808cf	-0.060555276
28	0x3de08d33	0.109644316
29	0xbc55d851	-0.013052062
30	0xbd1a9893	-0.037743162
31	0x3d9f1cac	0.077691406
32	0xbe41321d	-0.18866773
33	0xbe1e7f11	-0.1547816
34	0x3d06a28e	0.032869868
35	0x3e28a1e9	0.16468014
36	0x3db2952b	0.08719858
37	0xbcbfe2d2	-0.023423586
38	0x3cdeda69	0.027203755
39	0xbd9ddc60	-0.07708049
40	0x3e0fc774	0.14040929
41	0xbd2b9422	-0.041889317
42	0xbd99d253	-0.07510819
43	0xbd714019	-0.05889902
44	0xbe48c027	-0.1960455
45	0xbd36a980	-0.04459524
46	0x3c988003	0.018615728
47	0xbcd660b7	-0.026169164
48	0xbc80b3fe	-0.015710827
49	0x3c71cb63	0.014757964
50	0x3cf0ccc4	0.029394515
51	0xbe1a92b8	-0.15095031
52	0x3c27f028	0.010250129
53	0x3cf922ee	0.030412164
54	0x3c4ebbb2	0.012617992
55	0x3d2f0f23	0.042739045
56	0x3ca572bb	0.02019631
57	0xbdcdf23b	-0.100559674
58	0x3d92308a	0.07138164
59	0x3dfdc14b	0.12390383
60	0x3ce92344	0.028459199
61	0xbd681a46	-0.05666568
62	0xbb62e75d	-0.0034622767
63	0x3dbd62bb	0.09247347
64	0x3ce620a8	0.028091744
65	0x3d9b6893	0.07588305
66	0x3e117fa7	0.14208852
67	0xbdba27d5	-0.090896286
68	0xbd68b873	-0.05681653
69	0x3d6bb9b4	0.057550147
70	0xbd948b30	-0.072531104
71	0x3e97c92a	0.29645663
72	0x3d939f14	0.07208076
73	0xbe5ce769	-0.21572651
74	0xbb6d34f4	-0.0036194893
75	0xbdecf1fb	-0.115695916
76	0xbe1dbde9	-0.15404476
77	0xbd452388	-0.04812959
78	0x3d14ab5b	0.03629623
79	0x3d80f77f	0.06297206
80	0x3c97702f	0.01848611
81	0x3d8de043	0.0692754
82	0x3cb79f26	0.022414755
83	0xbd69030b	-0.056887668
84	0xbe632ad8	-0.22184312
85	0xbda10fda	-0.078643516
86	0x3d1cc7ab	0.038276356
87	0xbe0ab894	-0.13546973
88	0xbcd551c2	-0.026039962
89	0x3df82c5f	0.12117838
90	0xbb88bcfc	-0.0041729193
91	0xbaa6189b	-0.0012672128
92	0x3d6033d3	0.054736923
93	0x3caabcd1	0.020841988
94	0x3c21beeb	0.009872179
95	0xbcb7ed88	-0.02245213
96	0x3e63b0b2	0.22235373
97	0xbcc0dd03	-0.023542887
98	0xbd783849	-0.060600553
99	0x3d9358c2	0.071946636
100	0x3d42614c	0.04745607
101	0xbdfd1397	-0.12357252
102	0xbd9ca201	-0.07648087
103	0xbe0e789d	-0.13913198
104	0xbd6187a6	-0.055061005
105	0xbdc5ce75	-0.09658519
106	0xbced7865	-0.028988073
107	0xbc9c81fd	-0.019104952
108	0x3d8e4e86	0.06948571
109	0xbcf0c860	-0.029392421
110	0x3d6ae678	0.0573487
111	0xbd240e55	-0.04005273
112	0x3c9e5d3f	0.019331573
113	0x3d4723a2	0.048617966
114	0xbd7b1e6a	-0.061308302
115	0xbd59f88a	-0.05321554
116	0x3d1f143a	0.03883765
117	0x3d669abe	0.056299917
118	0xba909001	-0.0011029245
119	0x3ddb16a5	0.106976785
120	0xbd523f87	-0.051330116
121	0x3d6bc730	0.057563007
122	0xbce5cfa6	-0.028053116
123	0x3c84838a	0.016176004
124	0xbda738c6	-0.081651255
125	0x3c51eb2c	0.012812417
126	0x3aa872f2	0.0012851639
127	0x3d4a2bce	0.04935818
128	0xbd999c03	-0.0750046
129	0x3a5537e2	0.00081336324
130	0x3c89b746	0.016811024
131	0x3d8bf662	0.06834103
132	0xbd72b718	-0.059256643
133	0x3ddd0e04	0.10793689
134	0xbc06a6c5	-0.008218472
135	0xbcd725c2	-0.026263122
136	0xbd947da8	-0.072505295
137	0xbe8a026e	-0.2695498
138	0xbd81fd95	-0.06347195
139	0xbb5baed8	-0.0033520963
140	0x3db14ba6	0.08657007
141	0x3c108b06	0.008822208
142	0xbd6917f4	-0.05690761
143	0x3dd5de66	0.1044281
144	0x3d7975a9	0.060903225
145	0xbd34553a	-0.04402659
146	0xbc30f9dd	-0.01080176
147	0xbe4e6fa7	-0.2015978
148	0x3dcedeef	0.10101115
149	0xbd1c367c	-0.038137898
150	0xbdbbc411	-0.09168256
151	0x3cda44ce	0.026644137
152	0x3e4805a4	0.19533402
153	0xbd1a8797	-0.037726965
154	0xbe025adb	-0.12729971
155	0xbd23f47a	-0.040028073
156	0x3d8a6591	0.067576535
157	0xbbe70a3c	-0.0070507806
158	0x3db64107	0.08899122
159	0xbc11112d	-0.008854193
160	0x3da5c076	0.0809335
161	0x3d22f7c3	0.039787065
162	0x3d08bfcb	0.033386033
163	0xbc7d53f5	-0.015461911
164	0x3cf234b4	0.029566146
165	0xbe320740	-0.17385578
166	0x3cf5e680	0.030017138
167	0xbe381a91	-0.17978884
168	0xbdefa7cb	-0.11701926
169	0xbdd89961	-0.1057613
170	0xbdbd53b9	-0.092444845
171	0xbcafb84b	-0.021450182
172	0xbdd4e821	-0.103958376
173	0xbd400689	-0.046881232
174	0x3e1b5bca	0.15171733
175	0xbdb2ea7f	-0.08736133
176	0x3df89dac	0.121394485
177	0x3d49a800	0.049232483
178	0xbebb32fd	-0.36562338
179	0xbdff91aa	-0.12478955
180	0x3bfb3889	0.0076666516
181	0xbbe5b588	-0.0070101656
182	0xbc8eefe9	-0.017448382
183	0x3e2981d0	0.16553426
184	0xbe01cc45	-0.12675579
185	0xbd38ea9f	-0.045145627
186	0xbd88a02e	-0.06671177
187	0xbd31e372	-0.0434298
188	0x3d5c66bb	0.05380891
189	0xbd3183fd	-0.043338764
190	0x3e098896	0.1343101
191	0xbd168a5d	-0.036753047
192	0xbde9309f	-0.11386227
193	0xbd8544e0	-0.065072775
194	0xbd1183d8	-0.035526127
195	0x3d7b250e	0.061314635
196	0xbd435e40	-0.047697306
197	0xbe5625b1	-0.20912816
198	0x3d2a808d	0.0416265
199	0x3d8d3571	0.06894959
200	0xbe209c44	-0.1568461
201	0xbc85f822	-0.01635367
202	0x3d02d924	0.031945363
203	0x3e001b89	0.12510504
204	0xbdcaafd3	-0.09896817
205	0x3e200082	0.15625194
206	0xbd6bce33	-0.057569694
207	0x3e239b7f	0.15977286
208	0x3d9435c3	0.07236817
209	0xbd535420	-0.0515939
210	0xbd034b91	-0.032054488
211	0x3ddfccac	0.1092771
212	0xbdfa2561	-0.12214161
213	0x3e6e0559	0.23244227
214	0xbd1698a0	-0.03676665
215	0xbdf75191	-0.120761044
216	0x3db80fe7	0.08987408
217	0xbe0062a1	-0.12537624
218	0x3e1cbaab	0.15305583
219	0xbdd79ec8	-0.10528332
220	0x3d780e1c	0.06056033
221	0x3e4e5283	0.20148663
222	0xbdd371cf	-0.10324442
223	0x3d8ff406	0.07028966
224	0x3d0ed474	0.03487058
225	0xbd1364d2	-0.03598482
226	0xbe25d68e	-0.16195127
227	0x3cd87205	0.026421556
228	0x3da45fff	0.08026122
229	0x3e4d3b33	0.20042114
230	0xbe2fcfa2	-0.1716905
231	0x3d998ca4	0.07497528
232	0x3d47ea3a	0.04880736
233	0xbdc3828d	-0.09546385
234	0xbe275efe	-0.1634483
235	0xbe51c09b	-0.2048363
236	0xbe04b119	-0.12958182
237	0x3dfabd2a	0.122431114
238	0xbe0c410a	-0.13696685
239	0x3d48a460	0.048984885
240	0x3d5d33ef	0.054004606
241	0x3bc16e36	0.0059030307
242	0xbc410d1b	-0.01178291
243	0xbe1695a9	-0.14705528
244	0xbdc02b35	-0.09383241
245	0xbe4a3762	-0.1974769
246	0xbc8fd26c	-0.017556392
247	0x3e8c3879	0.27386835
248	0xbd7be2fd	-0.06149577
249	0x3e1d24b7	0.15346037
250	0x3e7d8991	0.24759509
251	0xbd1d8771	-0.038459245
252	0x3d304fd7	0.04304489
253	0xbe1805c5	-0.14845951
254	0x3db9aa86	0.09065728
255	0x3ccdb353	0.025109923

model/vf2/BiasAdd/ReadVariableOp:0 f4 [64]
0	0xbd325190	-0.043534815
1	0xbd75f249	-0.060045514
2	0xbd939e25	-0.07207898
3	0x3da467f7	0.08027642
4	0xbd09de32	-0.033659168
5	0xbd89e2c3	-0.067327045
6	0xbd14be35	-0.036314208
7	0xbd8229f9	-0.06355662
8	0xbd0b4ebe	-0.03401064
9	0xbdf490a5	-0.11941651
10	0xbd8753a4	-0.0660775
11	0xbd5d9508	-0.054097205
12	0xbd0dcc86	-0.034618877
13	0xbda854b9	-0.082192846
14	0xbdb648e7	-0.08900624
15	0xbe6ba03c	-0.23010343
16	0xbd7f9aca	-0.062403478
17	0x3cef7009	0.029228227
18	0xbd7ea5b1	-0.062169734
19	0xbd2f5486	-0.042805217
20	0x3cc0c1bc	0.02352988
21	0xbdbb3275	-0.09140483
22	0xbd8470ab	-0.06466802
23	0xbd1a1761	-0.037619952
24	0xbd5f7384	-0.054553524
25	0xbe2db147	-0.16962157
26	0xbe53642f	-0.20643686
27	0xbd27ad44	-0.040936723
28	0xbe8abfcc	-0.27099454
29	0x3d31a952	0.043374367
30	0xbd0533fc	-0.03252028
31	0x3dbcbd13	0.092157505
32	0xbc83b9f3	-0.016079878
33	0xbd1a12ca	-0.037615575
34	0xbc330c87	-0.01092828
35	0xbd2b05fb	-0.04175375
36	0xbdc469c3	-0.09590485
37	0xbe3ebdae	-0.18627045
38	0xbd2408cc	-0.04004745
39	0xbce584c7	-0.028017415
40	0xbd267bfb	-0.04064558
41	0xbc7e4888	-0.0155202225
42	0xbc9bffe0	-0.01904291
43	0xbd138d96	-0.0360237
44	0xbdcd69fa	-0.10029979
45	0xbcc549c9	-0.024083035
46	0xbde0cce5	-0.109765805
47	0xbc908ca3	-0.017645186
48	0xbe0327d0	-0.12808156
49	0xbdcb3325	-0.099218644
50	0xbd834f08	-0.064115584
51	0xbd82d3f0	-0.0638808
52	0xbd80a6f8	-0.06281847
53	0xbd16451e	-0.03668701
54	0xbc4c578f	-0.0124720475
55	0xbdba2498	-0.09089011
56	0xbe004c69	-0.12529148
57	0xbdbb7a7e	-0.09154223
58	0xbd6141de	-0.054994456
59	0xbd4742ef	-0.048647817
60	0xbe2da649	-0.16957964
61	0xbcf941c3	-0.030426865
62	0x3b30c12f	0.0026970615
63	0xbd8babe6	-0.068198964

model/vf1/MatMul/ReadVariableOp:0 f4 [4, 64]
0	0xbc3fa0a1	-0.011696012
1	0xbc95ae31	-0.018271537
2	0xbc83500b	-0.016029378
3	0xbd1b9760	-0.03798616
4	0x3bdd7d5b	0.0067593283
5	0xbc89a236	-0.016800981
6	0x3c7efd25	0.015563284
7	0xbd765e3d	-0.060148466
8	0x3b50e74d	0.0031876147
9	0xbc4a38a1	-0.012342603
10	0x3cf1759f	0.029475031
11	0x3bb8bf5c	0.005638046
12	0xbd04c272	-0.032412
13	0x3c5680d6	0.01309224
14	0xbe3fa02a	-0.18713441
15	0xbcc6c2e2	-0.02426285
16	0xbd593365	-0.05302753
17	0x3ca0d9da	0.01963513
18	0xbc4b29ca	-0.0124001
19	0xbd00d4f6	-0.031453095
20	0x3d252e06	0.040327094
21	0x3d58a490	0.052891314
22	0xbbe3897f	-0.006943881
23	0xbd114b28	-0.035472065
24	0x3d35d4c3	0.04439236
25	0xbc975b1a	-0.018476058
26	0x3bc77048	0.006086383
27	0xbcb02331	-0.021501156
28	0x3d18aab1	0.03727216
29	0xbe51f998	-0.20505369
30	0x3ca31c0d	0.019910837
31	0x3b050493	0.0020296916
32	0xbd92adf9	-0.07162089
33	0xbc58739a	-0.013211155
34	0x39990fbf	0.00029194166
35	0x3c885cdf	0.016645847
36	0xbb2c71e6	-0.0026313006
37	0x3acb8f7c	0.0015530433
38	0x3b694501	0.0035594108
39	0xbe608f8f	-0.21929763
40	0x3cc25e0f	0.023726491
41	0xbc95d11f	-0.018288193
42	0xbeb84c59	-0.3599575
43	0xbc28efc0	-0.010311067
44	0xbeb11289	-0.34584454
45	0xba31a303	-0.0006776305
46	0xbbc6c023	-0.006065385
47	0x3c2b6d85	0.010463123
48	0x3c3a128a	0.011356959
49	0x3bc79e0a	0.006091838
50	0xbdbf4b47	-0.0934053
51	0xbd1891f7	-0.037248578
52	0x3bd908de	0.0066233715
53	0x3c1be9f6	0.00951623
54	0x3d8efb8c	0.069815725
55	0x3cc8c31c	0.024507098
56	0xbc1a16b3	-0.009404826
57	0xbca70331	-0.020387264
58	0x3d2a0e61	0.04151762
59	0x3be317b3	0.0069303154
60	0x3c37a4a0	0.011208683
61	0xbe007524	-0.12544686
62	0xbc082a3f	-0.0083108535
63	0x3d71c3a4	0.059024468
64	0x3bebe76c	0.0071992185
65	0x3c6859db	0.014181579
66	0x3d2ed523	0.04268373
67	0xbdcae450	-0.099068284
68	0xba8f60b0	-0.0010938849
69	0x3bc764fe	0.0060850373
70	0xbb8435eb	-0.004034748
71	0x3c8f5c57	0.017500086
72	0x38cef616	9.8686825e-05
73	0xbef21ea6	-0.47289008
74	0xbc2b5b21	-0.010458739
75	0xbb3d6fe2	-0.0028905799
76	0x3b7fdab8	0.0039040279
77	0xbc3bef47	-0.011470622
78	0x3d866b42	0.065634266
79	0x3ccad4ce	0.024759676
80	0x3d5c9de9	0.053861532
81	0xbb8e639c	-0.0043453705
82	0x3b9d9f06	0.004810217
83	0xbc43b02e	-0.01194386
84	0xbd980630	-0.07423055
85	0xbd8141a5	-0.06311349
86	0x3b478fe4	0.0030450756
87	0xbef5a6fe	-0.47978967
88	0x37548319	1.2666708e-05
89	0x3bbe3512	0.0058046663
90	0xbb507f29	-0.0031814075
91	0x3d0a3592	0.033742495
92	0xbc1df653	-0.009641248
93	0xbe1d1cc7	-0.15343009
94	0xbb9b549d	-0.0047403113
95	0xbb19539b	-0.002339578
96	0x3d436847	0.04770687
97	0x3b191309	0.0023357293
98	0xbd3a4d16	-0.04548367
99	0x3aaa43fc	0.0012990232
100	0xbb250f18	-0.0025185999
101	0xbbdd8194	-0.0067598317
102	0xbc2b10d3	-0.010441023
103	0xbe6e48df	-0.23269986
104	0xbb5eb7ce	-0.0033984068
105	0xbbf6966c	-0.007525256
106	0xbd2d162e	-0.04225748
107	0x3b6c8732	0.0036091325
108	0x3cca3e3e	0.024687883
109	0x39a6da03	0.0003182442
110	0xbc65ba71	-0.014021502
111	0xbe783686	-0.24239549
112	0xbba8dd89	-0.005153362
113	0x3b21449e	0.002460755
114	0xbe24fe47	-0.16112624
115	0xbc97255c	-0.018450432
116	0xbb14a2bd	-0.0022680007
117	0x3b8ac9e0	0.004235491
118	0xbd5fe44e	-0.054661088
119	0xbbd0d72f	-0.006373308
120	0x38cb7462	9.701472e-05
121	0x3cc2ac54	0.023763813
122	0xbc467e1f	-0.012115031
123	0xbb15b3d3	-0.002284278
124	0xbb348519	-0.0027545153
125	0xbea455ac	-0.32096612
126	0x3aafdf0b	0.0013417912
127	0xbcef033a	-0.029176343
128	0xbd6a9814	-0.05727394
129	0xbc72c5f7	-0.014817706
130	0xbcf502f1	-0.02990863
131	0x3d1b01df	0.03784358
132	0xbd231881	-0.03981829
133	0xbd2e68cc	-0.04258041
134	0x3d14697c	0.03623341
135	0xbd589078	-0.05287215
136	0xbdf463f0	-0.11933124
137	0xbe4865a1	-0.19570018
138	0xbca802e3	-0.020509189
139	0x3d970cfc	0.073755234
140	0x3bd86ba4	0.0066046286
141	0xbd849b5c	-0.06474945
142	0xbe43e029	-0.19128479
143	0x3db6ba44	0.08922246
144	0x3d629af2	0.05532355
145	0xbd42cf80	-0.04756117
146	0x3c420914	0.011842985
147	0xbdb5be32	-0.088741675
148	0xbc8e7921	-0.017391743
149	0x3c6dd49d	0.014516023
150	0xbd7bcf67	-0.06147709
151	0xbc1ac6b1	-0.009446786
152	0x3e011d67	0.12608872
153	0xbd3f6fdb	-0.046737533
154	0xbcf43d76	-0.029814463
155	0xbd340559	-0.043950412
156	0x3cda0897	0.026615424
157	0x3da38c8e	0.07985793
158	0xbd855f8a	-0.06512363
159	0x3caae83d	0.020862693
160	0x3d6b0583	0.057378303
161	0xbaf68fa5	-0.001881112
162	0xbcc1915c	-0.023628883
163	0x37850436	1.5856796e-05
164	0x3c7d303d	0.015453395
165	0xbdb121b0	-0.086490035
166	0xbcc1f8d9	-0.02367823
167	0xbe0166e6	-0.12636909
168	0xbd025dca	-0.031827725
169	0xbdd6bbba	-0.10485025
170	0xbe509486	-0.20369157
171	0xbdf85262	-0.12125088
172	0xbe620597	-0.22072445
173	0xbd52226d	-0.051302362
174	0x3c9bf039	0.019035446
175	0xbcbae015	-0.022811929
176	0x3defadeb	0.11703094
177	0x3d4e0509	0.05029777
178	0xbe96c86a	-0.2944978
179	0xbe0d6d2f	-0.13811181
180	0xbd0dddd9	-0.0346354
181	0xbdd82283	-0.105534576
182	0xbd1e3be1	-0.038631324
183	0x3e27e87f	0.16397284
184	0xbdeb5f7a	-0.1149282
185	0x3d834e55	0.06411425
186	0x3da2349e	0.07920192
187	0xbcecbefe	-0.028899666
188	0x3d569855	0.05239137
189	0xbe2e45a8	-0.17018759
190	0x3da326ea	0.07966407
191	0xbc67c783	-0.014146688
192	0xbd855a4e	-0.06511365
193	0xbc356a86	-0.01107276
194	0x3c00ce59	0.007861697
195	0x3d0de937	0.03464624
196	0xbd245a3c	-0.040125117
197	0xbd840cb8	-0.064477384
198	0x3d165fe7	0.036712553
199	0xbd9800da	-0.074220374
200	0xbdf3e681	-0.119091995
201	0xbd0367d7	-0.03208145
202	0xbcb46457	-0.022020502
203	0x3d9b4155	0.075808205
204	0x3a88e513	0.0010444246
205	0xbd93b1de	-0.0721166
206	0x3e039121	0.12848331
207	0x3dd3b8c6	0.10337977
208	0x3dd566fb	0.104200326
209	0xbd410626	-0.047125004
210	0x3c3b1610	0.011418834
211	0xbdaafc94	-0.08348957
212	0xbc4fb5df	-0.012677639
213	0x3c8a57a0	0.016887486
214	0xbd7c5dde	-0.061612956
215	0xbd2a76d6	-0.041617237
216	0x3e086962	0.1332145
217	0xbd8017c8	-0.06254536
218	0xbcf15b35	-0.029462436
219	0xbcbd59d1	-0.023114117
220	0x3cd33320	0.025781214
221	0x3d5648e8	0.052315623
222	0xbd88a076	-0.066712305
223	0x3ca8179f	0.020519076
224	0x3d85d7b0	0.0653528
225	0xbc6f9553	-0.014623004
226	0xbd3dd6cb	-0.04634742
227	0x3b6a12cb	0.0035716768
228	0x3c5d49ea	0.013506392
229	0xbdd00c1d	-0.101585604
230	0xbcb7deaf	-0.022445051
231	0x3da44cf5	0.08022491
232	0xbcf19acc	-0.029492758
233	0xbdc8e9a7	-0.09810191
234	0xbd5e810d	-0.05432229
235	0xbe03dec9	-0.12877955
236	0xbdac2fa0	-0.08407521
237	0xbd5a471e	-0.05329048
238	0xbc35623e	-0.011070786
239	0xbc99c233	-0.01876936
240	0x3ded0da6	0.11574869
241	0x3d4df4dd	0.050282348
242	0xbd463577	-0.04839083
243	0xbe150f1e	-0.14556548
244	0xbd0e7bdd	-0.034786094
245	0xbdd15740	-0.1022172
246	0xbd1e8532	-0.038701244
247	0x3e26013d	0.1621141
248	0xbe0479b8	-0.12937057
249	0x3da5baaa	0.08092244
250	0x3db56dba	0.08858819
251	0xbcf1f194	-0.029534139
252	0x3d4f50d9	0.05061421
253	0xbcdf514f	-0.02726045
254	0x3d966d34	0.073450476
255	0xbc96acb4	-0.018392898

model/vf1/BiasAdd/ReadVariableOp:0 f4 [64]
0	0xbd31f99e	-0.043450944
1	0xbd78419a	-0.060609438
2	0xbe35ebcd	-0.17765732
3	0xbe63a5a8	-0.22231162
4	0xbc5ac569	-0.01335273
5	0xbda3b60f	-0.07993709
6	0xbcf70774	-0.030154921
7	0xbe165d68	-0.14684069
8	0xbc5d2c27	-0.013499296
9	0xbf0d6a0e	-0.5523995
10	0xbd7b9531	-0.061421577
11	0xbca4f621	-0.020136895
12	0xbda1f64d	-0.07908306
13	0xbd2d69dc	-0.042337283
14	0xbf1d80c4	-0.61524606
15	0xbdcf5501	-0.10123635
16	0xbe88541a	-0.26626664
17	0xbd18583c	-0.03719352
18	0xbd1f60dc	-0.03891073
19	0xbddc86aa	-0.10767873
20	0xbe1f9856	-0.15585455
21	0xbe1f42a8	-0.15552771
22	0xbc99f5c8	-0.018793955
23	0xbefa8875	-0.48932233
24	0xbdb25a9f	-0.08708691
25	0xbd71c725	-0.05902781
26	0xbc6a2f35	-0.014293482
27	0xbe05fd3c	-0.13084882
28	0xbd8ac3d3	-0.06775632
29	0xbe8da66d	-0.27666035
30	0xbd199d54	-0.037503555
31	0xbbd58a05	-0.0065166974
32	0xbe5b2ad1	-0.21403052
33	0xbd33a659	-0.043859813
34	0xbdac8418	-0.084236324
35	0xbd09e3e7	-0.03366461
36	0xbc343c9e	-0.01100078
37	0xbcfe7c2f	-0.031065075
38	0xbcc81947	-0.024426116
39	0xbee30082	-0.44336325
40	0xbd3e599e	-0.046472184
41	0xbd97cfec	-0.07412705
42	0xbf0ba4c1	-0.5454827
43	0xbd097ac9	-0.033564363
44	0xbee6b7ca	-0.45062095
45	0xbba5ac02	-0.0050559053
46	0xbd8cb5b7	-0.06870597
47	0xbea55410	-0.32290697
48	0xbccd51ac	-0.025063358
49	0xbcb2048e	-0.021730687
50	0xbeed9247	-0.46400663
51	0xbde64db1	-0.11245287
52	0xbc513813	-0.012769717
53	0xbcfb0e42	-0.030646447
54	0xbe4026d9	-0.18764819
55	0xbd3ca9e3	-0.046060454
56	0xbd229810	-0.0396958
57	0xbdc423e9	-0.09577162
58	0xbdc17f97	-0.09448164
59	0xbc737a88	-0.014860757
60	0xbcba2968	-0.022724822
61	0xbf05e850	-0.52307606
62	0xbccb8421	-0.024843277
63	0xbe08b67b	-0.13350861

model/phi/MatMul/ReadVariableOp:0 f4 [32, 1]
0	0x3b255e92	0.002523337
1	0x3df86d4b	0.12130221
2	0x3ca2ddc6	0.01988114
3	0xbdb09e47	-0.08623939
4	0x3d56691e	0.05234634
5	0xbcd8bf05	-0.026458273
6	0x3e2c8e00	0.16851044
7	0xbd9c7b49	-0.07640702
8	0x3e301e4b	0.17199056
9	0x3e096844	0.1341868
10	0x3e17b685	0.1481572
11	0xbbf32a9d	-0.0074208514
12	0xbe030f6c	-0.12798852
13	0x3e53fd90	0.20702195
14	0x3d752339	0.059848044
15	0xbcef607c	-0.029220812
16	0xbdfbfd4c	-0.12304172
17	0x3e12ad59	0.1432394
18	0xbe036f09	-0.12835325
19	0xbd370392	-0.04468114
20	0x3e38af90	0.18035722
21	0x3e64c40a	0.22340408
22	0xbcea954c	-0.028635643
23	0xbd35d745	-0.04439475
24	0x3e9a6bdc	0.30160415
25	0xbc8ca35b	-0.017167738
26	0x3de8a3df	0.11359381
27	0x3b390e00	0.0028237104
28	0x3e42547e	0.18977544
29	0x3ad3f33c	0.0016170512
30	0xbabe3c6e	-0.0014513859
31	0x3e253f03	0.16137318

model/p5/MatMul/ReadVariableOp:0 f4 [32, 32]
0	0xbe314032	-0.17309645
1	0x3f8ba148	1.0908594
2	0x3f852504	1.0401921
3	0xbdc41e6e	-0.095761165
4	0x3f86a051	1.0517675
5	0xbde45f60	-0.11151004
6	0x3f8f9dd6	1.1220043
7	0xbe1cc13e	-0.15308091
8	0x3f9107f3	1.1330551
9	0x3d405a50	0.04696113
10	0x3f8e3000	1.1108398
11	0xbd14b062	-0.036301024
12	0xbe298e54	-0.165582
13	0x3f940461	1.1563836
14	0x3f875801	1.0573732
15	0xbd869e0f	-0.06573116
16	0xbe16f8f7	-0.1474341
17	0x3f8b7fdb	1.0898393
18	0xbe036f09	-0.12835325
19	0xbd8a648b	-0.06757458
20	0x3f9105dd	1.1329914
21	0x3f95f295	1.1714655
22	0xbbf39a38	-0.007434156
23	0xbd8260e1	-0.063661344
24	0x3fa04a4a	1.2522671
25	0xbdbaba16	-0.09117524
26	0x3f8a74b0	1.081686
27	0xbd989b27	-0.07451468
28	0x3f91bbe9	1.1385471
29	0xbd00b289	-0.031420264
30	0x3f82d6e6	1.0221832
31	0x3f8d014a	1.1016018
32	0xbe54e231	-0.2078941
33	0x3f61fbac	0.88274646
34	0x3f8a4db4	1.0804963
35	0x3e0fef28	0.14056075
36	0x3f90ab83	1.1302341
37	0xbca8873d	-0.0205723
38	0x3f885d52	1.0653479
39	0xbd77d5d7	-0.060506668
40	0x3f96f145	1.179238
41	0xbd195f90	-0.03744465
42	0x3f75794a	0.958882
43	0xbd9882e9	-0.07446844
44	0xbe4c2933	-0.19937591
45	0x3f7fd9af	0.99941534
46	0x3f8796d0	1.0592899
47	0xbca98ab7	-0.020696027
48	0xba924ec9	-0.0011162396
49	0x3f895790	1.0729847
50	0x3c6390b7	0.013889483
51	0xbe1641af	-0.14673494
52	0x3f855e88	1.0419474
53	0x3f894e19	1.0726959
54	0x3c4b461d	0.012406853
55	0x3cc98009	0.024597185
56	0x3f85d699	1.0456115
57	0xbd9b1f68	-0.0757435
58	0x3f8de3ca	1.1085141
59	0x3dee5916	0.116380855
60	0x3f8a7328	1.0816393
61	0xbd79f545	-0.061024923
62	0x3f832831	1.024664
63	0x3f8f2c42	1.1185381
64	0x3d03563b	0.032064658
65	0x3f913809	1.1345226
66	0x3f9a599e	1.2058599
67	0xbdbbec79	-0.09175963
68	0x3f8108a3	1.0080761
69	0x3d6bb929	0.05754963
70	0x3f7f2b69	0.99675614
71	0x3da20d10	0.07912648
72	0x3f901524	1.1256452
73	0xbe0dfe1c	-0.13866466
74	0x3f862ab3	1.0481781
75	0xbda842a1	-0.082158335
76	0xbe128998	-0.143103
77	0x3f7eb45f	0.99493974
78	0x3f8e0c85	1.1097571
79	0x3d6fa1a2	0.058503754
80	0x3cc4e0b5	0.02403293
81	0x3f8edd1e	1.116123
82	0x3d84e21f	0.06488442
83	0xbd41f98f	-0.04735714
84	0x3f5262f1	0.8218222
85	0x3f750907	0.957169
86	0x3d327381	0.043567184
87	0xbdd9b817	-0.106308155
88	0x3f830e90	1.0238819
89	0x3db80ba0	0.08986592
90	0x3f88382e	1.0642145
91	0xbbe8fa94	-0.0071099494
92	0x3f8f51f3	1.1196884
93	0x3c35fb09	0.011107215
94	0x3f7df31f	0.991991
95	0x3f82cdcb	1.0219053
96	0x3e723229	0.23651947
97	0x3f82f318	1.0230436
98	0x3f815f5b	1.0107225
99	0x3db31eaf	0.08746087
100	0x3f8d9717	1.1061734
101	0xbd2ec9fa	-0.04267309
102	0x3f7f0747	0.9962048
103	0xbdf6e3eb	-0.12055191
104	0x3f7a4e5a	0.97775805
105	0xbda70158	-0.08154553
106	0x3f814cfd	1.010162
107	0xbd2d271e	-0.042273633
108	0x3db30f27	0.087431245
109	0x3f82d982	1.0222628
110	0x3f8dba86	1.1072547
111	0xbc89b112	-0.016808067
112	0x3d36209e	0.0444647
113	0x3f8ca325	1.0987288
114	0xbcc12487	-0.023576988
115	0xbd343285	-0.04399349
116	0x3f8a3953	1.0798744
117	0x3f8c6126	1.0967147
118	0x3ca21561	0.019785585
119	0x3d8fa03a	0.07012983
120	0x3f7ef4c7	0.9959225
121	0x3d9806f0	0.07423198
122	0x3f8244de	1.0177267
123	0x3c798950	0.015230492
124	0x3f7be6ae	0.98398864
125	0x3c96aa76	0.018391829
126	0x3f84fae4	1.0389066
127	0x3f8a329c	1.0796695
128	0xbd5b3f8b	-0.053527396
129	0x3cd60d7d	0.026129479
130	0x3ca8dc87	0.020612968
131	0x3d53e36f	0.05173057
132	0xbd23277d	-0.03983258
133	0x3ddba3ba	0.10724588
134	0x3c335c86	0.010947352
135	0xbd646782	-0.055762775
136	0xbd631fa3	-0.055450093
137	0xbe78fdf5	-0.24315627
138	0xbd987ac3	-0.0744529
139	0x3ceee823	0.029163426
140	0x3da2e808	0.07954413
141	0x3cd588a2	0.026066128
142	0xbcbd2e0a	-0.023093242
143	0x3da391de	0.07986806
144	0x3d948a63	0.07252958
145	0xbd611585	-0.054952163
146	0x3c14e107	0.009086854
147	0xbe580c7b	-0.21098511
148	0x3dae8ab9	0.08522553
149	0xbd3ab7c6	-0.045585416
150	0xbdb0ca87	-0.08632379
151	0x3d7d1d7a	0.06179569
152	0x3e3f864d	0.18703575
153	0xbd177fcb	-0.036987107
154	0xbdd9f6bf	-0.10642766
155	0xbd422e9e	-0.04740774
156	0x3d9e9b5b	0.077444755
157	0xbcf26862	-0.02959079
158	0x3d1e7a09	0.0386906
159	0xbcd941e3	-0.026520675
160	0x3dae861a	0.085216716
161	0x3d435f3e	0.047698252
162	0x3d91c0ac	0.07116827
163	0xbd211f54	-0.039336517
164	0x3d64c3a0	0.055850625
165	0xbe0a8944	-0.13528925
166	0x3db50f3c	0.08840796
167	0xbe2646f2	-0.16238001
168	0xbdc50c4e	-0.096214876
169	0xbdecbaff	-0.11559104
170	0xbdb64999	-0.089007564
171	0xbda7ce2d	-0.08193622
172	0xbdfd27b7	-0.12361091
173	0xbca3ad33	-0.019980049
174	0x3e2bf1a4	0.16791397
175	0xbdce5ca7	-0.10076266
176	0x3e0b1952	0.13583878
177	0x3dc701be	0.09717129
178	0xbeaedbda	-0.34152108
179	0xbe168644	-0.14699656
180	0x3c5bba2c	0.013411086
181	0xba22c06b	-0.0006208482
182	0xbca894fb	-0.020578852
183	0x3dd7b90d	0.105333425
184	0xbddbc02e	-0.10730015
185	0xbd30ef06	-0.0431967
186	0xbd6d30c9	-0.057907853
187	0xbd377216	-0.044786535
188	0x3db959d7	0.09050339
189	0xbd7761e9	-0.06039611
190	0x3e11621b	0.1419758
191	0xbcccbd08	-0.02499248
192	0xbdc1b25e	-0.09457849
193	0x3f7c6a3d	0.98599607
194	0x3f7f6fa1	0.9977971
195	0x3c57db4d	0.013174844
196	0x3f7fec3e	0.9996985
197	0xbe6df04b	-0.23236196
198	0x3f8caa52	1.0989478
199	0xbd9dfe95	-0.07714573
200	0x3f5a85d8	0.8536048
201	0x3cf623b1	0.030046316
202	0x3f88dc3d	1.0692211
203	0x3de7c85e	0.11317514
204	0xbda5cb56	-0.08095424
205	0x3f5f797a	0.87294734
206	0x3f7ff080	0.9997635
207	0x3ddae5dc	0.106883734
208	0x3da60d2e	0.081079826
209	0x3f7dc982	0.991356
210	0x3c683cf7	0.014174691
211	0x3d04827e	0.03235101
212	0x3f6bdd51	0.9213458
213	0x3f8e2b45	1.1106955
214	0xbd1698a0	-0.03676665
215	0xbdee67b6	-0.11640875
216	0x3f8d8515	1.1056238
217	0xbda0953d	-0.07840965
218	0x3f8af23f	1.0855178
219	0xbceaba42	-0.028653268
220	0x3f818030	1.0117245
221	0x3e1b1a12	0.15146664
222	0x3f5b2bda	0.8561379
223	0x3f8d4735	1.1037356
224	0x3cb61dd9	0.02223103
225	0xbc1b0a98	-0.009462975
226	0xbda2217d	-0.07916544
227	0x3d079be3	0.03310765
228	0x3d009426	0.031391285
229	0xbdbb80b1	-0.09155405
230	0xbda2e022	-0.07952906
231	0x3dd1f6d7	0.10252159
232	0x3db6ccbe	0.0892577
233	0xbd8de0ad	-0.06927619
234	0xbde8a5b7	-0.113597326
235	0xbe34eb2d	-0.17667837
236	0xbe49a9b6	-0.19693646
237	0xbcfc7e6b	-0.030822
238	0xbdd32039	-0.1030888
239	0x3d48cc23	0.049022805
240	0x3dae42a4	0.085088044
241	0x3d7b14c8	0.061299115
242	0xbab3b746	-0.0013711236
243	0xbe17029b	-0.14747088
244	0xbcd3daaa	-0.025861103
245	0xbe1a662f	-0.15078042
246	0xbd687783	-0.0567546
247	0x3e50d305	0.20392998
248	0xbdaa48ae	-0.08314644
249	0x3e33d55b	0.17561857
250	0x3e8fbd8c	0.280743
251	0xbd2e6b8b	-0.04258303
252	0x3d8a1123	0.0674155
253	0xbe1ca4d6	-0.15297255
254	0x3d23878b	0.039924186
255	0x3d55d46b	0.05220453

model/p5/BiasAdd/ReadVariableOp:0 f4 [32]
0	0xbc3cae74	-0.011516202
1	0x3d77a5a0	0.060460687
2	0x3dc080fb	0.09399601
3	0xbc29ae8f	-0.010356559
4	0x3dae3d83	0.08507826
5	0xbcadd233	-0.021218395
6	0x3d44bd1a	0.048031904
7	0xbbf3efe9	-0.007444371
8	0x3d347b36	0.044062816
9	0x3c994d3e	0.01871359
10	0x3d55b0f5	0.052170713
11	0xbc02ae5c	-0.007976141
12	0xbc0e8383	-0.008698347
13	0x3d17f0ca	0.03709487
14	0x3da4b158	0.08041638
15	0xbbc4ad10	-0.006002076
16	0xbbc4c44e	-0.0060048467
17	0x3d8f85d2	0.07007946
18	0x00000000	0.0
19	0xbbe4fc3d	-0.006988077
20	0x3d37ca32	0.044870563
21	0x3d3b94df	0.04579627
22	0x00000000	0.0
23	0xbc09d57d	-0.008412716
24	0x3c9747f0	0.01846692
25	0xbbd292b2	-0.006426179
26	0x3d856ef2	0.06515302
27	0xbc3c1678	-0.011479966
28	0x3d2f991d	0.04287063
29	0xbc289371	-0.010289059
30	0x3dad9c17	0.084770374
31	0x3d7165db	0.058935028

model/p4/MatMul/ReadVariableOp:0 f4 [64, 32]
0	0x3f62548c	0.8841026
1	0x3f8c38f5	1.0954882
2	0x3f83758c	1.0270247
3	0x3f6b650c	0.9195106
4	0x3c9eddc8	0.019392863
5	0xbddd8ce9	-0.10817892
6	0x3f8b45ac	1.0880637
7	0xbe307b64	-0.1723457
8	0x3f91b73e	1.1384046
9	0x3f840046	1.0312583
10	0x3f8d996c	1.1062446
11	0x3f809c22	1.0047648
12	0x3f6111d9	0.8791786
13	0x3de791fb	0.113071404
14	0x3f8739d1	1.0564519
15	0x3f7aa1f8	0.97903395
16	0x3f645cd7	0.8920416
17	0x3d4d80e6	0.050171755
18	0xbe036f09	-0.12835325
19	0x3f7add9a	0.9799439
20	0x3f8f81be	1.1211469
21	0x3f91b22d	1.13825
22	0x3f83f848	1.0310144
23	0xbd784f68	-0.060622603
24	0x3fa172f1	1.2613202
25	0xbdc488e6	-0.09596424
26	0x3f8a51c3	1.0806202
27	0x3f7bb117	0.9831709
28	0x3f92578a	1.1432965
29	0x3f7eb9ad	0.9950207
30	0x3f84c960	1.0373955
31	0x3f8c0f72	1.0942214
32	0xbe0e9f10	-0.13927865
33	0xbddad7ba	-0.10685678
34	0x3d970b58	0.073752105
35	0x3e319a48	0.1734401
36	0x3dc0caa9	0.09413654
37	0xbc9ee6e6	-0.01939721
38	0x3d4e2add	0.050333846
39	0xbd8be58c	-0.06830892
40	0x3e445e92	0.191767
41	0xbcd631fa	-0.026146878
42	0xbd2e1247	-0.0424979
43	0xbcea555a	-0.028605152
44	0xbe1d53fc	-0.15364069
45	0xbd3634e8	-0.04448405
46	0x3d8a2e46	0.06747107
47	0x3cc21b05	0.023694525
48	0x3d0b5670	0.03401798
49	0x3d1d9cff	0.0384798
50	0x3c6390b7	0.013889483
51	0xbdce6c67	-0.1007927
52	0x3d0d34e4	0.03447427
53	0x3d874388	0.066046774
54	0x3d6783ba	0.05652211
55	0x3ca0b3f2	0.019617055
56	0x3d80aa78	0.06282514
57	0xbd96c083	-0.073609374
58	0x3df424ab	0.11921056
59	0x3e39e3a1	0.1815324
60	0x3d9b4e9c	0.07583353
61	0xbcd99888	-0.02656199
62	0x3d1d811b	0.038453203
63	0x3df67efe	0.120359406
64	0x3f8bc93c	1.0920787
65	0x3f90c56f	1.1310252
66	0x3f96a196	1.1768062
67	0x3f6de596	0.92928445
68	0xbd049e56	-0.032377563
69	0x3d49dc72	0.0492825
70	0x3f76c35f	0.9639186
71	0x3d50a643	0.05093981
72	0x3f904349	1.1270534
73	0x3f611ceb	0.8793475
74	0x3f850f3e	1.0395277
75	0x3f74e308	0.9565892
76	0x3f66db65	0.9017852
77	0xbd626bcf	-0.055278596
78	0x3f8dce56	1.1078594
79	0x3f8d1bcf	1.1024112
80	0x3f8854e0	1.0650902
81	0x3d93607e	0.07196139
82	0x3d84e21f	0.06488442
83	0x3f7f190b	0.9964759
84	0x3f4d40e8	0.80177164
85	0x3f6fd1b3	0.9367935
86	0x3f8a7eb7	1.081992
87	0xbdddb822	-0.10826136
88	0x3f83b94d	1.0290924
89	0x3da60f1b	0.0810835
90	0x3f87e4ef	1.061674
91	0x3f8646de	1.0490377
92	0x3f8e12b8	1.1099463
93	0x3f860d91	1.047289
94	0x3f80525c	1.0025134
95	0x3f825cbf	1.0184554
96	0x3fa47ae6	1.2850006
97	0x3f81934a	1.0123074
98	0x3f785443	0.97003573
99	0x3f8b4624	1.088078
100	0x3d9aa697	0.07551306
101	0xbd678d86	-0.05653145
102	0x3f78781e	0.97058284
103	0xbe19728e	-0.14985105
104	0x3f793497	0.9734587
105	0x3f6d96b8	0.92808104
106	0x3f7efe06	0.9960636
107	0x3f7c4a7e	0.98551166
108	0x3f8f725c	1.1206775
109	0xbc8c445e	-0.017122444
110	0x3f8cc2a8	1.0996904
111	0x3f822160	1.0166435
112	0x3f889e21	1.0673257
113	0x3d8aad99	0.067713924
114	0xbcc12487	-0.023576988
115	0x3f7b96ad	0.9827679
116	0x3f874134	1.0566773
117	0x3f88aa7a	1.0677025
118	0x3f861d8e	1.0477769
119	0x3d88f9ea	0.06688292
120	0x3f7f04cc	0.99616694
121	0x3d853144	0.06503537
122	0x3f81443d	1.009895
123	0x3f86131a	1.0474579
124	0x3f792829	0.97326905
125	0x3f84a02f	1.0361384
126	0x3f83f1b1	1.0308133
127	0x3f893033	1.0717834
128	0xbd100308	-0.03515914
129	0x3d3ec654	0.04657586
130	0x3c6b4fcc	0.014362287
131	0x3d35925c	0.044329032
132	0xbd24c7a3	-0.04022945
133	0x3dba9383	0.09110167
134	0xbc00b9b1	-0.007856772
135	0xbd929d7e	-0.071589455
136	0xbd1b0448	-0.03784588
137	0xbe752604	-0.23940283
138	0xbd8ef320	-0.06979966
139	0x3d4ab4eb	0.049488943
140	0x3dcb1b50	0.09917319
141	0x3c100fee	0.00879286
142	0xbbf3f80c	-0.007445341
143	0x3dcdae9e	0.10043071
144	0x3d9c5630	0.076336265
145	0xbd7e4ca2	-0.0620848
146	0x3c14e107	0.009086854
147	0xbe409cc2	-0.18809798
148	0x3d9e55c4	0.07731202
149	0xbd657353	-0.056018185
150	0xbd84e362	-0.06488682
151	0x3d5f6d92	0.054547854
152	0x3e5184a8	0.2046076
153	0xbd3c6d83	-0.046002876
154	0xbdb6936e	-0.08914839
155	0xbcf23702	-0.029567245
156	0x3daaf724	0.083479196
157	0xbcb4c4d7	-0.022066517
158	0x3d64d8e7	0.055870917
159	0xbc52f618	-0.012876056
160	0x3dc6cf72	0.09707536
161	0x3d051f9f	0.03250086
162	0x3d216259	0.039400432
163	0xbd78b62a	-0.0607206
164	0x3d06d93c	0.032922015
165	0xbe142319	-0.14466514
166	0x3cabd62b	0.020976147
167	0xbe3f6246	-0.18689832
168	0xbde68f58	-0.112578094
169	0xbe172360	-0.14759588
170	0xbde7e672	-0.11323251
171	0xbd9780d1	-0.07397617
172	0xbde443fc	-0.111457795
173	0xbd5ea25b	-0.054354053
174	0x3e1ae62f	0.1512687
175	0xbdbcad4d	-0.09212742
176	0x3e0ea991	0.13931872
177	0x3d981b11	0.074270375
178	0xbeaedbda	-0.34152108
179	0xbe0aa3f6	-0.13539109
180	0xbc88ff4e	-0.016723301
181	0xbd8cebe1	-0.06880928
182	0xbc7fe3e7	-0.015618301
183	0x3dd82e97	0.10555761
184	0xbdfc8067	-0.12329178
185	0xbd2305c7	-0.03980043
186	0xbd97e879	-0.074173875
187	0xbcf57591	-0.029963287
188	0x3d640099	0.055664632
189	0xbd635f52	-0.055510826
190	0x3e0e8c19	0.1392063
191	0xbd405d7a	-0.046964146
192	0x3f74de76	0.9565195
193	0x3f79636d	0.97417337
194	0x3f745d70	0.95455074
195	0x3f831db3	1.0243438
196	0xbd0c7655	-0.034292538
197	0xbe7153c8	-0.23567116
198	0x3f896b6d	1.0735909
199	0xbdd7ad54	-0.105311066
200	0x3f584409	0.84478813
201	0x3f84c4dc	1.0372577
202	0x3f871006	1.0551765
203	0x3f9342cc	1.150476
204	0x3f74cfbb	0.9562947
205	0xbe2d37cd	-0.16915818
206	0x3f7dd4c2	0.9915277
207	0x3f92465c	1.1427722
208	0x3f8e8dec	1.1137061
209	0xbd302f89	-0.043014083
210	0x3c683cf7	0.014174691
211	0x3f88b109	1.0679027
212	0x3f64e2c3	0.8940851
213	0x3f8ac417	1.0841092
214	0x3f7e5c48	0.9935956
215	0xbde723fa	-0.11286159
216	0x3f8d8f86	1.1059425
217	0xbdb33987	-0.08751207
218	0x3f89ed0d	1.0775467
219	0x3f80d86e	1.0066049
220	0x3f7f5398	0.9973693
221	0x3f960c26	1.1722457
222	0x3f5933a4	0.8484442
223	0x3f8c0b68	1.0940981
224	0x4036a00f	2.8535192
225	0x4031a6fd	2.7758172
226	0x402b9022	2.6806722
227	0x40355c56	2.8337607
228	0xbb81d707	-0.003962401
229	0xbda304b0	-0.079598784
230	0x402c3766	2.6908813
231	0x3dcb33e6	0.09922008
232	0x40381f14	2.8768969
233	0x402eeb66	2.7331176
234	0x402a5d18	2.661932
235	0x4029a804	2.6508799
236	0x4028b506	2.6360488
237	0xbd9c824b	-0.07642039
238	0x402bc46a	2.6838632
239	0x403832bb	2.8780963
240	0x4039978d	2.899875
241	0x3caa5b60	0.020795524
242	0xbab3b746	-0.0013711236
243	0x402b8fc8	2.6806507
244	0x402f9fbe	2.744125
245	0x402784db	2.6174839
246	0x40312684	2.7679758
247	0x3e5236fb	0.20528786
248	0x402d4115	2.7070973
249	0x3e2f2b14	0.17106277
250	0x404485b3	3.0706604
251	0x4032d1a0	2.7940445
252	0x4036a892	2.8540387
253	0x402ad586	2.6692824
254	0x40359e85	2.8378003
255	0x4035c292	2.8400006

model/p4/BiasAdd/ReadVariableOp:0 f4 [32]
0	0x3db005f5	0.08594886
1	0x3de17ea4	0.11010483
2	0x3dc9e149	0.09857423
3	0x3db8e159	0.09027357
4	0x3baec6e7	0.0053337696
5	0xbcb77bb3	-0.022397852
6	0x3da8e85a	0.082474425
7	0xbd03955a	-0.032124855
8	0x3df2bd6b	0.11852535
9	0x3dd3d611	0.10343564
10	0x3dd3ab81	0.10335446
11	0x3dde93aa	0.108680084
12	0x3dcd3ebc	0.10021731
13	0xbc62863d	-0.01382595
14	0x3de410e4	0.11136034
15	0x3dde5d9f	0.108577006
16	0x3deadb5a	0.11467619
17	0xbbc10062	-0.005889938
18	0x00000000	0.0
19	0x3ddb1c68	0.106987774
20	0x3dccf8dc	0.10008404
21	0x3dabe313	0.0839292
22	0x3de35bcb	0.111014925
23	0xbbfb472c	-0.0076683965
24	0x3dde9e0d	0.108699895
25	0xbc60b657	-0.013715348
26	0x3dc9f2e8	0.09860784
27	0x3de1812f	0.11010968
28	0x3de2cc1d	0.11074088
29	0x3de06096	0.10955922
30	0x3df2ff54	0.11865106
31	0x3dd705cd	0.10499153
