user/tutorials/python/UVFlash/ANN/test_model_64_64_32_1e-3.onnx (onnx, 208504 bytes, 36 tensors)

model/x/MatMul/ReadVariableOp:0 f4 [64, 64]
000000 32 77 bf bb 14 b3 02 3b 3e 38 da ba fe ce 13 3c
       -0.0058430666 0.0019943165 -0.0016648842 0.009021519
000010 d1 1b 66 bc 0f a5 54 3c 9a 3e 9d 3c 35 76 1c bb
       -0.014044718 0.012978806 0.01919489 -0.0023874168
000020 d8 81 ee b8 47 2e 6a ba 8e 18 bc bb 3d 4d da bb
       -0.0001137291 -0.00089332875 -0.005740232 -0.0066620396
000030 60 62 3a 3b 00 77 cc b9 18 05 5b 3a 5a 4f 20 3c
       0.0028439984 -0.00038998574 0.0008354946 0.009784544
000040 d5 d3 39 3b a1 7e 63 bb a0 6e 0e 3b da 86 ce 3b
       0.0028355021 -0.0034712928 0.0021733418 0.0063026967
000050 86 8d a1 3b 8c e0 30 3b 8f af 7d 3c de cf 1f 3b
       0.004930201 0.002698931 0.015483751 0.0024385373
000060 cd 15 71 3b 2f 8c 97 3b 47 ab 69 bc 2b 9e fa 3b
       0.0036786676 0.0046248655 -0.014262027 0.0076482496
000070 33 a4 83 3b 59 0c d0 bb a8 40 70 bc 50 e3 8f bb
       0.004017377 -0.006349128 -0.014663853 -0.0043911114
000080 93 f3 fb bb 75 0e fe ba 07 83 ec 3b 1d 98 3c 3c
       -0.0076889484 -0.0019382971 0.007217768 0.011510876
000090 55 47 35 3c 46 35 81 bb d6 85 4d 3a ef d3 09 bc
       0.01106437 -0.0039431183 0.00078400725 -0.008412345
0000a0 2f 77 08 3c d0 7a 4a 3c 79 d1 43 3a d5 6a b1 3b
       0.008329197 0.012358382 0.00074698735 0.0054143467
0000b0 15 4b b2 3b 50 78 ee 3b ec 0b dd 3b 65 99 8f 3c
       0.0054410794 0.007277526 0.006745806 0.017529199
0000c0 d5 99 4f bc 9f 3b 6a 3c 32 19 d1 3b 09 76 b8 ba
       -0.012670954 0.014296441 0.0063811773 -0.0014073263
0000d0 ad 72 43 3c 47 2c a6 3a 89 05 88 bc b4 2d 56 bc
       0.011929196 0.0012677991 -0.016604202 -0.01307242
0000e0 cf 0d 52 3b 40 89 e5 bb 29 d3 31 3b 0c 8f b8 3b
       0.0032051688 -0.007004887 0.0027133918 0.005632287
0000f0 65 11 0c 3b d2 32 11 bc 3f 3c 6b 3c 7b 65 06 3c
       0.0021372673 -0.008862214 0.0143576255 0.008202906
000100 32 1e 1e bc 90 25 79 ba a2 60 3f 3b 8d 3e b4 bb
       -0.009650754 -0.00095041934 0.0029201885 -0.0055006207
000110 7c 16 25 bc e8 a8 94 bb a2 e3 f8 bb 3f 6f 88 bc
       -0.0100761615 -0.0045367368 -0.0075954953 -0.016654609
000120 5e 73 c6 3b 38 28 57 3c fc f1 aa bc 1a df 22 3b
       0.0060562333 0.0131321475 -0.02086734 0.0024852217
000130 96 c8 26 3c 79 d8 86 bb d7 55 2a 3c 19 e7 63 3c
       0.010179659 -0.004115161 0.010396442 0.013910078
000140 34 7b 20 bc 73 22 7d bc 74 6c 53 3c 3e 09 be bb
       -0.009794999 -0.015450108 0.012904275 -0.0057994416
000150 1d d2 70 bb 8c c7 32 bb a4 0e 64 3c 65 21 81 3c
       -0.003674633 -0.0027279584 0.013919506 0.015762994
000160 1a e8 f6 3b 57 4e 8c bc 8b ee 2a 3c 86 0a 10 3c
       0.007534993 -0.0171272 0.01043285 0.0087915715
000170 5f be 81 3c c6 aa 0c bc 64 ef f8 3a 4a 0f 43 3c
       0.015837846 -0.008585637 0.0018992242 0.011905501
000180 a7 fb f7 39 2b 26 ba bb 04 53 63 3c 65 12 2f 3c
       0.00047299007 -0.0056808195 0.013874773 0.010685538
000190 08 d6 c5 3b 3e 59 71 bc d1 bf de 3c 26 e1 6d 3c
       0.0060374774 -0.01473075 0.027191075 0.014519012
0001a0 b1 cb 97 3b 22 9f 22 b9 62 f8 de 3c 14 e8 38 3c
       0.004632436 -0.00015508806 0.027218048 0.0112858005
0001b0 06 e6 51 bc 34 cc 1d 3c cd f8 db 3b 3c 6a 6c 3b
       -0.0128111895 0.009631205 0.006713009 0.0036074063
0001c0 00 c3 c7 3a cc 8a de ba 46 29 1b 3b 1f c2 52 3c
       0.001524061 -0.001697862 0.0023675724 0.012863665
0001d0 31 fc 7b 3b c3 a1 65 bb 8d ae 0c 3c d5 27 09 3b
       0.0038449878 -0.0035039044 0.008586538 0.0020928283
0001e0 2f e8 0c 3c cb e2 00 bc df cd 83 3c 80 e9 a9 bc
       0.008600279 -0.007866572 0.016089378 -0.020741224
0001f0 1e 08 97 3c 40 e5 c1 bb 63 1e 91 3c 12 0f 20 3c
       0.018436488 -0.0059172213 0.017714685 0.009769218
000200 10 36 e4 bc 8c 22 12 3f d5 58 14 3f 0e 80 ef ba
       -0.02785781 0.57083964 0.57948047 -0.0018272416
000210 a1 fc ec bc 3d b1 13 3f 72 16 13 3f 2c f6 17 bb
       -0.028929057 0.5769232 0.57456124 -0.0023187501
000220 1d 2a 11 3f 40 b5 c4 3b e4 32 0f 3f 31 f0 0b 3f
       0.56704885 0.006003052 0.5593703 0.5466338
000230 18 f6 f7 bb aa 1d cb bb bc 80 13 3f 30 1f 50 bc
       -0.0075671785 -0.0061986046 0.5761831 -0.012702748
000240 fa 6b 0f 3f 4f 46 3f bc 62 3d 0f 3f 14 19 77 bc
       0.56024134 -0.011674478 0.5595304 -0.015081663
000250 b0 b5 10 3f 76 da 10 3f cb cc 0f 3f 0d 28 11 3f
       0.56527233 0.56583345 0.56171864 0.5670174
000260 3f f5 10 3f 78 ab 6e 3b 77 84 3f bc 70 97 49 bc
       0.56624216 0.0036418121 -0.011689297 -0.012304172
000270 16 b1 0e 3f a6 fe 9e 3a b9 f2 12 3f 96 82 09 3f
       0.5573896 0.0012130335 0.57401615 0.53714883
000280 00 af 0c 3f 85 fe 0b 3f 02 58 29 3c 8f 45 46 b9
       0.5495453 0.5468524 0.010335924 -0.00018908664
000290 43 62 6a bc 7d cd 82 bc f8 15 0e 3f b8 31 32 bd
       -0.014305654 -0.015967125 0.5550227 -0.043504447
0002a0 34 fc 11 3f 3e 4b 12 3f a0 9a 96 3c 82 b2 e5 bb
       0.57025456 0.5714606 0.018384278 -0.007009805
0002b0 3a 23 10 3f 8b 9b 0e 3f 8b bd 37 bb 9b 57 14 3f
       0.5630375 0.5570609 -0.002803656 0.57946175
0002c0 fb 8c 0b 3f 56 2e 13 3f 6b 39 b5 bb 66 ad 06 3f
       0.54511994 0.5749258 -0.0055305264 0.52608335
0002d0 ed fe 0d 3f c2 4d 7e bc a6 6c 05 3c dc 36 0b 3f
       0.5546711 -0.015521469 0.00814358 0.54380584
0002e0 29 5e 12 3f 86 1b a2 bc fc c1 0e 3f fb f1 0d 3f
       0.57174927 -0.019788515 0.55764747 0.5544736
0002f0 c2 20 0e 3f 0e 7d 12 bc 97 5b 11 3f bb 22 16 bc
       0.55518734 -0.008940948 0.5678038 -0.009163554
000300 e4 ce c5 bc fc da 69 bf 3e eb 67 bf 42 8b 25 3c
       -0.024146505 -0.9134977 -0.90593326 0.010104002
000310 62 b0 bb bc 41 a6 6d bf 8f c9 67 bf e8 4c 2e bc
       -0.022911254 -0.9283181 -0.9054193 -0.010638453
000320 71 ce 68 bf be b1 d6 3b 84 13 6d bf 2e 64 6c bf
       -0.90940005 0.0065519502 -0.92607903 -0.9234036
000330 12 b0 75 3c af 41 85 3b 06 d7 69 bf 03 57 d2 bb
       0.014995592 0.004066668 -0.91343725 -0.006419064
000340 93 41 6d bf 6c 9d 4c bb 1d 45 69 bf a5 4c 1b 3c
       -0.92678183 -0.003122176 -0.91121083 0.009478723
000350 e3 57 66 bf f2 83 6d bf 60 aa 6c bf 8e 26 65 bf
       -0.89977854 -0.9277946 -0.9244747 -0.89511955
000360 cb ea 69 bf 04 a4 77 bc 08 5a 0e bb 31 a7 8f 3b
       -0.9137389 -0.015114788 -0.0021721143 0.0043839444
000370 37 a7 71 bf 35 2e 93 bc f0 69 6b bf 0d 4d 6d bf
       -0.94395775 -0.01796637 -0.9195852 -0.92695695
000380 57 43 69 bf 51 19 70 bf ec 5d cf 3b b4 e4 9a 3c
       -0.9111838 -0.9378863 0.006328335 0.018907882
000390 2d a2 60 bb 9e ec 12 3b d8 03 6e bf fe 10 98 bc
       -0.0034276352 0.0022418867 -0.92974615 -0.01856279
0003a0 be dd 69 bf d3 a7 6a bf 10 35 e4 3a 8d 67 46 3b
       -0.91353977 -0.9166233 0.0017410833 0.0030274123
0003b0 18 79 66 bf b6 2d 6e bf 7c 0f 1f bc 6d 15 6b bf
       -0.90028524 -0.930385 -0.009708282 -0.9182957
0003c0 f2 4a 6e bf 01 29 6c bf 93 52 b3 ba 37 b3 6f bf
       -0.9308311 -0.92250067 -0.0013681225 -0.93632835
0003d0 90 a7 6a bf 95 4e d4 bc 87 8a c8 3b 84 78 6e bf
       -0.9166193 -0.025916377 0.0061200294 -0.9315264
0003e0 51 48 6b bf d4 63 5c bb 33 20 64 bf 0e 40 6a bf
       -0.9190722 -0.0033628838 -0.8911163 -0.9150399
0003f0 a3 bc 6f bf 32 3e e2 b9 ff 7c 6b bf d9 85 d1 3b
       -0.9364721 -0.00043152418 -0.91987604 0.0063941297

model/x/BiasAdd/ReadVariableOp:0 f4 [64]
000000 a7 92 fc bc d4 51 98 3e 2f af 95 3e 2e 27 34 bc
       -0.030831648 0.2974993 0.29235217 -0.010995669
000010 58 a8 01 bd 43 e3 96 3e a9 87 91 3e 04 f2 91 b9
       -0.031654686 0.29470262 0.28423813 -0.0002783687
000020 f6 e8 97 3e 15 36 85 bc b6 df 97 3e af 58 87 3e
       0.29669923 -0.01626114 0.29662865 0.26434848
000030 00 00 00 00 e4 7e 49 ba 49 76 98 3e d4 8a 14 bb
       0.0 -0.00076864497 0.29777744 -0.0022665756
000040 ab 20 97 3e 4f 76 13 bb 0b 1e 98 3e 6f 6b 53 ba
       0.2951711 -0.0022500937 0.2971042 -0.000806502
000050 4a 85 98 3e b1 86 87 3e 61 10 95 3e 98 4f 95 3e
       0.2978919 0.2646995 0.2911406 0.29162288
000060 ba 1e 96 3e ae 6d 17 bc 00 00 00 00 97 1e c1 bb
       0.29320318 -0.009242458 0.0 -0.005893539
000070 5d a9 84 3e a4 69 00 bc a2 eb 98 3e 44 5a 7e 3e
       0.25910464 -0.007837687 0.29867274 0.24839121
000080 75 24 98 3e 10 30 7f 3e 00 00 00 00 67 79 1c bc
       0.29715315 0.24920678 0.0 -0.009550429
000090 fe ec 18 bc 01 17 6a b9 58 9d 92 3e b7 12 04 bd
       -0.009333847 -0.00022324549 0.2863567 -0.03224441
0000a0 22 04 98 3e a9 04 97 3e 6d 4c 3c ba d8 39 ef ba
       0.29690653 0.29495743 -0.0007183019 -0.0018251492
0000b0 0a 9c 98 3e 4f ce 94 3e a7 fe 8c ba 97 cc 97 3e
       0.29806548 0.2906365 -0.0010757045 0.29648277
0000c0 8e 50 82 3e 01 d8 97 3e a7 6c 24 bc 0b c4 79 3e
       0.25452083 0.29656985 -0.01003567 0.2439119
0000d0 21 07 96 3e 92 24 ee bc 14 d2 d1 b8 0c 97 96 3e
       0.29302314 -0.029070172 -0.00010005027 0.29412115
0000e0 23 57 98 3e b0 6a 81 bc 5f 81 98 3e 79 4e 97 3e
       0.2975398 -0.015797943 0.29786202 0.29552057
0000f0 c4 03 82 3e e6 2b 26 bc 92 ab 98 3e 27 46 b9 b7
       0.25393498 -0.010142302 0.29818398 -2.2086386e-05

model/phi/MatMul/ReadVariableOp:0 f4 [32, 1]
000000 66 c7 83 ba 97 12 b3 3b bc 3e 90 3c 9d 1a e1 3d
       -0.0010053932 0.0054648626 0.01760804 0.10991404
000010 9a 15 05 3c 60 f7 ff 3d d2 5f e0 3d 44 74 1c bb
       0.008122826 0.12498355 0.10955776 -0.002387301
000020 a5 d4 a2 3c b9 7e c3 3c 6b 09 0f bc 7d d9 9a 3b
       0.019876787 0.023864137 -0.008730273 0.0047256337
000030 c2 86 0b 3e 62 40 c8 3c 2b b4 37 3b 65 24 6b bc
       0.13625625 0.024444763 0.0028030972 -0.014351939
000040 01 00 98 3b 90 0b 0d bd ea 50 4a 3b 67 bc ee 3d
       0.0046386723 -0.034434855 0.0030870982 0.11657029
000050 89 d9 f5 3d c0 76 c1 3c 50 2e 31 3c b6 81 a7 3a
       0.12004382 0.023616195 0.010814264 0.0012779746
000060 3a 08 69 3b 5d c2 c7 3d ad fe 48 bc d5 ab de 3d
       0.0035557882 0.09753869 -0.012267751 0.10872618
000070 f4 66 00 3e c4 4b 97 3c b5 f8 45 bc bc 2b 55 bb
       0.12539274 0.018468745 -0.012083222 -0.0032527288

model/normalization/sub/y:0 f4 [1, 4]
000000 0a da 55 46 12 12 8e 3a 19 3b 4c 3f ca 13 4f 3e
       13686.51 0.0010839126 0.79777676 0.20222393

model/l3/MatMul/ReadVariableOp:0 f4 [64, 64]
000000 78 6b c0 bb 92 ec 35 bb 25 d3 cd 3d 6a fe eb 3e
       -0.0058721863 -0.0027759415 0.10050038 0.4609254
000010 6d 63 68 bc 4d f7 8c bc ac 99 fa 3d f5 98 1c bb
       -0.014183861 -0.017207766 0.12236342 -0.002389488
000020 51 ad d5 3d 1d 32 33 bc 99 15 cc 3d e5 88 c9 3d
       0.10433448 -0.010937241 0.09965057 0.09840564
000030 10 52 e0 3d e0 53 d3 3d 45 7f d9 3d 91 fd 64 3a
       0.10953152 0.10318732 0.10619978 0.0008735294
000040 e7 d0 d7 3d f9 09 be 3d bf 33 dc 3d f9 39 a8 bc
       0.10537892 0.09279246 0.10752057 -0.020535456
000050 ba 61 dc 3d 08 cc db 3d 1c c9 2e 3c 98 58 8e bc
       0.10760827 0.10732275 0.010668065 -0.01737623
000060 56 f9 d6 3d a4 b0 de bc 60 f7 c1 3d a6 c5 ee 3d
       0.10496776 -0.027183838 0.09471011 0.11658792
000070 74 bf e2 3d f7 e6 d5 3d ff 3c b9 3d 4f 74 d6 3d
       0.11071673 0.10444444 0.09044837 0.10471403
000080 8d e5 f1 bc 62 f0 9e 3d fd f0 f1 3d 0f 7d 39 3c
       -0.029528404 0.07760693 0.11813543 0.01132132
000090 1b ff eb 3b a8 9f d3 3d d6 6d 05 3c f6 a3 24 bd
       0.007202042 0.103331864 0.008143863 -0.040195428
0000a0 a9 17 ed 3d 15 46 ac bc d6 fc e3 3d 9e 20 db 3d
       0.115767784 -0.021029511 0.11132209 0.106995806
0000b0 6a 72 29 3a 48 0b e4 3d d9 e6 ec 3d 19 73 08 3c
       0.00064638874 0.11134964 0.11567468 0.008328223
0000c0 54 96 c1 3d 8e 77 e9 3d da 8c 29 bb c5 69 d8 3d
       0.09452501 0.11399756 -0.0025871308 0.10567049
0000d0 f1 83 ec 3b 33 02 e5 3d 64 0e 45 bd 16 9f b6 3d
       0.007217877 0.1118206 -0.048109427 0.08917062
0000e0 a4 ef d9 3d d8 9a cd 3d 38 cb 0d bb 2a 3d 63 3a
       0.10641411 0.100393 -0.002163602 0.0008668477
0000f0 3b a7 cc ba 36 83 2b bf 66 27 f5 3d 94 30 f1 3d
       -0.0015613803 -0.66997087 0.11970405 0.11776844
000100 ad 38 1e bc a0 92 a1 bb cf 83 ed 3e 2d 6a 64 be
       -0.009657067 -0.004930809 0.46389624 -0.22306128
000110 5d 66 25 bc 2d 76 3d bc 4c a5 e8 3e df 70 88 bc
       -0.010095206 -0.01156382 0.45438612 -0.016655384
000120 e3 1c f0 3e 54 00 b3 3e 35 b6 e2 3e 6e ca ee 3e
       0.4689704 0.34961188 0.44279638 0.46638817
000130 7f e9 f2 3e dd 6c e5 3e 24 b0 f2 3e 46 4f 63 3c
       0.47443768 0.4480962 0.4740001 0.013873881
000140 05 29 e7 3e 69 16 d9 3e e1 eb f3 3e 16 b7 d4 3c
       0.45148483 0.4239991 0.476409 0.025966208
000150 3c 67 ea 3e 86 fc eb 3e 1b 5b 24 3c 6d 4c 25 3a
       0.45781887 0.46091098 0.010031487 0.0006305639
000160 33 15 ef 3e 52 e8 c5 bc 1f 68 f4 3e 64 9b f3 3e
       0.4669586 -0.02415863 0.47735688 0.4757949
000170 3b 57 f6 3e fd 49 eb 3e 78 3b ee 3e ca 69 f5 3e
       0.48113427 0.45954886 0.46529746 0.47932273
000180 38 1e 6c bb 1b 62 d5 3e 9d d2 f6 3e bd de 2e 3c
       -0.0036028754 0.4167641 0.4820756 0.010673222
000190 c1 3d 41 bb de ae e6 3e 8c 9c c3 be c5 31 10 3b
       -0.002948627 0.45055288 -0.38205373 0.0022002321
0001a0 7b 80 f0 3e 6d 55 9b bb 4e 90 fd 3e 78 d9 ea 3e
       0.46973023 -0.004740408 0.49524158 0.4586904
0001b0 45 d2 89 bc c2 d7 f1 3e f5 8b f2 3e b3 74 e3 b9
       -0.016823897 0.47234923 0.47372404 -0.00043383762
0001c0 44 47 ef 3e 0b b9 e6 3e 2d f7 d9 39 cd 53 f5 3e
       0.4673406 0.45063052 0.00041573626 0.47915497
0001d0 4f 38 99 b8 dd e1 ed 3e 8d ae 0c 3c a7 fd ec 3e
       -7.306097e-05 0.46461383 0.008586538 0.4628727
0001e0 b7 e4 f0 3e 47 61 ea 3e cb 16 31 3c f1 c8 ca bc
       0.47049496 0.45777342 0.010808657 -0.02475402
0001f0 f8 ad 80 3c e9 6e e5 3f e6 5d f6 3e e1 50 f4 3e
       0.015707955 1.7924472 0.48118514 0.47717956
000200 87 1b 34 3b 16 4c 93 3b 23 5b a7 3e 08 10 ad 3d
       0.0027482228 0.004495154 0.3268672 0.08450323
000210 f4 fe 14 3b 8f f0 03 3c 2b 43 a6 3e cb 19 18 bb
       0.0022734972 0.008052959 0.3247312 -0.0023208733
000220 27 96 a1 3e 6c f5 45 3e d8 52 9e 3e 83 b2 9c 3e
       0.3155987 0.19331902 0.3092258 0.30604944
000230 c4 e7 9b 3e 6c 77 96 3e c7 57 a6 3e 07 d3 50 bc
       0.3045026 0.29387987 0.32488844 -0.012745625
000240 8f 98 9d 3e 89 ba 8c 3e fd 1e 9e 3e 48 a6 88 3c
       0.30780455 0.27486065 0.30883017 0.016680852
000250 a1 b6 9f 3e ba 76 a7 3e 2e 79 a8 bb 61 05 53 bc
       0.31194022 0.3270777 -0.005141399 -0.0128797
000260 03 16 a0 3e 54 ea 39 3a 08 45 9b 3e 8c 42 9b 3e
       0.31266794 0.00070921076 0.30326104 0.3032421
000270 56 8f a5 3e 32 52 a3 3e 91 4b a5 3e a3 17 a1 3e
       0.3233592 0.31898648 0.32284215 0.31463346
000280 11 ec 0b bd 52 32 8e 3e e4 43 a7 3e b5 0f 0e 3b
       -0.034160677 0.27772766 0.32668984 0.0021676843
000290 fd 7d 83 bc 4d 38 98 3e fb b3 52 bd e3 e9 c4 bc
       -0.016051287 0.29730454 -0.051441174 -0.024037307
0002a0 c0 b7 a4 3e 3b 13 c6 3b 7b 42 ab 3e 01 83 93 3e
       0.3217144 0.006044773 0.33449158 0.28810886
0002b0 72 e7 4f bb 2b 46 9d 3e 95 da 9f 3e 1c 3d 16 3c
       -0.0031723646 0.30717596 0.31221452 0.009169843
0002c0 2e c5 a0 3e 2c 62 a0 3e 8a 77 18 bc 31 49 9c 3e
       0.31400436 0.313249 -0.009305844 0.3052459
0002d0 8f d1 24 bc d2 18 a8 3e 30 6d 05 3c c4 4b 95 3e
       -0.010059728 0.32831436 0.008143708 0.29159367
0002e0 73 4b a3 3e 2d 88 9b 3e 37 cf 0c bc b5 d2 35 bc
       0.318935 0.3037733 -0.008594326 -0.0110976
0002f0 c4 98 1b 3c e1 e1 be 3e 96 25 a2 3e 7b d1 9c 3e
       0.009496871 0.37281707 0.316693 0.3062857
000300 fd 88 d3 3b 13 92 43 ba 0d 6e f0 3b 1a 68 25 3c
       0.0064555393 -0.00074604264 0.007337338 0.0100956205
000310 51 2e 08 3c 54 99 7a bc 49 6a 2d 3c 83 79 2e bc
       0.008311824 -0.015295345 0.010584422 -0.010649088
000320 6f d3 a7 3b 64 96 d5 3b ca f1 13 bc d6 6c 69 ba
       0.0051216404 0.006518172 -0.009029815 -0.00089044624
000330 b9 07 80 3c 69 06 85 3b 2e 6d c7 3a a0 50 d2 bb
       0.015628682 0.004059602 0.0015215033 -0.0064183027
000340 a7 b4 3b bc d8 9f 50 bb 1f 7b 78 3b 74 53 1b 3c
       -0.011456645 -0.0031833556 0.0037915183 0.009480346
000350 49 99 53 3c ef fe 78 bb 10 e5 21 bc e5 60 94 3c
       0.012914964 -0.003799375 -0.009881273 0.01811261
000360 be ca 87 3a 59 cb 77 bc eb f8 d7 39 3f 32 de 3b
       0.0010360104 -0.015124165 0.00041193454 0.006780892
000370 42 dd 7c bc a1 f4 65 bc 16 04 8b bb 16 ea 0d 3c
       -0.015433611 -0.014035375 -0.0042424304 0.0086617675
000380 fd 5f fe 3a 2f 6a 0b bc 0d c1 28 3c 8a c7 9a 3c
       0.0019407269 -0.008509203 0.010299933 0.018893976
000390 55 b3 61 bb d9 84 6f 3b 30 59 4e bc 60 eb 57 3c
       -0.0034439166 0.003654769 -0.012594506 0.013178676
0003a0 e3 43 a0 3b c3 e4 28 bb 76 af b0 3b e3 a4 45 3b
       0.004890905 -0.0025771118 0.0053920103 0.0030158095
0003b0 08 ef 41 3c 39 c2 51 bc c1 d7 ed bb 6b 38 a2 bb
       0.011836775 -0.012802654 -0.007258386 -0.004950573
0003c0 3e c1 25 bb ce 7c 21 bc 03 ba b3 ba f9 b2 4c ba
       -0.0025292183 -0.009856416 -0.0013712052 -0.00078086514
0003d0 c0 b7 b5 ba 7b 50 88 3b 33 8b c8 3b 7f e4 7d bc
       -0.0013863966 0.0041599846 0.0061201095 -0.015496372
0003e0 65 81 b1 bb 5e 64 0a bb 61 5c a8 3c d3 d4 a6 ba
       -0.0054170364 -0.0021116952 0.020551862 -0.0012728221
0003f0 84 bc 08 bc 1d 7a ea b9 5f 7d 83 bb 33 56 18 3c
       -0.008345727 -0.0004472294 -0.004012748 0.009297895

model/l3/BiasAdd/ReadVariableOp:0 f4 [64]
000000 13 6e 72 bc f7 3e 32 bc 00 d2 80 3e ce 03 16 3e
       -0.014796752 -0.01087927 0.25160217 0.14649889
000010 08 09 fb bc 37 3f 1a bd a0 ef 82 3e 7a c1 85 bc
       -0.030643955 -0.037657943 0.25573444 -0.016327608
000020 b9 5e 84 3e d9 8c d2 3d b8 93 85 3e 76 96 84 3e
       0.25853518 0.10280771 0.26089263 0.25896043
000030 8d 2e 7f 3e 7c a9 6c 3e dc ee 84 3e a2 a8 3d bc
       0.24920101 0.23111528 0.25963485 -0.01157585
000040 ea eb 81 3e 34 77 5f 3e 18 bd 85 3e 99 2a 07 bd
       0.253753 0.21822816 0.2612083 -0.03299961
000050 19 bc 82 3e 07 23 84 3e fc f3 79 bc 61 c7 f8 bc
       0.25534132 0.25807974 -0.015255924 -0.030368509
000060 18 22 7d 3e 46 ce 2d bd 0e 5e 84 3e 9b d8 83 3e
       0.24720037 -0.042433046 0.25853008 0.25751194
000070 bf c0 85 3e f9 a7 85 3e ed 64 85 3e 01 1e 87 3e
       0.26123616 0.26104715 0.26053563 0.2639008
000080 e6 34 8b bc 8b 7f 47 3e d5 84 85 3e ee 75 43 bc
       -0.016992997 0.19482248 0.26077905 -0.011929972
000090 05 df 88 bc ec c6 81 3e aa c0 0c be 92 a8 3b bd
       -0.016707906 0.25347078 -0.1374537 -0.045815058
0000a0 1d d9 86 3e ce a8 1a bd 2a 63 85 3e ff 3a 66 3e
       0.2633752 -0.03775864 0.2605222 0.22483443
0000b0 bb 43 56 bc e9 bc 83 3e 74 eb 83 3e d8 63 38 bc
       -0.013077672 0.25730065 0.25765574 -0.011254273
0000c0 d2 2b 86 3e 12 1c 71 3e eb 1c 8b bc e6 cb 84 3e
       0.26205307 0.23545864 -0.016981563 0.25936812
0000d0 0e c3 04 bd f5 15 86 3e a7 1c 02 bd 14 e0 81 3e
       -0.03241258 0.26188627 -0.031765606 0.2536627
0000e0 de 7b 82 3e 65 6a 80 3e dc da 29 bc ca 61 b7 bb
       0.25485128 0.25081173 -0.010367122 -0.005596374
0000f0 69 ea b9 bc 58 a9 5d bf ca ed 84 3e 3d 59 85 3e
       -0.022694783 -0.86586523 0.2596267 0.26044646

model/l2/MatMul/ReadVariableOp:0 f4 [4, 64]
000000 88 fa cb 3d 5d 64 6f 3e af f6 85 3e 21 d1 9f bb
       0.099598944 0.2337813 0.26164767 -0.004877225
000010 88 19 04 3e 8d a4 a6 3d 1b 21 0f 3e f0 4b ac 3e
       0.12900364 0.08136854 0.13977472 0.33651686
000020 1e 71 5a 3d 4b 4c 95 bc 24 f5 25 3e b1 5f 74 3d
       0.053330533 -0.018224856 0.16206795 0.05966157
000030 5f 52 4f 3f 25 5f dc 3d b0 4d 5f 3d 21 55 35 bd
       0.80985063 0.10760335 0.054517448 -0.04427064
000040 b8 f5 4c 3e fb 57 84 3d f4 dd 2b 3f dd 72 26 3d
       0.2001561 0.064620934 0.6713555 0.040636886
000050 e8 b4 83 3d 04 9f 6a 3e eb 32 a0 3d ff cc 3e 3f
       0.064309895 0.22912222 0.07822212 0.7453155
000060 b2 b2 b5 3d 2c 54 2f 3e 3d 9a 98 3d d5 d5 9a bd
       0.08871974 0.17121953 0.074512936 -0.075603165
000070 ce 0a 1f 3d 93 e9 6d 3f c2 69 00 3e 69 85 31 3e
       0.038828664 0.9293453 0.12540343 0.17336048
000080 d9 75 d2 3d 3e a0 11 3e cb 50 89 3e 81 02 bb bb
       0.10276384 0.14221284 0.26819453 -0.0057070856
000090 a4 2b 8a 3d 26 09 0b 3e 44 77 67 3e 1f 2d 03 3e
       0.06746605 0.13577709 0.2260409 0.12810181
0000a0 71 b8 d9 3d 4c 8f e1 3d 8e 36 2a bf 07 e3 89 bc
       0.106308825 0.1101366 -0.66489494 -0.016831888
0000b0 71 d6 44 3d 7f 9b ec 3d af 1a 71 bb 43 c9 c8 3e
       0.04805607 0.11553096 -0.0036789586 0.3921605
0000c0 bd cc ee 3d 32 37 b4 3d 83 d7 8a 3d d6 ff 25 bd
       0.116601445 0.0879959 0.06779387 -0.040527187
0000d0 1e 5f 94 3e bd d5 aa 3d 4c 98 c3 3d c9 80 08 3e
       0.2897882 0.083415486 0.09550533 0.13330378
0000e0 6d ab cf 3d 19 cf 96 3b 53 b9 2e 3e f6 b8 26 3d
       0.10140119 0.0046023247 0.17062883 0.040703736
0000f0 3e f4 68 bd f8 ed 91 3d 30 cd bc 3e ef 7e d8 3c
       -0.056873553 0.07125467 0.36875296 0.026427714
000100 68 36 0c be d0 81 91 be 7b ad 46 be d3 89 1c 37
       -0.1369263 -0.28419352 -0.19402115 9.330414e-06
000110 82 e1 80 bf 22 ed 9d be 23 cf 05 bf 4d b2 83 bf
       -1.006882 -0.3084498 -0.5226919 -1.0288788
000120 01 d0 88 bf 3b a9 e9 bc 5a d6 a3 be 50 7b 8b bf
       -1.0688478 -0.028523078 -0.31999475 -1.0897007
000130 51 8d d3 bf 42 9d 36 be db 44 02 be 39 16 e7 bc
       -1.6527501 -0.17833427 -0.12721579 -0.028208839
000140 d7 b5 98 be 9e e0 8b bf 35 96 3c bf f5 4c 96 bf
       -0.29826233 -1.0927923 -0.736667 -1.1742235
000150 f5 4f 8b bf 2d a5 03 bf 65 37 0b be df 54 9d be
       -1.0883776 -0.51423913 -0.1359535 -0.30728814
000160 9f b0 1d be 3c 77 3e bf d6 e9 7d bf 75 42 e4 3c
       -0.15399407 -0.7440069 -0.9918493 0.02786372
000170 8c ea 70 bf d8 0c c0 be db 76 8a bf d4 fa 27 bf
       -0.9410789 -0.375098 -1.0817522 -0.6561711
000180 f3 7f 8b bf 3c cb 67 bf 4b 8d 07 be c6 c2 10 be
       -1.0898422 -0.90544486 -0.13237493 -0.141368
000190 ac 8f 9d bf f1 ba 85 bf 4a 3a 91 3e 49 38 77 bf
       -1.230947 -1.0447675 0.28364784 -0.9657026
0001a0 63 7d 32 be f6 1d 39 be 77 a4 30 bf a4 20 06 be
       -0.17430644 -0.18077835 -0.69000953 -0.13098389
0001b0 46 b2 94 bf f8 ce 12 be 46 37 dc bb 30 a2 4a 3a
       -1.1616905 -0.14336765 -0.0067204563 0.00077298563
0001c0 00 04 7f bf fa 3d 82 be 97 71 01 be 68 b4 d7 bc
       -0.9961548 -0.2543791 -0.12640987 -0.026331142
0001d0 28 b5 14 be 96 da a7 be 9d 33 87 bf 17 6a 87 bf
       -0.1452223 -0.32783955 -1.0562626 -1.0579251
0001e0 7d f7 27 be 51 1f 45 ba c6 33 6a bf 6e 82 93 bf
       -0.16403003 -0.000751962 -0.9148525 -1.1524179
0001f0 89 d0 a7 be 35 bd 81 bf 97 c8 8f bb a3 20 43 be
       -0.32776287 -1.0135866 -0.004387926 -0.19055419
000200 c4 8a 85 3d 1f ab d6 3e 20 a2 c0 3e 29 7b 23 3c
       0.06520608 0.4192743 0.37623692 0.009978094
000210 62 48 df 3d 78 b7 09 3c 13 2c 8a bc 81 1c a5 3d
       0.10902478 0.008405559 -0.01686672 0.08062077
000220 ff 39 7a 3c 2c 0a 16 3e 8e 3a 07 3f 3b 0e 28 3c
       0.015272616 0.14652318 0.5282372 0.010257299
000230 4d 3a 3a 3e df 33 4d 3d 72 55 07 3e 8d 59 12 be
       0.18186302 0.050098296 0.13216189 -0.14291973
000240 19 cb e0 3e 47 21 a8 3c 78 6e d4 3e 21 87 f9 3b
       0.4390495 0.02052368 0.4149053 0.0076149856
000250 20 a2 ca 3c 2c 11 09 3e 1d 8d be 3d cd 9a 8e 3e
       0.02473551 0.13385457 0.09304259 0.2785248
000260 0a ba a8 3d bd bf 51 3c 05 4d 5f 3c 42 54 0d be
       0.08238609 0.012802062 0.013629203 -0.13801673
000270 52 9b 2b 3f c4 c5 da bb 9e 19 4b 3d 1e c2 0e 3a
       0.67033875 -0.0066764075 0.049584977 0.0005445796
000280 63 d7 63 3d 0f a3 23 3d 74 7a 4c bc 36 63 8d bd
       0.05562533 0.039950427 -0.012480367 -0.069036886
000290 22 72 9f 3c 08 98 89 3d df 70 43 3d e6 b4 59 3d
       0.019463602 0.06718451 0.047715064 0.053151034
0002a0 41 0d b1 3d 01 7e b4 3d 85 8d 8a 3e 48 58 ea bd
       0.08645106 0.08813096 0.27061096 -0.114426196
0002b0 8f 31 8e 3c d6 5d 3c 3d f8 25 a7 bb d1 10 02 3e
       0.017357616 0.045987926 -0.005100962 0.12701727
0002c0 f9 9e 24 3e 56 99 c9 3d 3c 74 e6 3d 0d 1a 56 be
       0.16076268 0.098437 0.11252639 -0.20908375
0002d0 14 2b 19 bd 6d 33 0e 3e 46 6c 99 3d 0a 46 62 3d
       -0.037394598 0.13886805 0.07491355 0.055242576
0002e0 86 14 9f 3d 25 19 9a bb 59 fd 3e 3d 08 1b 76 b8
       0.077675864 -0.0047027045 0.04662833 -5.8676145e-05
0002f0 e1 e1 ed bd 6e 3b 36 3d dd 83 f8 3d 18 61 77 bd
       -0.116153486 0.04449027 0.12134526 -0.06039533
000300 9c 51 65 bd 45 bb d4 be a8 13 b6 be 8e f8 ba 3b
       -0.055986032 -0.41549125 -0.35561872 0.0057058996
000310 a8 86 c9 bd 9c fe 50 bc 20 00 18 3d c7 a1 bf bd
       -0.09840137 -0.012756016 0.037109494 -0.093570285
000320 2a e5 4a bc 52 e9 00 be 52 1b 0c bf a1 a5 b8 bc
       -0.0123837385 -0.12589005 -0.5472919 -0.022539916
000330 8d 9d 32 be 18 f3 55 bd e1 15 00 be 84 89 fd 3d
       -0.17442913 -0.052233785 -0.12508346 0.12379745
000340 4e 06 ea be e0 9c 10 bd 61 cc d7 be 0b 5b 58 bc
       -0.45707935 -0.035305858 -0.42148116 -0.0132053
000350 02 b8 70 bc 54 1f 02 be d4 d8 d8 bd 8e 31 84 be
       -0.014692308 -0.12707263 -0.10588232 -0.25819057
000360 15 45 a4 bd 1a 01 a7 bc 61 2c e1 bc 39 ce 05 3e
       -0.08020989 -0.020386267 -0.027486982 0.13066949
000370 e2 a4 2e bf 46 a0 0c bc 39 9b 4c bd d6 19 6a 39
       -0.6822034 -0.008583134 -0.04995272 0.00022325604
000380 72 18 91 bd a2 b3 30 bd 2e b8 ee 3c 91 db bd 3d
       -0.07084741 -0.04314006 0.029140558 0.092703946
000390 4a 98 f7 bc 18 b0 a5 bd ee 8f 8b bd 3d b4 53 bd
       -0.030223984 -0.08090228 -0.06814562 -0.05168556
0003a0 d5 de a8 bd ef 52 ad bd 5d 3e 80 be ef 2f e2 3d
       -0.08245627 -0.08463084 -0.2504758 0.11044299
0003b0 9f 23 0d bc 85 3a 8c bd 88 d3 f2 bb 49 37 f3 bd
       -0.00861445 -0.06847099 -0.0074104704 -0.11875779
0003c0 be 95 2d be f8 ea cb bd a3 28 e7 bd d4 48 47 3e
       -0.16951653 -0.09956926 -0.11287048 0.19461375
0003d0 97 9e d4 3c 3d 65 01 be 88 68 78 bd 27 0f be bd
       0.025954528 -0.12636276 -0.060646564 -0.09280234
0003e0 ce b3 a3 bd 75 1c 0a bc 22 db 0d bd 1d 28 48 bc
       -0.079932794 -0.008429636 -0.03463281 -0.012216595
0003f0 4b 02 f1 3d 6c 60 4d bd 9f e6 02 be 18 05 6c 3d
       0.117680155 -0.050140783 -0.12783287 0.057622045

model/l2/BiasAdd/ReadVariableOp:0 f4 [64]
000000 a0 f3 fa 3e b6 81 28 bf 2c 0b 2b be 31 de 80 bc
       0.49013996 -0.65822923 -0.1670348 -0.01573095
000010 0d 65 87 bf fb 6c 1a 3f 59 28 23 3f a1 ec 24 bf
       -1.0577713 0.6032254 0.6373344 -0.6442357
000020 89 65 7f bf b7 48 17 3f 7f 3c cd bf 7f 66 52 bf
       -0.99764305 0.5909533 -1.6034087 -0.82187647
000030 e2 19 e5 be c7 e4 ff 3e c8 2a 1d 3f b2 a8 aa 3e
       -0.4474631 0.4997923 0.61393404 0.3333183
000040 28 89 87 bf 53 c2 8a bf 95 64 22 3f 77 f5 98 bf
       -1.0588732 -1.0840553 0.63434726 -1.194991
000050 1f 1e 30 bf 35 a2 97 3e f7 53 17 3f cd 56 85 3f
       -0.6879596 0.29615942 0.59112495 1.0417114
000060 43 9b 0d 3f 44 49 c1 3e f8 47 ee be 87 e7 68 3e
       0.55315036 0.3775121 -0.46539283 0.2274457
000070 3b 65 8a 3e 6a c9 38 bf a5 90 97 be 94 7d 0b 3f
       0.27030358 -0.72182333 -0.29602543 0.5448849
000080 14 28 f3 be bc 19 09 3d 27 2a 25 3f 17 1f c8 3e
       -0.47491515 0.033471808 0.64517444 0.3908622
000090 01 31 a8 bf 2d db 70 bf 17 ff 38 3f 8c bc ff bd
       -1.3139955 -0.94084436 0.72264236 -0.12487134
0000a0 a8 f4 1c 3f 3b 43 22 3f ea 28 d7 bf a9 ca de 3e
       0.61310816 0.63383836 -1.6809361 0.43513992
0000b0 d8 ad 81 bf 23 61 05 3f da f7 93 bc ea e7 2e 3f
       -1.0131178 0.52101344 -0.01806252 0.6832262
0000c0 e4 f2 a9 bf a0 b9 1a 3f 2f a3 1c 3f 51 bd 09 3f
       -1.3277249 0.6043949 0.611865 0.538045
0000d0 d6 a7 2e 3f b8 fa 15 3f d7 e9 21 bf 70 af 4f bf
       0.6822485 0.5858569 -0.63247436 -0.8112707
0000e0 6d d8 13 3f a2 c7 8d bc 91 e9 72 3e f5 69 9f bf
       0.57752115 -0.017307106 0.23721911 -1.245421
0000f0 0f 9d 6c 3f a6 95 94 bf 84 b3 38 3f d0 d6 e2 3e
       0.9242715 -1.1608169 0.7214892 0.44304514

model/c/MatMul/ReadVariableOp:0 f4 [32, 1]
000000 66 c7 83 ba de d3 35 bb 74 3e cf bb 15 f0 09 3f
       -0.0010053932 -0.002774469 -0.0063245837 0.5388196
000010 22 43 26 bc f4 81 0b 3f 0c ab 09 3f 44 74 1c bb
       -0.010147842 0.5449517 0.5377662 -0.002387301
000020 ae 40 a1 bb 68 dc bc 3c 11 64 2d bc d7 45 d0 bb
       -0.0049210405 0.023054317 -0.01058294 -0.006355982
000030 0a 61 0b 3f dc 7c f0 3c 2b b4 37 3b 86 59 20 3c
       0.54444945 0.029356413 0.0028030972 0.009786969
000040 01 00 98 3b c2 91 64 3b ea 50 4a 3b a5 1a 0a 3f
       0.0046386723 0.0034876917 0.0030870982 0.53946906
000050 b2 97 0b 3f 4d c2 9c ba 50 2e 31 3c 45 0d 12 bb
       0.54528344 -0.0011959762 0.010814264 -0.0022285741
000060 3a 08 69 3b fb 83 09 3f 47 ab 69 bc cd 05 09 3f
       0.0035557882 0.5371701 -0.014262027 0.53524476
000070 6e c0 0a 3f 7c c0 54 3b 8a c6 6c bc bc 2b 55 bb
       0.54199874 0.0032463362 -0.014451632 -0.0032527288

model/T/MatMul/ReadVariableOp:0 f4 [32, 1]
000000 66 c7 83 ba de d3 35 bb 74 3e cf bb 15 87 14 3f
       -0.0010053932 -0.002774469 -0.0063245837 0.5801862
000010 22 43 26 bc a5 bb 15 3f dd ea 14 3f 44 74 1c bb
       -0.010147842 0.5848945 0.5817087 -0.002387301
000020 55 32 cf 3b 52 83 f9 3c d0 6f f0 3c 4b e3 cd 3c
       0.0063231387 0.030458126 0.029350191 0.025132796
000030 57 00 15 3f 46 05 cc b9 2b b4 37 3b 86 59 20 3c
       0.58203644 -0.0003891384 0.0028030972 0.009786969
000040 01 00 98 3b c2 91 64 3b ea 50 4a 3b c0 49 14 3f
       0.0046386723 0.0034876917 0.0030870982 0.57925034
000050 4c 01 15 3f 4d c2 9c ba 50 2e 31 3c 45 0d 12 bb
       0.58205104 -0.0011959762 0.010814264 -0.0022285741
000060 3a 08 69 3b e5 20 14 3f 47 ab 69 bc c5 11 14 3f
       0.0035557882 0.57862693 -0.014262027 0.57839614
000070 bd 86 14 3f 59 de 54 3b 97 bc a8 3c bc 2b 55 bb
       0.58018094 0.0032481162 0.02059774 -0.0032527288

model/P/MatMul/ReadVariableOp:0 f4 [32, 1]
000000 66 c7 83 ba de d3 35 bb 74 3e cf bb 5b 9e 3b 3f
       -0.0010053932 -0.002774469 -0.0063245837 0.73288506
000010 22 43 26 bc 18 09 3c 3f 2b b2 3d 3f 44 74 1c bb
       -0.010147842 0.73451376 0.7409999 -0.002387301
000020 ae 40 a1 bb ec b5 69 ba f7 6e e3 3a d7 45 d0 bb
       -0.0049210405 -0.0008915353 0.0017351796 -0.006355982
000030 0f aa 3a 3f 46 05 cc b9 2b b4 37 3b 86 59 20 3c
       0.7291574 -0.0003891384 0.0028030972 0.009786969
000040 01 00 98 3b c2 91 64 3b ea 50 4a 3b c6 3f 3b 3f
       0.0046386723 0.0034876917 0.0030870982 0.73144186
000050 be bb 39 3f 4d c2 9c ba 50 2e 31 3c 45 0d 12 bb
       0.72552097 -0.0011959762 0.010814264 -0.0022285741
000060 3a 08 69 3b 0e 20 3b 3f 47 ab 69 bc 74 e5 3b 3f
       0.0035557882 0.73095787 -0.014262027 0.7339699
000070 0d f5 39 3f 59 de 54 3b 8a c6 6c bc bc 2b 55 bb
       0.7263954 0.0032481162 -0.014451632 -0.0032527288

model/9/MatMul/ReadVariableOp:0 f4 [64, 32]
000000 f5 04 c5 bb 53 84 47 bb 8d 15 fd bc 40 bf f5 37
       -0.006012554 -0.0030443862 -0.030894065 2.9295334e-05
000010 ba e1 3a bd ea c2 d4 3b 8d 11 b7 3b 44 74 1c bb
       -0.045625426 0.006492962 0.005586809 -0.002387301
000020 2a 0c f3 bc 70 f2 cd bc 14 64 2d bc cc 52 2c bd
       -0.029668886 -0.025140017 -0.0105829425 -0.04207115
000030 06 fc b8 3b ac de c9 bc 2b 04 38 bc 41 db 73 bc
       0.005645278 -0.024642311 -0.0112314625 -0.014883817
000040 23 c1 10 bc ce 89 e8 bc 42 c3 16 bc 72 b7 1d 3a
       -0.00883511 -0.028386023 -0.0092018265 0.000601641
000050 a1 d5 a2 bb 84 83 d1 bc 50 2e 31 3c 0c 95 20 bb
       -0.004969314 -0.025575407 0.010814264 -0.0024502901
000060 1d 6a e2 bb e5 30 4b bc 47 ab 69 bc 24 c3 ef ba
       -0.0069096223 -0.012401794 -0.014262027 -0.0018292409
000070 3a 8d 09 bb 5a dc fe bc 9a 57 52 bd b1 ac 67 bc
       -0.0020988719 -0.031110931 -0.051353075 -0.014140294
000080 4b 61 4d bc 41 85 aa bb 07 83 ec 3b 9e 1c b7 3c
       -0.0125354035 -0.0052038734 0.007217768 0.022352513
000090 b9 4c 35 3c bb 03 e2 3b 69 2b e8 3b 07 d3 09 bc
       0.011065655 0.0068974174 0.007085253 -0.008412129
0000a0 63 63 64 3b 3e 1c f9 3b 66 ea 43 3a b4 79 b1 3b
       0.0034849278 0.0076022437 0.0007473588 0.0054161195
0000b0 6f 54 3c 3c 9e 25 2a 3b 18 10 dd 3b 2b 7e 50 3c
       0.01149474 0.0025962363 0.0067463033 0.012725393
0000c0 b0 6e 85 bc 7f 5d 1b 3c 1b 33 d1 3b 18 0f d3 3b
       -0.016288131 0.00948274 0.006384266 0.0064410083
0000d0 36 e9 93 3c 82 a6 a6 3a 77 05 88 bc e5 53 92 bc
       0.01805554 0.0012714418 -0.016604168 -0.01786227
0000e0 8c 45 dd ba 43 3e 7b 3b 61 6a 07 bb 8d 60 40 3c
       -0.0016881688 0.0038336671 -0.0020662772 0.0117417695
0000f0 54 85 1b 3c 39 24 11 bc f2 1e 1b 3c 82 65 06 3c
       0.009492237 -0.008858734 0.009467827 0.008202912
000100 32 1e 1e bc ca 92 a1 bb 34 b7 71 ba 5b 80 23 bb
       -0.009650754 -0.0049308287 -0.000922072 -0.0024948332
000110 73 0e 59 bc fc df 62 bb 2e a7 b8 bb 3f 6f 88 bc
       -0.013248074 -0.0034618368 -0.0056351637 -0.016654609
000120 b4 79 04 3b 4f 2a 57 3c 8d 49 cc bc e5 85 54 bb
       0.0020214142 0.013132646 -0.024937415 -0.003242844
000130 38 9b 67 3c 27 d7 86 bb 58 bb cd 3b d3 eb 63 3c
       0.014136128 -0.0041150036 0.0062784366 0.013911205
000140 26 cb 61 bc af 1f 7d bc 9d ee 10 3c 80 fb 8c ba
       -0.0137813445 -0.0154494485 0.008845952 -0.0010756105
000150 43 3d a2 bb f5 dc b4 bb bb b2 24 3c 9e e9 42 3c
       -0.0049511506 -0.005519504 0.010052378 0.011896519
000160 39 44 6f 3b 29 e6 4f bc 8b ee 2a 3c a2 aa 61 3c
       0.003650917 -0.012689152 0.01043285 0.013773592
000170 d5 28 83 3c 0c a8 0c bc d9 9f c1 bb 2b 9d 27 3c
       0.016010681 -0.008584987 -0.005908948 0.010230343
000180 38 1e 6c bb 1b 5e f6 bb 04 53 63 3c f0 7c 0e bb
       -0.0036028754 -0.0075185425 0.013874773 -0.002174195
000190 cb d5 c5 3b c7 e8 e1 bc b5 45 2f 3c 6a e2 6d 3c
       0.006037449 -0.027576817 0.010697772 0.014519313
0001a0 a1 31 16 3a 5b 3c 87 bb e1 f8 de 3c a4 e8 38 3c
       0.0005729441 -0.004127068 0.027218284 0.011285935
0001b0 fe 49 f3 bc d8 73 bc 3b 77 4a d7 3b 5d 7b e2 b9
       -0.029698368 0.0057511143 0.006570156 -0.00043197992
0001c0 a4 e5 5a ba 26 1f c0 bb e2 28 1b 3b 7e a8 b2 ba
       -0.0008350259 -0.005863088 0.002367549 -0.0013630537
0001d0 30 01 55 bc e1 9d 65 bb 8d ae 0c 3c 2b 1a f9 ba
       -0.013000771 -0.003503673 0.008586538 -0.0019004991
0001e0 c7 0a 91 3b f8 f2 a9 bc b5 05 46 3c eb c2 19 bd
       0.0044263336 -0.02074574 0.012086322 -0.037539404
0001f0 d0 3b 5c 3b 6f d8 c1 bb 13 e8 5e 3c 22 0f 20 3c
       0.0033604987 -0.0059156935 0.0136051355 0.009769233
000200 7e 23 94 ba e9 4b 93 3b 71 e9 2b bc 2e d0 e5 3a
       -0.0011302081 0.004495133 -0.0104926685 0.0017533356
000210 65 69 08 bd 90 85 6f 3c c6 83 07 3c fd f5 17 bb
       -0.033303637 0.014619246 0.008271163 -0.0023187392
000220 92 ce c6 bc 21 2a 2b bc af 13 d9 bb de dc 31 bd
       -0.024268422 -0.010447056 -0.006624661 -0.043423526
000230 8f c9 87 b9 07 95 fb bc 21 8f ea 3a 4f 4e 19 bd
       -0.0002589938 -0.03071071 0.0017895439 -0.037428197
000240 7a a1 49 bc ed 1a 9e bc 62 1b 5c bc 13 31 78 bc
       -0.012306565 -0.019299949 -0.013434263 -0.015148419
000250 97 7d 22 bb df 12 42 bc 61 ad 42 bb c8 ee 0f 3b
       -0.0024794096 -0.0118453195 -0.0029705393 0.0021962393
000260 4b df 93 bb 69 c5 47 bb 77 84 3f bc 94 a0 78 bc
       -0.0045127026 -0.0030482656 -0.011689297 -0.015175004
000270 45 07 13 3c 64 df b4 bc 03 8b ee bc 0b 07 18 bc
       0.008973901 -0.022079177 -0.02911902 -0.009279023
000280 dc a3 8c bc ba 07 ae 3b a4 16 68 bc da 74 2e 3c
       -0.017167978 0.0053109797 -0.014165554 0.010647977
000290 aa a7 f0 bb 36 34 23 bc fd 71 e0 ba 32 54 40 bc
       -0.007344206 -0.0099611785 -0.0017123815 -0.011738824
0002a0 b9 26 a8 bc d4 68 96 bc ab 9b 96 3c c2 b0 e5 bb
       -0.020526277 -0.018360533 0.018384775 -0.0070095966
0002b0 c3 b2 2e 3b 4f 39 fc bc 84 b7 37 bb eb 67 3c bc
       0.0026656843 -0.030789046 -0.0028032968 -0.011499385
0002c0 a7 39 1a bb 9f fc 0e 3c 84 1d 86 3a fc 0b 97 bb
       -0.0023532899 0.008727222 0.0010232185 -0.004609583
0002d0 51 0f 93 bb 05 08 45 bc 30 6d 05 3c c0 ed ac bc
       -0.00448791 -0.012025838 0.008143708 -0.021109462
0002e0 73 27 a1 3b 87 41 83 bb 12 47 0c bc 99 82 a6 bb
       0.004918033 -0.004005614 -0.008561866 -0.0050814864
0002f0 90 12 7e 3c da 4e f5 bc 3e 45 75 3a dc 22 16 bc
       0.015507355 -0.029944826 0.0009356326 -0.009163585
000300 57 d6 25 3b ae 7a 3c ba 9d 0a 95 bc 67 d2 b5 3b
       0.0025304758 -0.00071899116 -0.018193537 0.0055487636
000310 6b c0 e0 bc 23 4e 47 bc 0a 1e b8 3b 1b 4c 2e bc
       -0.027435502 -0.012164625 0.0056188153 -0.010638262
000320 3e d5 b7 bc e6 40 93 bc a6 b9 4b bc 43 47 1e bd
       -0.022440549 -0.017975282 -0.012434399 -0.03864218
000330 74 01 b2 3c 7a 7c a7 bc d0 be 14 bc d3 21 ff bc
       0.021729209 -0.020445097 -0.009078696 -0.031144058
000340 c9 e6 9f bc 3a 72 be bc bf 4e cb bb e8 d9 0e 3c
       -0.019519227 -0.023247827 -0.0062044556 0.008718945
000350 61 4b 21 3c 29 d0 f8 bc 52 a3 21 bc 10 7d 93 3c
       0.009844632 -0.030372696 -0.009865599 0.01800397
000360 9f 02 a7 bb d1 5b da bc 08 5a 0e bb eb f7 51 39
       -0.005096748 -0.02665511 -0.0021721143 0.0002002415
000370 db 4b 94 bc d2 14 2f bd 2b 54 33 bd a5 9d 47 bb
       -0.018102577 -0.042744465 -0.04378144 -0.0030458954
000380 fd 5f fe 3a 0b 49 0b bc ec 5d cf 3b 79 ea 9a 3c
       0.0019407269 -0.0085013015 0.006328335 0.018910633
000390 b4 94 63 bb c0 b9 14 3b 7a 67 4c bc 86 51 58 3c
       -0.0034726085 0.0022693723 -0.012475843 0.01320303
0003a0 6d ca 83 b9 3d 66 27 bb 26 3a e4 3a 73 23 44 3b
       -0.00025137086 -0.0025543116 0.0017412349 0.0029928356
0003b0 ae cc 42 3c f8 8c 76 bc 7c 0f 1f bc 38 fb a1 bb
       0.01188962 -0.015048258 -0.009708282 -0.0049432777
0003c0 14 0f d2 bb de 76 21 bc 5c c1 b2 ba 48 72 82 bb
       -0.006410489 -0.009855 -0.0013637948 -0.0039809085
0003d0 90 66 b4 ba 99 2d d6 39 33 8b c8 3b 25 cf 86 bc
       -0.0013763476 0.00040851234 0.0061201095 -0.016456196
0003e0 a0 fa ea bb 1a 4c 5b bb ed 68 a8 3c 0e 0e a1 ba
       -0.00717099 -0.0033462108 0.020557845 -0.0012287514
0003f0 09 6c 08 bc 15 f0 df b9 ba 43 f5 bb d9 85 d1 3b
       -0.008326539 -0.0004271275 -0.0074848803 0.0063941297

model/9/BiasAdd/ReadVariableOp:0 f4 [32]
000000 a8 1d af bb 37 a0 19 bd 4b 8c ca bc 79 20 cf 3e
       -0.0053441115 -0.03750631 -0.0247251 0.40454462
000010 41 d1 18 bd 57 ce df 3e 1f bf cb 3e 00 00 00 00
       -0.037308935 0.43712112 0.3979425 0.0
000020 17 f1 fa bc d4 b1 f4 bc db 6d 1a bd ce c7 18 bd
       -0.030632539 -0.029869951 -0.037702423 -0.037299924
000030 e8 19 ed 3e d2 b0 c9 bc 7a eb 54 bc 30 60 ca bc
       0.46308827 -0.024620447 -0.012995595 -0.024704069
000040 7e c1 4f bc 33 4d fd bc 5c b1 45 bc 6b 4a d8 3e
       -0.0126804095 -0.0309206 -0.012066212 0.42244276
000050 7a 5c df 3e 78 0a ca bc 00 00 00 00 2a be 01 bd
       0.43625242 -0.024663195 0.0 -0.031675495
000060 b1 79 3e bc d2 e5 c2 3e 00 11 02 bd f2 b4 ce 3e
       -0.011625693 0.38065964 -0.031754494 0.40372425
000070 de 8f e4 3e 74 80 fb bc ba d7 18 bd 93 ef 44 bc
       0.44641012 -0.0307009 -0.037315108 -0.01202001

model/8/MatMul/ReadVariableOp:0 f4 [64, 64]
000000 58 76 bf bb 1b d7 35 bb 73 3e cf bb e1 e2 13 3c
       -0.005842965 -0.002774662 -0.006324583 0.00902626
000010 e3 1a 66 bc 3b 78 06 3c 71 65 70 3c 44 74 1c bb
       -0.014044496 0.008207376 0.014672623 -0.002387301
000020 7c 46 a1 bb 41 ba 69 ba 18 64 2d bc 79 7d 2e bc
       -0.0049217325 -0.00089159986 -0.010582946 -0.010650032
000030 60 62 3a 3b 9e 04 cc b9 be 88 84 bb 84 59 20 3c
       0.0028439984 -0.00038913352 -0.0040446213 0.009786967
000040 0c 2f fe ba e0 50 63 bb c9 af 2e bb 65 88 ce 3b
       -0.0019392683 -0.0034685656 -0.002665507 0.0063028806
000050 e1 b8 e1 38 4d c2 9c ba 45 2e 31 3c 45 0d 12 bb
       0.000107632724 -0.0011959762 0.010814254 -0.0022285741
000060 18 a8 83 ba 9c 8c 97 3b 47 ab 69 bc 05 9f fa 3b
       -0.0010044603 0.0046249162 -0.014262027 0.007648351
000070 e5 a2 52 39 b0 fb cf bb 9b c4 a0 bc 22 b6 f8 bb
       0.00020087844 -0.006347142 -0.019624999 -0.0075900713
000080 4b 61 4d bc 22 85 aa bb 07 83 ec 3b 1f a4 3c 3c
       -0.0125354035 -0.005203859 0.007217768 0.011513739
000090 a9 4c 35 3c 0e 34 81 bb 50 35 76 bb 07 d3 09 bc
       0.0110656405 -0.003942973 -0.0037568398 -0.008412129
0000a0 6b 63 64 3b 3e 1c f9 3b b3 ea 43 3a bc 79 b1 3b
       0.0034849297 0.0076022437 0.00074736326 0.005416123
0000b0 77 7f 2c 3a 9e 25 2a 3b 19 10 dd 3b 2b 7e 50 3c
       0.0006580273 0.0025962363 0.0067463038 0.012725393
0000c0 b6 6e 85 bc 86 5d 1b 3c 1b 33 d1 3b fc 15 90 bb
       -0.016288143 0.009482747 0.006384266 -0.004397152
0000d0 cb af ec 3b 36 a6 a6 3a 77 05 88 bc e5 53 92 bc
       0.0072231046 0.001271433 -0.016604168 -0.01786227
0000e0 fc 45 dd ba 3c 7e e5 bb 83 6a 07 bb c2 a0 6c 3a
       -0.0016881819 -0.0070035737 -0.0020662851 0.00090266403
0000f0 83 da af ba 3b 24 11 bc f2 1e 1b 3c 83 65 06 3c
       -0.0013416562 -0.008858736 0.009467827 0.008202913
000100 32 1e 1e bc a0 92 a1 bb f3 b7 71 ba 69 3c b4 bb
       -0.009650754 -0.004930809 -0.0009220831 -0.0055003655
000110 7c 16 25 bc 8f 9a 0b bc 01 96 38 bc 3f 6f 88 bc
       -0.0100761615 -0.008520736 -0.0112662325 -0.016654609
000120 69 7b 04 3b fc 29 57 3c 64 49 cc bc aa 5d ed b9
       0.002021516 0.013132568 -0.02493734 -0.00045273948
000130 96 c8 26 3c f4 d6 86 bb 7b bb cd 3b d3 eb 63 3c
       0.010179659 -0.00411498 0.006278453 0.013911205
000140 7c cb 61 bc ea 1f 7d bc db ee 10 3c 9e 0a be bb
       -0.013781425 -0.015449503 0.00884601 -0.0057996055
000150 8a dd fc bb f5 dc b4 bb bb b2 24 3c 9e e9 42 3c
       -0.007716839 -0.005519504 0.010052378 0.011896519
000160 14 46 6f 3b 09 4e 8c bc 8b ee 2a 3c 86 0a 10 3c
       0.0036510276 -0.017127054 0.01043285 0.0087915715
000170 50 9e 57 3c db a7 0c bc 68 76 16 bb 64 9d 27 3c
       0.013160303 -0.008584942 -0.002295876 0.010230396
000180 38 1e 6c bb 1b 5e f6 bb 04 53 63 3c f1 13 2f 3c
       -0.0036028754 -0.0075185425 0.013874773 0.010685907
000190 cb d5 c5 3b cc 58 71 bc 13 75 c0 3c 53 e2 6d 3c
       0.006037449 -0.0147306435 0.023493325 0.014519292
0001a0 07 33 16 3a 5b 3c 87 bb d5 f8 de 3c 17 e8 38 3c
       0.00057296496 -0.004127068 0.027218262 0.011285803
0001b0 ec a8 89 bc d8 73 bc 3b 0c 01 dc 3b 6e 81 e2 b9
       -0.016804181 0.0057511143 0.006713992 -0.00043202512
0001c0 a2 e5 5a ba 92 10 bc bb 73 29 1b 3b 17 96 3c 3c
       -0.0008350258 -0.00573928 0.0023675829 0.011510394
0001d0 36 75 97 b8 e1 9d 65 bb 8d ae 0c 3c ba 1b f9 ba
       -7.222073e-05 -0.003503673 0.008586538 -0.0019005456
0001e0 c0 f5 92 3b c6 e2 00 bc b5 05 46 3c 38 38 ca bc
       0.004484862 -0.007866567 0.012086322 -0.02468501
0001f0 f9 5b 85 3c 6f d8 c1 bb 13 e8 5e 3c 09 0f 20 3c
       0.016279208 -0.0059156935 0.0136051355 0.00976921
000200 b5 e1 fe 3b 87 80 a6 bb ae 73 06 3c 3e 89 e4 bb
       0.007778371 -0.0050812396 0.008206291 -0.0069743684
000210 e5 8d ac 3b 26 37 22 bc 47 c1 66 3c d1 10 18 bb
       0.0052659386 -0.009900844 0.014084167 -0.0023203383
000220 ff 67 9b 3b 3a b4 77 3b 0b 25 5c bc 52 9a a4 bb
       0.004742622 0.0037796632 -0.013436566 -0.005023279
000230 18 f6 f7 bb 78 22 05 bb 13 22 5c 3b 97 1a 50 bc
       -0.0075671785 -0.0020314734 0.0033589646 -0.012701652
000240 98 18 ac bc 06 bb 3f bc 48 4d 04 bb 81 92 ab bc
       -0.021007821 -0.011702305 -0.0020187665 -0.020943882
000250 ab f2 5c bc 56 e8 94 3c 37 09 0d bc a3 b7 8e 3b
       -0.013485591 0.018177193 -0.008608154 0.0043553873
000260 a1 6a c0 3b 64 30 18 3c 77 84 3f bc c4 27 f1 3c
       0.005872086 0.009288881 -0.011689297 0.029437907
000270 91 de 0b 3a 5a 5a c0 3b 81 4c f4 3b 0c 21 7b bc
       0.0005335594 0.0058701457 0.007455409 -0.015327703
000280 65 8b 20 bd ab 7c 0e 3c 02 58 29 3c bf 54 ef 3b
       -0.039195437 0.008696715 0.010335924 0.0073038037
000290 cb bf a0 bc 27 80 09 bd f9 cb d1 bb 9e 7b 40 bc
       -0.019622704 -0.03356948 -0.0064024893 -0.011748223
0002a0 40 d2 32 bc 23 46 c7 bb 5f 4c 01 3c b0 33 69 bc
       -0.010914385 -0.006081359 0.007891743 -0.014233515
0002b0 67 06 de bc c0 f4 d3 bc 2e a2 c3 bc 4d 75 33 3b
       -0.027102662 -0.025873542 -0.023881044 0.002738315
0002c0 7c 24 15 bc 79 e4 4d 3c ea cd 9c 3b 16 15 b5 bb
       -0.009102937 0.012566679 0.004785289 -0.0055261953
0002d0 8f d1 24 bc cd 40 6f bc 30 6d 05 3c 9c 13 ad bc
       -0.010059728 -0.014602852 0.008143708 -0.021127515
0002e0 7c 27 a1 3b 28 54 40 bc 37 1c 98 bc 67 b6 34 bc
       0.004918037 -0.011738814 -0.018568141 -0.011029816
0002f0 f6 8d 21 3c f9 ac 39 bc 3e 45 75 3a 2e 4d 16 bc
       0.009860506 -0.011332744 0.0009356326 -0.0091736745
000300 3c 29 13 3c 38 78 3c ba b4 90 d3 3b 44 c5 29 3c
       0.008981999 -0.0007189545 0.006456459 0.010361973
000310 3b 81 27 3c b7 89 7a bc 5c a3 34 3c 2e 4c 2e bc
       0.010223682 -0.015291623 0.011025276 -0.01063828
000320 9d bf 92 3b 79 99 e5 3b 12 b9 4b bc 38 15 ad ba
       0.0044784085 0.0070068208 -0.012434261 -0.0013205176
000330 12 b0 75 3c f7 a3 d1 3b 2d 8e 8d ba e2 4f d2 bb
       0.014995592 0.00639772 -0.0010799818 -0.006418214
000340 8c d9 4e bc 9e 81 4c bb e5 e2 36 3b 74 53 1b 3c
       -0.012625109 -0.0031205188 0.0027906236 0.009480346
000350 59 42 46 3c 0f f0 52 bb 52 a3 21 bc 02 1b a2 3c
       0.012100779 -0.0032186543 -0.009865599 0.019788269
000360 4c d6 56 3b 4b a0 5c bc 08 5a 0e bb de 5b 8e 3b
       0.003278154 -0.013465951 -0.0021721143 0.0043444475
000370 c6 a6 94 bc 98 bf 83 bc 72 0d c7 bb 67 04 75 3b
       -0.01814593 -0.01608257 -0.006074601 0.0037386657
000380 04 00 fe 3a ad 21 d4 bb ec 5d cf 3b 56 9a a9 3c
       0.0019378667 -0.006473741 0.006328335 0.020703476
000390 60 3a 56 bb 9e ec 12 3b 01 8e 33 bc fc 50 58 3c
       -0.0032688603 0.0022418867 -0.010959149 0.013202902
0003a0 cb a6 d1 b9 58 a2 14 bb c5 34 e4 3a d1 6c 46 3b
       -0.00039987857 -0.0022679772 0.0017410746 0.0030277262
0003b0 fb a3 42 3c 9e 9d 77 bc 96 10 1f bc 3f fd a1 bb
       0.011879916 -0.015113262 -0.009708544 -0.0049435194
0003c0 14 0f d2 bb 40 05 fb bb 6b d5 31 3a 41 50 d8 ba
       -0.006410489 -0.007660538 0.0006783816 -0.001650341
0003d0 b3 72 b4 ba 99 2d d6 39 33 8b c8 3b a7 cf 86 bc
       -0.0013767093 0.00040851234 0.0061201095 -0.016456438
0003e0 a0 fa ea bb 82 a6 16 bb 8c 6b a8 3c d0 69 a4 ba
       -0.00717099 -0.002298743 0.020559095 -0.0012543742
0003f0 dd 6e 08 bc 15 f0 df b9 2e 20 f3 bb af 84 d1 3b
       -0.008327213 -0.0004271275 -0.0074196076 0.006393991

model/8/BiasAdd/ReadVariableOp:0 f4 [64]
000000 2d 87 3a b7 13 c5 92 bc 4b 9f 38 bc 4e 32 0e bc
       -1.1117937e-05 -0.017916238 -0.011268447 -0.008678986
000010 9c 6a 31 b7 ab 53 a2 b7 13 df 6e b8 07 72 9f bb
       -1.0574844e-05 -1.9350866e-05 -5.6951376e-05 -0.004865888
000020 94 a6 3b b8 c1 3d 89 bb 8d b7 2f bc c9 05 4f b6
       -4.4739412e-05 -0.00418827 -0.010724914 -3.084877e-06
000030 00 00 00 00 ad 95 40 b5 0f 76 fb b3 53 f9 15 bd
       0.0 -7.174338e-07 -1.1709573e-07 -0.036614727
000040 7e 62 21 bc 70 d7 b4 bb ea e5 8d b7 eb 46 a5 bd
       -0.0098501425 -0.005518846 -1.6915572e-05 -0.08070167
000050 e3 02 13 bd f6 be 66 b5 c8 04 3b b4 17 b0 b7 b6
       -0.035891425 -8.595956e-07 -1.7417472e-07 -5.4743246e-06
000060 8b 13 43 b8 df 27 d7 b7 e6 7b ec bc e0 61 42 bf
       -4.6509824e-05 -2.5648564e-05 -0.028867673 -0.75930595
000070 7c 6b 6c b7 53 39 a4 b7 87 1d 3c b8 fb 31 a2 bc
       -1.4091722e-05 -1.9577017e-05 -4.4850192e-05 -0.019799223
000080 cb fd 2f bc 1c df 9c b7 d5 4f bf bc 50 54 e1 b3
       -0.010741661 -1.8700543e-05 -0.023353497 -1.0492715e-07
000090 66 50 ca bd 2c d8 7b bd 6a 78 8e b6 af af d6 bc
       -0.09878616 -0.061485454 -4.245948e-06 -0.02620682
0000a0 9d 60 8e bc 61 56 e2 bc 06 4f 2e bd 29 c1 4c 3c
       -0.017380053 -0.02762908 -0.04255583 0.012497225
0000b0 be 65 24 bd bc 25 01 bd 93 5a 8f bd 44 c2 fb bc
       -0.04013609 -0.031530127 -0.069996975 -0.030732282
0000c0 d6 6f 35 b6 72 7f 53 b8 4b 23 88 b7 22 53 9e b5
       -2.7036199e-06 -5.0425013e-05 -1.6228898e-05 -1.1796112e-06
0000d0 ed 6f ab bb 02 c2 2c bc 00 00 00 00 4b 18 8b bc
       -0.0052318485 -0.010544302 0.0 -0.016979357
0000e0 06 29 95 bb 79 f9 f8 bc d9 d8 4d bc 36 4a 80 bb
       -0.0045520095 -0.030392395 -0.012563908 -0.0039150966
0000f0 8a ff 15 bd 47 19 0a 3f 00 00 00 00 6b 3a 17 b9
       -0.036620654 0.5394482 0.0 -0.00014422245
