user/tutorials/python/UVFlash/ANN/TPX.onnx (onnx, 293448 bytes, 46 tensors)

model/vf4/MatMul/ReadVariableOp:0 f4 [32, 32]
00000000: a037 323d 908a 803d 0906 8ebc 2681 03be
00000010: 4062 243d 4650 d43d 6dfb 37bd 89e1 8cbd
00000020: b337 9dbd 2af6 103d a3c9 1f3e 47a6 b03d
00000030: 41cf 29be a3af a8be f05e cebd 05a0 db3d
00000040: 4bf4 41bd 10fe 9a3d 696e 37be 9428 1a3e
00000050: d696 663e 622a 9dbd 115d 43bc e4fe 9cbd
00000060: 5048 31bd 1163 51bd 6fb3 4e3e 6d28 333e
00000070: f862 28be e7a3 343d e351 643d 31ca 98bd
00000080: 41b1 2b3e d3af 87bd 8a7c 523c 7a81 8dbd
00000090: 7ac9 1f3d 31cd d73b 272d 693d 26d0 aebd
000000a0: 1a40 353c 7c54 d53d 2218 e9bc 3847 e43c
000000b0: fd42 d33c f021 8ebd 3041 003e 0b9d 80bd
000000c0: c073 c0bc 7e7c d13c cca3 33bd b27a 83bd
000000d0: 2951 ed3c d162 093d 5e87 cd3b b617 0c3c
000000e0: e89c cfbd 1ce2 12be 33a0 683c 51f0 713d
000000f0: 6109 a1bc 45c9 1ebe 573d 36bc 116a f83d
00000100: cbb1 92bd 01d8 053e 9126 3d3e 4434 a83b
00000110: 3dd2 41bc ce6a ebbd 50c9 bfbd 6898 0ebe
00000120: e8a5 06bd 4c56 883a 2a0e 04bd c3c0 f03c
00000130: 6677 14bd 9c62 da3d abe0 d9bd 6535 543d
00000140: aa17 103e 5e3a 7b3d 7c78 22be 1d3f d3bd
00000150: 0587 b1bd af5d c0bd 1420 203e 4b71 18bd
00000160: 614f 0f3c 3b41 a9bd 5894 0f3d a565 3a3e
00000170: 1551 a7bc c709 233d 1103 393c fc90 32bd
00000180: c851 dbbd 35ee e43d 797b cd3d 6c41 23be
00000190: 70e2 04bd 481e 2ebd c94e 1b3c 1237 d93d
000001a0: c3d4 d139 a4ba 0ebd 53f5 9b3e 391f f3bd
000001b0: f17b 00be 517c dcbc fb2c e1bb e209 0dbd
000001c0: 8695 04be e579 83bc 6d64 84bd c259 0abe
000001d0: 7b0c eabd d8ce 95bd 9a98 fc3c ad58 b43d
000001e0: f279 cdbc fa73 2ebe 055e 163e 2a4f 4ebd
000001f0: 4ad2 563c cc81 67bd 2b7a 68bd 25df 45be
00000200: 1718 dbbd 5c58 3bbe d5fa 38be e051 8cba
00000210: 31af ddbe aaaa 73be 88d9 9cbe ee23 643d
00000220: 9801 b5bd 6c66 4cbc 29aa 23be bf72 ecbd
00000230: 6f6c 8fbd cc97 9f3d 8860 b53c 73cc 96be
00000240: d48f 5bbe dd87 7dbe 9def f6bb ed18 4dbe
00000250: 0259 8cbe 5cab fbbc e6f1 a7bd 7626 73bc
00000260: 82eb 2d3b ead5 523d c1a9 40bd 73da 18be
00000270: 11cb 0a3d a339 30bf 0492 ccbc 4a0a 753c
00000280: b3e1 82bd 68ea f9bb 5b4a a0bd 18ad 7d38
00000290: 393a 613c cc04 253e 3833 6dbd 76f9 873c
000002a0: 6f1d a93c 6257 6a3d 411e 28be e115 993d
000002b0: 179d bb3d 074c 8ebc 4f47 ea3d c5e7 82bc
000002c0: df2e d33c 0a8d 45bd 1a9f 923d 5963 a7bd
000002d0: 12ad 453e 4353 ca3c 5cd7 1d3e 5386 013d
000002e0: 73e6 0e3d 1356 2c3d dcd0 5cbd 26e7 453d
000002f0: a337 913e fb4b edbd 9b90 29be e87b e9bd
00000300: 58b9 72bd 828a 83bd 2bc6 953d fd30 2f3e
00000310: 129c 023e 600d 6a3d 616f c838 43c7 e8bd
00000320: 5171 e2bc 6e9f b13d bb6d d73d eb59 7e3d
00000330: 3be9 263c ed82 4bbc 1bd5 9abe 713f 0f3e
00000340: f2c0 5fbd f07a 093d 4e8e 14be 0de2 223e
00000350: bc62 043d f484 863d 8ab4 f53b f361 49be
00000360: 117c b4bd 2388 54bc deba e7bd 02af 063e
00000370: 3452 04be cc80 ed3d 50d8 123a 4b85 543d
00000380: 232a 263e d544 fa3d 33f5 a83c 1b98 90bb
00000390: 1b93 6dbd 086a fcbc 58f2 133d b423 00be
000003a0: 5674 8c3d 3b1e 8b3d 469e c43d 58f5 e6bd
000003b0: 76cb 05be 997a 3b3e d67e 2dbd 6d30 823d
000003c0: 4913 543d ffc3 5cbd 88cf 19bd 364f 05bd
000003d0: 81a9 e5bd 7f1d 7d3c db46 fbbd ed76 813e
000003e0: dd93 5fbe 8364 b53d 7de3 a23d 95ed 123e
000003f0: ca98 293d 5396 39bd 75de 8e3d 57f1 693d
0.04351008 0.06276429 -0.017336862 -0.12842235 0.04013276 0.103668734 -0.044917513 -0.06878955
-0.076766394 0.03539101 0.15604262 0.08625465 -0.16582967 -0.329465 -0.10076702 0.10723881
-0.047352117 0.0756799 -0.17913212 0.15054542 0.22518477 -0.076740995 -0.011924044 -0.07665804
-0.043281853 -0.051119868 0.20185636 0.1749589 -0.16444004 0.044101622 0.055742156 -0.0746044
0.16766836 -0.06625333 0.012847075 -0.06909461 0.039010502 0.00658574 0.056927826 -0.08535795
0.011062646 0.10416505 -0.02845389 0.027865991 0.025788778 -0.06940067 0.12524867 -0.062799536
-0.023492694 0.025572058 -0.04385738 -0.06419887 0.028969364 0.033541504 0.0062722405 0.008550575
-0.10137349 -0.14344066 0.014198351 0.059067074 -0.019657793 -0.15506466 -0.011123023 0.121296056
-0.071628176 0.1307068 0.18471743 0.0051331837 -0.01182991 -0.11494981 -0.09364569 -0.13925326
-0.032873064 0.0010401695 -0.03224007 0.029388791 -0.03624668 0.106633395 -0.10638555 0.051808733
0.14071527 0.06133496 -0.15866274 -0.10314772 -0.08668331 -0.09392869 0.15637237 -0.03721742
0.008746953 -0.08264395 0.03505358 0.18202837 -0.020424405 0.039804246 0.011292235 -0.0435953
-0.10708958 0.11178247 0.10033316 -0.15942925 -0.03244251 -0.042509347 0.009479233 0.10606207
0.00040022106 -0.034845963 0.30460605 -0.118711896 -0.1254728 -0.026914747 -0.006871817 -0.034433253
-0.12947664 -0.016049335 -0.06464467 -0.13510802 -0.11428162 -0.07314843 0.030834485 0.08805976
-0.025082562 -0.17036429 0.14684303 -0.050368465 0.01311166 -0.05652027 -0.056757133 -0.19323404
-0.10697954 -0.18295425 -0.18064435 -0.0010705553 -0.43297723 -0.23795572 -0.30634713 0.055698328
-0.088381946 -0.012475591 -0.1598288 -0.115453236 -0.07003104 0.07792625 0.022140756 -0.29452857
-0.21441585 -0.24758859 -0.0075358883 -0.2002904 -0.27411658 -0.030721359 -0.08200435 -0.014840713
0.0026538079 0.051473536 -0.04703689 -0.14927082 0.033885065 -0.68837947 -0.02497197 0.014956066
-0.06390705 -0.0076268204 -0.07826682 6.0481107e-05 0.0137467915 0.16115111 -0.057910174 0.016598444
0.020643918 0.05721224 -0.16417791 0.07474876 0.09160822 -0.017370237 0.11439382 -0.015979657
0.025779186 -0.04823021 0.071592525 -0.08173246 0.19304302 0.024697905 0.15414184 0.031622242
0.034887742 0.042074274 -0.05391012 0.048316143 0.2836276 -0.11586758 -0.16559069 -0.11400586
-0.05925879 -0.06422903 0.07313188 0.17108531 0.12754849 0.05714166 9.557489e-05 -0.11366131
-0.027641924 0.08672987 0.10518976 0.06209747 0.010187442 -0.012421352 -0.30240712 0.13989045
-0.054627366 0.033564508 -0.1450741 0.15906544 0.032320723 0.065683275 0.0074983286 -0.19666271
-0.08812726 -0.012971911 -0.11314939 0.13152698 -0.12921983 0.11596832 0.0005601691 0.05188493
0.16227011 0.1222016 0.020624733 -0.0044126636 -0.05800162 -0.030812278 0.03611979 -0.1251362
0.06858127 0.067928754 0.09600501 -0.11277264 -0.13065895 0.18308486 -0.04235729 0.06356893
0.051776204 -0.053897854 -0.037551433 -0.032546245 -0.11213971 0.015448927 -0.12269374 0.25286046
-0.21833749 0.08857062 0.07953546 0.14348443 0.041405477 -0.045309376 0.06976024 0.057114925

model/vf4/BiasAdd/ReadVariableOp:0 f4 [32]
00000000: 0343 1e3c 6545 4e3e 4cdb 3d3e 507e a7bc
00000010: 46d4 5f3e b930 553e 68f9 b2bc c01a 32bd
00000020: 7d73 22bc 0d23 4a3e 02d7 573e 1f0c 533e
00000030: c4f0 0dbc 1670 3cbc 5e7c 1fbc e20a 573e
00000040: 24b5 9dbc ea29 503e 9f88 7dbd 7e81 5c3e
00000050: 062e 633e e4b1 90bc 744f 403e 5677 20bc
00000060: c90e 8bbc d9ca 00bd 062b 5a3e b2a5 5a3e
00000070: e31d 22bc b739 543e 0000 0000 fac0 83bc
0.0096595315 0.2014366 0.18540686 -0.020445973 0.2185832 0.20819367 -0.021847442 -0.043482542
-0.00991523 0.19739933 0.21078113 0.20610093 -0.00866336 -0.011501333 -0.009734241 0.21000245
-0.019251414 0.20328489 -0.06189787 0.21533772 0.22185525 -0.01766295 0.18780309 -0.009794077
-0.016974824 -0.03144345 0.21305475 0.2135227 -0.009894821 0.20725141 0.0 -0.01608323

model/vf3/MatMul/ReadVariableOp:0 f4 [64, 32]
00000000: b310 903c 9e85 2e3d 6d70 ffba 889b c1bd
00000010: 8460 6d3d 4d53 b23d cf6a 27bd ab62 2dbd
00000020: 8ac2 a5bd b639 a33c 624b f33d 93cb 5e3d
00000030: c307 32be 1d09 a4be 5747 d0bd 9792 c93d
00000040: 0696 dcbc 673e 4a3d 9a24 eabd f58b f43d
00000050: 6bce 3f3e ef37 6dbd 901d 49bb 56e9 a8bd
00000060: 62cc 4bbc d5ae e9bc 20cb 2c3e a82c 1e3e
00000070: fd70 1bbe 16bd 3d3d e351 643d 890a abbd
00000080: a8b1 2b3e 999e f2bd c24c 61bd 1447 fabd
00000090: 0abb 623d 2c3b 5ebd 07d2 b43c 8483 28be
000000a0: 0d19 a13c dfa0 583d 4b1b c1bd b752 16bd
000000b0: 16cf 99bc bbe8 b9bd 8d95 2c3d dea3 eabd
000000c0: 204a b6bc a518 40bc 488a f7bd 8e35 cebd
000000d0: 0e2f 47bc 2b8d 353d 282d f7bc 083a 8ebd
000000e0: 5665 f3bd 7979 39be 8d3c 62bc 6a95 6fbc
000000f0: 1a10 13bd af72 32be 4892 03bd e5d3 583d
00000100: 289b 5fbd a779 a73d fadc 103e 8aa1 c93c
00000110: f083 4ebd 6634 18be 77dd c6bd 1aed 05be
00000120: 9454 f039 d1b0 07bc 7a7f b4bd 6c01 be3c
00000130: cfd9 12bc c277 d63d 88d1 aabd d70b 2c3c
00000140: c652 313e 345a 433d bfc2 0abe fb61 13be
00000150: 5f40 07be d159 c3bd 636b e43d b5aa 00bd
00000160: 7b59 4e3c 3586 65bd 1e06 43bc 51f8 073e
00000170: ec40 10bc 6380 803c 1103 393c 4a27 b3bc
00000180: 39e5 4abd 8d6e f03d 83b6 ed3d 1278 02be
00000190: d307 9fbd 642d 36bd 60d6 8c3d 3148 083e
000001a0: eafd 993d 3cb9 173d 2731 913e c8aa 73bd
000001b0: 9fdc 6ebd 1e12 b0bc e8b8 313c ef01 33bd
000001c0: b536 0cbd 70bb 343d 55e8 b2bc 4139 10be
000001d0: 2653 02be b58a 73bd d601 383d f913 da3d
000001e0: 65a8 843b c81a 9abd bf73 043e e171 8ebd
000001f0: cc00 c13c 1c32 24bd 2b7a 68bd 62c0 09be
00000200: f28e acbd 582b 4abd 60bd d2bc c478 8d3c
00000210: 866b c6bc 781e aebd 387c 97be ae3b e03d
00000220: 9699 58bd b82c 2c3e f43b 34bd 1c4e 633d
00000230: 1d87 15bd 8557 9c3d 6723 733d 881e 15be
00000240: f659 34be 8bc7 a3bd f05f a83d fb1d 88bd
00000250: e49b 12be 4804 fbbc d8a7 9a3d 1109 d3bc
00000260: 3db3 883b 6309 e13d 2d5d bb3d aad5 33bc
00000270: 8621 1f3d 8e93 4abd 0492 ccbc 9ea5 2d3d
00000280: 435f 2ebd e4a1 82bc b69d acbd 30df 80bc
00000290: 32fb 9c3b 664d 203e 6b1b bbbd dfb4 8dbb
000002a0: 4dc7 223d c3be b23d 4007 3fbe a901 b93d
000002b0: 7641 b83d dded d6bc a06b c33d 9aff adbc
000002c0: c533 213d 6961 8bbc e88d ee3c daf6 9fbd
000002d0: e259 403e 4353 ca3c d48d 2a3e a7aa 8cbc
000002e0: 8006 dc3c 8bc1 413d 6ba6 35bd b0ba 0f3d
000002f0: e809 943e d761 c1bd 140a 3ebe 8dd8 00be
00000300: 78ee 0ebd 4086 0fbe f07d 173d 0e50 5c3e
00000310: 7e1a 753d a4c9 a0bb f572 113d 5736 bdbd
00000320: c05a 3f3c aa07 873d 3d9d 733c 770e 173d
00000330: c2f6 313d 96b8 44bc eef8 87be eb33 8e3d
00000340: 2dea 213c 69fa 033c 1627 d1bd 562e a53d
00000350: 9c6e 5ebd 3240 8b3d 9f77 08bd 134a 56be
00000360: e06d a8bd 2d3b ed3c 3857 45be 921c 403d
00000370: b8a1 febd d0ad 713d 50d8 123a a8dc be3d
00000380: 6540 1d3e b765 c43d 7e25 a63b aa4f 6cbd
00000390: 1f27 84bd 7817 8ebd 622f af3b 28ed 56be
000003a0: df40 843d 2036 1c3d 132d 0f3d aefc 29be
000003b0: 1837 3fbe fdb0 3e3e a617 14be 9a58 0b3d
000003c0: 4364 4c3d ce4a a1bd f316 51be 2866 54bd
000003d0: ffed 11be 3572 063d 330b debd 7416 353e
000003e0: 2b75 60be aafb 2f3d 0545 573d bfa6 ad3d
000003f0: 3c95 bd3c 8f36 1abd fda0 463d adcc 54bc
0.017586088 0.042607896 -0.0019488462 -0.09453493 0.057953373 0.087072946 -0.040873345 -0.042330425
-0.08093746 0.01992498 0.118796125 0.054393362 -0.17385773 -0.32038203 -0.10169857 0.09842413
-0.026927005 0.049375918 -0.114327624 0.11940757 0.18731086 -0.05791467 -0.0030687787 -0.0824763
-0.012438865 -0.02852575 0.16874361 0.15446723 -0.1517982 0.046322905 0.055742156 -0.08351619
0.16766989 -0.11846656 -0.055004843 -0.12220588 0.055354156 -0.05425565 0.022072805 -0.16456419
0.019665265 0.052887794 -0.09429034 -0.036699977 -0.018775504 -0.09077593 0.04213481 -0.114570364
-0.022252142 -0.011724626 -0.12086922 -0.100688085 -0.012157215 0.04432408 -0.0301729 -0.06944662
-0.11884563 -0.18112744 -0.013808382 -0.014623025 -0.035904028 -0.17426561 -0.032121927 0.052936453
-0.054591328 0.081775 0.14146796 0.02461316 -0.050418794 -0.14863738 -0.0971021 -0.13078728
0.00045839383 -0.008281902 -0.08813377 0.023194037 -0.008963062 0.10472061 -0.08340746 0.01050087
0.17316732 0.047693446 -0.13550852 -0.14392845 -0.1320815 -0.095386155 0.11153295 -0.0314128
0.012594576 -0.056036193 -0.011903314 0.13278319 -0.008804541 0.01568622 0.011292235 -0.02186932
-0.04953501 0.11739836 0.11607077 -0.12741116 -0.07765164 -0.04447688 0.06876826 0.13308789
0.075191334 0.037041888 0.28357813 -0.05948904 -0.05831587 -0.021493014 0.010847308 -0.043703016
-0.03423186 0.044124067 -0.0218393 -0.1408434 -0.12727031 -0.059458453 0.044923626 0.10648341
0.0040483945 -0.07524639 0.12934779 -0.069553144 0.02355995 -0.04008685 -0.056757133 -0.13452294
-0.08425702 -0.049357742 -0.025725067 0.0172695 -0.024221193 -0.08501905 -0.2958696 0.10948883
-0.052880846 0.16813934 -0.04400249 0.055494413 -0.036505807 0.076338805 0.059359934 -0.14562428
-0.17612442 -0.07997044 0.082214236 -0.06646343 -0.1431728 -0.03064169 0.07551545 -0.02576116
0.0041717575 0.109881185 0.09148631 -0.010976234 0.03885033 -0.049457125 -0.02497197 0.042394273
-0.042571317 -0.015946336 -0.084285185 -0.015731424 0.004790687 0.15654525 -0.09136089 -0.00432454
0.03974085 0.08727791 -0.1865511 0.0903352 0.08996861 -0.026236469 0.09542012 -0.021240044
0.039356012 -0.017014222 0.0291204 -0.07810755 0.18784288 0.024697905 0.16655666 -0.017171217
0.026858568 0.047303718 -0.04434816 0.03509015 0.28913808 -0.094424896 -0.18558532 -0.12582608
-0.03489539 -0.14016056 0.036985338 0.21514913 0.059839718 -0.00490685 0.035510022 -0.0923888
0.011679351 0.06593259 0.0148690315 0.03687903 0.043448217 -0.012006899 -0.26557106 0.06943496
0.009882492 0.008055308 -0.10212533 0.080654785 -0.054304704 0.06799354 -0.033317205 -0.20926695
-0.08224082 0.028958881 -0.19271553 0.046902247 -0.12433189 0.05900365 0.0005601691 0.093194306
0.15356596 0.09589713 0.0050703874 -0.05769316 -0.06452774 -0.0693807 0.0053462246 -0.20988905
0.06457686 0.038137555 0.034955095 -0.16600296 -0.1867336 0.18622203 -0.14462146 0.034020044
0.049900305 -0.07875596 -0.2041891 -0.051855236 -0.14250945 0.03282376 -0.1084198 0.17684346
-0.21919696 0.042964615 0.052556057 0.0847907 0.02314245 -0.037649687 0.048493374 -0.012988252

model/vf3/BiasAdd/ReadVariableOp:0 f4 [32]
00000000: 40a0 453e f500 d8bc 1c6f 2ebd cd48 b33d
00000010: de86 f13c 758c 42bd 2950 203e d992 cc3d
00000020: 1029 3d3e 8b02 263e 9ee0 06bd 2ec6 233e
00000030: 9b65 093e 796e 2ebd 9924 7d3d 137b dfbc
00000040: 7d75 303e d1e0 423e aee3 3d3d 4fbf 1abc
00000050: 73b4 6cbc c66f 23bc cdb8 2bbc 111b 89bd
00000060: 41ff 03bd 9ca2 213e f102 83bc c95b 35bd
00000070: a4c3 d3bc 0000 0000 2244 acbc bbc1 f53d
0.19299412 -0.026367644 -0.04258643 0.0875412 0.029483255 -0.04749723 0.15655579 0.099889465
0.18472695 0.16211908 -0.032929055 0.15993568 0.13417666 -0.042585824 0.06180248 -0.027280366
0.17232318 0.19031073 0.04635971 -0.009445026 -0.014447319 -0.009975379 -0.010481072 -0.06694616
-0.03222585 0.15784687 -0.015992614 -0.044276986 -0.025850125 0.0 -0.021028582 0.11999842

model/vf2/MatMul/ReadVariableOp:0 f4 [128, 64]
00000000: c3dd e9ba a671 1c3d 4cab cebc aa3b 1cbe
00000010: 8037 0e3c 5024 eb3c d2ca 5cbd 65d1 1cbd
00000020: 7d76 c7bd 7def cc38 d5d8 273e 1f12 003d
00000030: 755f 2dbe 8460 c1be ad52 e2bd 6263 7b3d
00000040: 8f29 56bd 1c50 9b3c c05e 1bbe 5582 d83d
00000050: 6f36 3c3e 196c aebd faac 0ebd c6f7 87bd
00000060: 7701 2dbd 2837 6bbd 4b9f 163e 1ab6 e33d
00000070: 6607 48be 90fd 7dbd 0340 3a3d 1eaf 0ebe
00000080: 83b4 463e 0ec7 11be d117 4ebd 60e4 e6bd
00000090: 6f2c 36bd c0a2 49bd ef15 433d d0e9 c0bd
000000a0: 8ada 19bd 4e76 acbc 9672 40be 3009 50bd
000000b0: 5d05 663d 7761 b0bd c426 be3d c3ef cebd
000000c0: fea7 33bb ed4f bfbc e00d c1bd 0165 d1bd
000000d0: b2b0 e0bb c6b8 a63c 6494 77bd af0f 0fbd
000000e0: b1b4 a8bd faba 53be db0e 42bd a403 f2bd
000000f0: 234e 6ebd 247b 55be 7c41 2abd 97ed b23d
00000100: 620a d8bd 2b7b dc3d d52d f93d a9ff 54bd
00000110: b239 6bbd bb90 e8bd 291c 0dbe 63cf f4bd
00000120: 28b8 4fbd 323a 36bd 169e 38bc 17f2 d43b
00000130: 14f4 05bd 67e9 c33d bc5e e9bd 82ba cb3c
00000140: 2da2 143e 397c 103d 6016 42be 00ed 06be
00000150: 7e4a 10be 5d4f 05be 5ab2 bb3d 9478 ee3b
00000160: 1e4a c5bb 9dc9 f5bd 824e aebc 2bd3 273e
00000170: 0315 abbc 90a5 d8bc 4233 033d 93e5 6ebd
00000180: bed5 0bbe a4cd 793d d3e0 ba3d 6d03 2abf
00000190: 98a6 07bd 1f6e 91bd a5fc 603c 3e19 343e
000001a0: 9593 31bc 06e2 a7bd c663 b73d ecd6 4cbe
000001b0: a090 18bd a3d5 1d3b 116f 50bc 0b8f bcbd
000001c0: 3e5d 7cbd f183 ddbc d1d3 b3bd fd4c dfbd
000001d0: 2891 cfbd 29b2 a5bd e342 f33c 1014 373d
000001e0: fe92 0abc 47c2 42be 2319 ee3d df4e 3ebe
000001f0: 47b4 4c3c 6e7c 83bd 590b b4bd f324 34be
00000200: 1fa2 10be c23e 5abd 46a9 35bd 9500 22bd
00000210: ffcb 1bbd 74f5 17be 8bfb a3be dd0e 903d
00000220: 17f1 d2bd 42f3 d03d 30d5 dcbc c100 69bd
00000230: 3657 a2bd 894d 3e3b a995 383c 76f9 33be
00000240: 29a4 7ebe 35ef 4abe 2b13 7e3c a366 d2bd
00000250: 6aef 21be 7fba 0abd 2cbb 0c3c 731e abbc
00000260: c108 c9bc 9d67 5c3d 5516 8c3d da12 5a3c
00000270: 543a 98bc 08fa f8bd 1d32 69bd 5075 72bd
00000280: f8da 88bc 2a22 0dbd 43a7 abbd dd79 d3bc
00000290: 7285 16bc 9483 083e ea71 a9bd 8b07 eb3c
000002a0: 501f 40bd 86b0 2fbc 3b03 6fbe f4cb c6bc
000002b0: 3b38 bf3d 5832 bebd 130a 683d 3c38 30bc
000002c0: 80b9 1e3c 87ec 6fbd e54f 3d3d 5249 e8bd
000002d0: 7e26 3c3e e99d 5abc 0407 063e 2f3c e3bb
000002e0: 5438 c43c 8528 8cbc a2ec 8cbd 17b2 413d
000002f0: 1649 623e e1fe 07be f615 47be acf4 00be
00000300: a932 adbd b33c 57bd 3e4e ac3c 079e 353e
00000310: ccc6 1d3d 6f2b 133c 038d 613c 4929 91bd
00000320: c2c8 edbb 892b 883a 5745 fc3d 3a87 b3bc
00000330: 9fc5 fcbb 353c c53c 7147 9bbe c275 193e
00000340: e005 8ebd 2b35 fdbc b3b9 22be e21d 823d
00000350: 335b 89bd 9782 8c3d 2540 a83c 1e56 a5bd
00000360: 41bf e4bd 2388 54bc 05ff 49be d765 92bc
00000370: 144a 2bbe 1bc9 27be 865c e53d 0442 cd3d
00000380: 675e 1c3e 77d2 d03d 6e0c 083d dbb9 8f3e
00000390: e0a9 81bd 19c1 46bd e27b dc3c 115e 4d3d
000003a0: 78a6 623e 48ac de3d 7d7d 923e ffee 59be
000003b0: ab52 0ebc f668 303e 812c 84bd 04b5 173e
000003c0: 0df0 193e 1154 f83b 7c10 22bd 7760 84bd
000003d0: 351d 693b 9a8f bbbb 50d1 d8bd 618f 933e
000003e0: e476 4ebe c80b 9b3d 4592 6b3e 9b68 4c3e
000003f0: 1f8d 333e 6d03 e13d 75de 8e3d 05c1 5b3e
-0.0017842579 0.03819432 -0.025228165 -0.15257135 0.008680224 0.028703839 -0.053904362 -0.03828563
-0.09739397 9.772086e-05 0.16391309 0.03126728 -0.16930945 -0.37768948 -0.110509254 0.061374076
-0.052285727 0.018959098 -0.15172863 0.10571734 0.1838014 -0.08516712 -0.034832932 -0.06639056
-0.042237725 -0.057425648 0.14709203 0.111187175 -0.19534072 -0.062009394 0.045471203 -0.1393399
0.19404797 -0.1423609 -0.05031568 -0.11274028 -0.04447597 -0.049227476 0.04762834 -0.09419596
-0.03756193 -0.021052506 -0.18793711 -0.050790012 0.05615746 -0.0861234 0.09284738 -0.10104325
-0.0027413364 -0.023353541 -0.094264746 -0.10224343 -0.006857001 0.020351779 -0.06044425 -0.034927066
-0.08237589 -0.20676795 -0.04737745 -0.11817101 -0.058179986 -0.20847756 -0.041566357 0.08736723
-0.10548855 0.1076568 0.12166945 -0.05200163 -0.05742807 -0.1135573 -0.13780273 -0.119536184
-0.050712734 -0.044489093 -0.011268159 0.006498586 -0.032703474 0.09566002 -0.11395022 0.024869207
0.1451499 0.035274718 -0.18953848 -0.13176346 -0.14090917 -0.13018556 0.09164877 0.0072775576
-0.0060207983 -0.12001345 -0.02127767 0.16389148 -0.020884043 -0.026446134 0.032031305 -0.058324408
-0.13655755 0.06098713 0.09124913 -0.6641148 -0.03311786 -0.07101082 0.01373211 0.17587754
-0.010838409 -0.081974074 0.08954577 -0.20003861 -0.0372473 0.0024083636 -0.012721793 -0.09206971
-0.06161236 -0.027040454 -0.08780635 -0.10903356 -0.10135108 -0.08090622 0.02969498 0.044696867
-0.008457897 -0.19019423 0.11625888 -0.18584774 0.012494153 -0.064202175 -0.08791227 -0.1759222
-0.14124344 -0.053282507 -0.044350885 -0.039551336 -0.038036343 -0.14839727 -0.3202785 0.07034085
-0.102998905 0.10202648 -0.026957124 -0.056885485 -0.079267904 0.0029037914 0.0112661505 -0.1757563
-0.2486731 -0.19817813 0.0155075 -0.10273483 -0.15813985 -0.033869263 0.008589547 -0.020888543
-0.024540307 0.05380975 0.06840197 0.013310159 -0.0185825 -0.12157065 -0.056932557 -0.05919391
-0.016705975 -0.03445641 -0.08381512 -0.025814945 -0.009187089 0.13331443 -0.082736805 0.02869012
-0.046904862 -0.010723239 -0.23341076 -0.024267174 0.09336897 -0.09286946 0.056650233 -0.010755595
0.009687781 -0.05857518 0.04621877 -0.1134211 0.18374059 -0.013343313 0.13088614 -0.0069346647
0.02395264 -0.017109165 -0.068810716 0.04728898 0.22098193 -0.13280822 -0.19441971 -0.12593335
-0.08456928 -0.05254812 0.021033403 0.17736064 0.038519666 0.008982523 0.01376653 -0.07087953
-0.007256598 0.0010388951 0.12317913 -0.021915067 -0.007713988 0.02407656 -0.30327943 0.14986327
-0.06934714 -0.030909142 -0.15891151 0.06353356 -0.06706848 0.068608455 0.020538399 -0.08073066
-0.11169291 -0.012971911 -0.19726188 -0.017870827 -0.16727477 -0.1638531 0.11199288 0.10022357
0.15270387 0.10196393 0.03321498 0.28071484 -0.06331229 -0.048523996 0.02691454 0.050138537
0.22133815 0.10872704 0.28611365 -0.21282576 -0.008686702 0.1722754 -0.06453801 0.14815146
0.15032978 0.007578381 -0.039566502 -0.06463712 0.0035570387 -0.0057239057 -0.10586798 0.28820327
-0.2016254 0.075706065 0.23005016 0.19961779 0.17534302 0.109869815 0.06976024 0.2146035

model/vf2/BiasAdd/ReadVariableOp:0 f4 [64]
00000000: f834 38bd fb4f fb3d 5cb1 d8bc c09d 1fbd
00000010: 9b50 d5bc fbfd 9c3b 3ba6 00bd ae07 0a3e
00000020: 97ea 12bd 6ce6 51bd dc23 013e 77c4 833d
00000030: 1e04 8ebc c224 e8ba 6e7b d5bc dccd 163e
00000040: ee62 44bd 9a28 693d da75 41bd 7c47 8e3c
00000050: 5ad9 a5bc 449e 04bd 44ef 3a3d eff9 433e
00000060: 94ff 1dbd dcaf 1abd 8f44 0cbc e608 0a3e
00000070: 0586 a2bc abfb 6a3b c424 f33d f3d5 b1bb
00000080: 423f a6bd 1e1b 5cbd a9ec 56bd 06e7 6d3d
00000090: 3e2f da3d dd56 07bd 916c 06bd 81b0 0c3e
000000a0: f170 8d3d 45ea f83c b053 023d 8424 37be
000000b0: 80f8 1b3e 6e1b 46bd a651 233c 60c2 0cbb
000000c0: 37f7 0b3e 1a24 a53d 70e7 4cbd ce1e cf3d
000000d0: c5d4 063e b50a 22bd 99b1 aa3c 0a14 773b
000000e0: 04b3 d3bc 81e5 903b df85 033e dc57 11be
000000f0: 9da5 033e 1bfd c83d 2592 01bd c77d db3d
-0.04497239 0.122711144 -0.026451759 -0.0389688 -0.026039412 0.004791019 -0.03140853 0.13479492
-0.035868254 -0.051245138 0.12611336 0.06433957 -0.017335948 -0.001771115 -0.026059832 0.14726967
-0.04794591 0.056923486 -0.047231533 0.01736807 -0.020245243 -0.032377496 0.045638338 0.19138311
-0.038573816 -0.03776537 -0.0085612675 0.13479957 -0.019839296 0.0035855572 0.11872247 -0.005427116
-0.08117534 -0.0537368 -0.05247179 0.05808165 0.10653542 -0.033041824 -0.03281838 0.13739206
0.069063075 0.030385146 0.031818092 -0.17885023 0.15231514 -0.048366003 0.009968197 -0.0021478161
0.13668524 0.080635265 -0.050025403 0.101132974 0.13167103 -0.039560992 0.020836638 0.0037701153
-0.025842197 0.0044218902 0.12844037 -0.14193672 0.12856145 0.09813901 -0.031633515 0.107173495

model/vf1/MatMul/ReadVariableOp:0 f4 [4, 128]
00000000: d1a0 c83d d744 0c3d 845b 6c3c 11d7 29be
00000010: 2bd4 d73b 7e9b 2d3e d62c 193c 5248 c5bd
00000020: e021 dcba 8d49 673a ec0e 2f3d 863a f03c
00000030: e564 46bd f616 a6be 4a4a 8dbe 6bea dc3c
00000040: f7c1 933d 0ba4 bc3d 7fd8 8fbe 33ec 8c3d
00000050: 339e 2f3d b399 a1bb 5931 29bd ec22 ba3c
00000060: 5a13 d0bc 2294 b8bd 8851 2b3d 1190 593d
00000070: 4437 1cbe 8788 c33c fa8d 653d fe7a 21bb
00000080: 351e 273e 3da2 70be 082c 6bbd 9d93 5bbd
00000090: 74f3 28bc e352 20be a9ad 303d a233 bbbc
000000a0: 6ab4 2dbc 9027 5d3d d911 60bb 2db0 ccba
000000b0: 7bec 1bbd 8c55 a9ba e223 173d 6387 f6bc
000000c0: a292 a6bc 4b3d 55bb 204e 90bc ff93 49bc
000000d0: 0441 23bd 59fa d93c ffe9 f2ba 9019 753c
000000e0: 8717 aebd c829 50be fe81 a33c 8fbf c9bc
000000f0: 33f3 8dbd 32a7 bbbb 3385 b93c 798f 913d
00000100: ad20 36bd e3b4 ce3d 90a8 053e cf59 61bc
00000110: 0b2c 0fbd 03b1 73bb 9994 8abe ce28 a7bd
00000120: c913 a7bb 7fc8 edbc c89e febc e481 f43b
00000130: 3f80 233c f9e1 153d 42ba 1f3d 8a75 6a3d
00000140: 392b ec3d 62b0 953c 5a2a 61be 3c57 62be
00000150: 8c07 fcbc cff8 13bd 0b7d 833c e188 a6bd
00000160: 627f b63c 9f4e 913a df87 753c 16bc 5a3d
00000170: 9d27 223c 6352 cdbc a112 9a3b e802 39bc
00000180: 229d 60bd f41f 903c 0d13 5f3d 0f22 19be
00000190: ac71 5a3a 458a 0abe 6a86 c83b fe8a eb3d
000001a0: d40d abbc a7d8 e2bc f488 c93d 5457 83bc
000001b0: a8ff aabb 616d 4ebd de2a 89bc e254 01bd
000001c0: 8980 a5bd c5bd 1b3d 6abb 50bd ef56 60bd
000001d0: 1350 f1bd 4b4a 1b3b fbcd e7ba ed1f a03c
000001e0: 8eb6 493c cd48 64bd 6b15 0e3e 60de a9bc
000001f0: c825 e4bc fc68 1dbd 2fa4 f5bb ccba 85bd
00000200: 3e99 f93a 1e68 8a3d de73 f6b9 1ae7 1e3d
00000210: b343 6dbc 787a ff3b 73fd e8be 77aa 603e
00000220: 201c d039 ef73 7fbb 90ee f0bc c967 d73b
00000230: de61 a73c 6010 9c3d 5cf8 843d ee64 fabd
00000240: 92c5 4cbe 27b5 7fbe 2cb5 053d 7f2c 0e3c
00000250: 26b0 f5bc ef9e db3c b589 9f3c 560f 523d
00000260: e08f 5a3c b48a 373d 9236 843c 4a00 ebbc
00000270: d46c 443d 3876 07ba 5cdf 12bd d228 ea3a
00000280: cb14 e73c a8cf f63c 74fa c23c 413c 2d3d
00000290: 7cb4 bd3d 4903 af3d 73a7 75bb d999 cf3d
000002a0: 41be 453c bb85 593d 9b46 113b 7ea7 6e39
000002b0: ab15 453c 5398 10bb 831b e13c 29c2 343d
000002c0: 6578 893c 2d36 f43a 26b9 0c3c fb70 61bb
000002d0: 8afa 453c a6c8 c13d 4b50 533b b4a7 863b
000002e0: 0de8 aaba 036f 823d 3462 a3bc b87a 8f3c
000002f0: 0e82 f33c e2dc f9bb 0796 4bbd baf8 c2bd
00000300: e02a e93c d3b1 5dbe 19af 8c3c 6c6d 773c
00000310: dcfd a23c e926 ef3a 3893 f83c 1826 293d
00000320: 3e46 b939 b307 65bc 61bf e7ba 0349 52ba
00000330: fee0 e7ba d62d 17bc 41f4 a6be ddd6 a53c
00000340: c73c e7bb 71f9 c839 4f34 f4bc 52f1 8a3d
00000350: 91f7 833b ec75 5d3c a465 8dbb d6e9 77be
00000360: 7a20 a0bd 8f1d 0b3d 8147 9fbc f972 933c
00000370: acbf 14bd ca2f af3c 8757 a4bb ecb0 1b3c
00000380: 9b0e e33c 643b bf3b 0624 0cbc 0dcd 963d
00000390: 40dd 193a c7ee 5a3d 9ab7 ea3a e892 43bd
000003a0: 18bb 643c e34d d73b 9be8 31bc 13ec 85bc
000003b0: 8881 64bc ca5d bf3c 75d0 6c3c f328 a53c
000003c0: 9b33 a13c 3e8d b3bb 864b 273c f80c 243c
000003d0: 98e4 0b3b 496c 313c 2aec 1d3a 68f9 cc3c
000003e0: 60ff 10bd 0e38 8c3c 3143 95bc 1aaf 1d3c
000003f0: b568 c33b 4ca0 52bc eb15 933a 0dc2 4e3d
0.09796298 0.03424534 0.014426116 -0.16585948 0.0065865717 0.16953847 0.009349069 -0.09632935
-0.0016794764 0.00088229106 0.04273884 0.029324781 -0.048436064 -0.32439393 -0.2759574 0.026967248
0.0721473 0.09210976 -0.2809486 0.06880989 0.04287548 -0.0049316525 -0.041306827 0.02272173
-0.025399853 -0.09012629 0.0418258 0.053115908 -0.15255457 0.023868812 0.056043603 -0.002463996
0.16320117 -0.23499389 -0.05741504 -0.053607572 -0.01031195 -0.15656619 0.043134365 -0.022851769
-0.010602096 0.053992808 -0.0034190326 -0.0015616469 -0.038067322 -0.0012919172 0.036899455 -0.030093854
-0.020333592 -0.0032537754 -0.017615378 -0.012303351 -0.039856926 0.026608633 -0.0018532871 0.014959708
-0.08500581 -0.20328438 0.019959446 -0.024627475 -0.06931152 -0.0057267183 0.022646522 0.07107443
-0.044464756 0.10093095 0.13052583 -0.013754322 -0.034954112 -0.0037184365 -0.27066496 -0.0816208
-0.005098794 -0.029026268 -0.031081572 0.007461773 0.009979307 0.036592457 0.03899599 0.057241
0.115316816 0.018272582 -0.21988812 -0.2210359 -0.030765317 -0.036125954 0.016050836 -0.08131576
0.022277538 0.0011086053 0.0149860075 0.05340203 0.00989714 -0.0250637 0.004701928 -0.011292197
-0.054837354 0.017593361 0.054461528 -0.14954399 0.00083329785 -0.13529308 0.006119539 0.1150112
-0.020880617 -0.027691199 0.09840575 -0.016032852 -0.005218465 -0.05039728 -0.016744073 -0.03157509
-0.08081157 0.038022775 -0.050959982 -0.054770406 -0.11782851 0.0023695405 -0.0017685288 0.019546473
0.012311591 -0.05573349 0.13875358 -0.02073592 -0.027850047 -0.0384302 -0.007496379 -0.06529769
0.0019042862 0.0675814 -0.00047007104 0.038794614 -0.014481473 0.007796582 -0.45505866 0.21940027
0.00039693806 -0.0038979014 -0.02941063 0.0065736515 0.020432409 0.07620311 0.06492683 -0.12226282
-0.19997242 -0.24971448 0.032643482 0.008677601 -0.02999122 0.026809184 0.019474844 0.051284157
0.013339967 0.044810012 0.016139302 -0.028686661 0.04795535 -0.0005167457 -0.035857543 0.0017864949
0.028208157 0.030128315 0.023801066 0.04229379 0.0926294 0.085455485 -0.003748384 0.10136766
0.012069286 0.05310605 0.0022167328 0.00022759844 0.012029092 -0.0022063449 0.027478939 0.044130478
0.016781041 0.0018631868 0.008589065 -0.0034399617 0.012083659 0.09462099 0.0032243903 0.0041093472
-0.0013039127 0.0636883 -0.019944288 0.017514572 0.0297251 -0.0076252082 -0.049703624 -0.09520097
0.028462827 -0.21649866 0.017173337 0.015101772 0.01989644 0.0018245849 0.030343637 0.041296095
0.00035338284 -0.013978886 -0.0017680937 -0.0008021744 -0.0017690954 -0.009227237 -0.32608226 0.020244056
-0.007056806 0.0003833282 -0.029810099 0.067843094 0.004027315 0.013516884 -0.004315095 -0.24210295
-0.078186944 0.033963736 -0.019443275 0.01799916 -0.036315605 0.021385092 -0.005015317 0.009502631
0.027716925 0.0058359373 -0.0085535105 0.07363329 0.00058694556 0.053450372 0.0017907501 -0.047747523
0.013960622 0.006570564 -0.01085868 -0.01634792 -0.013946898 0.023360152 0.014453997 0.020161128
0.019677928 -0.005479484 0.010210877 0.010012858 0.002134597 0.01082904 0.0006024266 0.02502127
-0.035399795 0.017116573 -0.018220516 0.009624267 0.00596341 -0.012855601 0.0011221742 0.05047803

model/vf1/BiasAdd/ReadVariableOp:0 f4 [128]
00000000: 4b7b aabc c7d0 ac3b 58a1 3a3d 9270 5cbe
00000010: a581 e8bc f367 ca3d 2a84 8bbe 17d1 10be
00000020: 2b1e 46bc f2ee b7bc 4af9 dfbd a447 dd3d
00000030: 277c 05be cb2f 92be 1343 29be d1bb 0cbe
00000040: 9906 43be 96e7 00be 5b3b b1be f67a 3cbe
00000050: a427 d3bd 8881 923b 7e35 d7bd 0c5e 33bd
00000060: 9762 9dbd 01fc 4fbe e386 17be a427 19be
00000070: c9f0 20bd f0c8 54bd 8866 06be fdd0 b1bc
00000080: a674 2d3e d066 6ebe f6e0 22be 74ad 1cbd
00000090: 2cd1 b0be 6680 79be 89d5 a5bd 374d b5be
000000a0: f30a 4abd 2d67 b73d 524f 7cbc 2c6c 1dbc
000000b0: 5096 84be 6e4a febc bb00 56be 4562 4abe
000000c0: 4cd5 073e c6ef c8bc 0c43 8ebd fa36 92bd
000000d0: 250f a3bd 3720 083d ff2c f3bc 8fcc 4dbd
000000e0: e838 163d 73c5 65be e0e6 68bd eadf c7bd
000000f0: c236 15be bb09 26bd 2ea4 b4bd 8797 5fbe
00000100: 634f 03be 33d6 b2bc ed12 51be 1bf5 83bd
00000110: 815c cebd 7bd6 7bbc 9497 aebe 9882 54be
00000120: ca4d 943d 6e03 8abd 3865 a3bc 15ad 73bc
00000130: e549 f3bc 3a38 bcbd ffe8 efbd 469d 4fbe
00000140: 8841 11be 812c 2abd b907 22be 3495 19be
00000150: e99c 83bd 3236 96bd c223 03bd 8f05 5bbe
00000160: 94ed 07be 9b89 32be dd6f 4ebd a418 59be
00000170: 3e96 6cbd 8c70 b23d b66a b03d 5e10 2abd
00000180: 3f73 05be d906 bebd 75e3 d4bd a878 89be
00000190: 30e7 95bb 3151 51be ae74 0bbd 2c90 083e
000001a0: ae14 60bd 67fd abbd 758b 4fbe 33a6 7bbd
000001b0: 3df0 3bbd 3de7 05be a32b d23d 1b24 a8bd
000001c0: 2338 1cbe 3e9f 92bd bd95 c5bd 0cc9 fe3d
000001d0: bdbb 54be 10bf 80bd a790 32bc 4bab 24be
000001e0: 996f 6cbd 62c5 f4bd cde8 82be b02b 4bbd
000001f0: b5cd 68bd 8feb dc3d 4ae4 4dbd 96ec 41be
-0.020810744 0.0052739116 0.045564026 -0.21527317 -0.028382132 0.09883108 -0.2724927 -0.14142261
-0.012092154 -0.022452805 -0.1093622 0.1080468 -0.13035642 -0.28552088 -0.16529493 -0.13743521
-0.19045486 -0.12588343 -0.34615597 -0.18406281 -0.10310295 0.0044710077 -0.1050825 -0.043790862
-0.0768482 -0.20310976 -0.14797549 -0.14956528 -0.03929213 -0.05194944 -0.1312505 -0.021706099
0.16939029 -0.23281407 -0.15906128 -0.038251355 -0.34534585 -0.24365386 -0.08097369 -0.35410473
-0.04932685 0.08955226 -0.015399771 -0.00960831 -0.2589593 -0.03104135 -0.20898716 -0.1976405
0.1326496 -0.024528395 -0.06946382 -0.07139392 -0.07961873 0.033233847 -0.029684542 -0.05024391
0.036675364 -0.22438602 -0.056860805 -0.09759505 -0.1457167 -0.040536623 -0.08820377 -0.21835147
-0.12823252 -0.021830654 -0.20417376 -0.064432345 -0.100762375 -0.01537096 -0.3410002 -0.20752943
0.072413996 -0.067389354 -0.019945726 -0.014872809 -0.029698322 -0.09190412 -0.11714362 -0.20274839
-0.14185154 -0.04154635 -0.15823258 -0.14998323 -0.064264126 -0.07334556 -0.032016523 -0.21388839
-0.13274223 -0.17435305 -0.05039965 -0.21200806 -0.05776047 0.08712873 0.086141035 -0.041519515
-0.13032244 -0.0927865 -0.103949465 -0.26849866 -0.004574679 -0.20441128 -0.03404682 0.13336247
-0.05470722 -0.08397942 -0.20268042 -0.061437797 -0.045883406 -0.13076492 0.10262229 -0.082100116
-0.1525579 -0.07159279 -0.09647701 0.124406904 -0.20774741 -0.06286442 -0.010898746 -0.16080968
-0.057723615 -0.1195171 -0.25568238 -0.04960221 -0.056836803 0.10787117 -0.05026654 -0.18937907

model/u/MatMul/ReadVariableOp:0 f4 [32, 1]
00000000: 229f 3c3e 4bf8 553e 576a 1e3e 422a 0fbe
00000010: 1070 3c3e d101 753e 8657 a3bb d839 6abc
00000020: 2699 463f 4412 413e 53e5 933e b21e 643e
00000030: 7171 0ebe ea32 c8be 006a e23a 942a 783e
00000040: 22ee ff3d eb15 563e 437a dbbd 6298 903e
00000050: e41a b43e ac67 67bd 796a 1f3e 84d2 6cbd
00000060: 62cc 4bbc 7310 b4bb 257d a93e bc02 9d3e
00000070: bb77 1fbe 6080 4a3e e351 643d ad3f 65bd
0.1842008 0.20895498 0.15470253 -0.13980964 0.18402123 0.23926474 -0.004984799 -0.014296018
0.77577436 0.18854624 0.28885898 0.22277334 -0.13910462 -0.39101344 0.0017274022 0.24234992
0.12496592 0.20906799 -0.10716679 0.2824126 0.35176766 -0.056495354 0.1556796 -0.05781795
-0.012438865 -0.005495125 0.3310329 0.3066615 -0.15573017 0.19775534 0.055742156 -0.05596893

model/rho/MatMul/ReadVariableOp:0 f4 [32, 1]
00000000: 14bf f33d 9aa9 183e 507c b43d 0abb cbbd
00000010: be4c f53d b5b1 343e b65f edbb e847 60bc
00000020: 0c2c 5abd dca8 023e 5d8c 6a3e 4875 1f3e
00000030: ec6e 12be 0cd4 a0be 5ef6 b9bd f6b9 363e
00000040: 2a08 7a3d 1f8d 0d3e 3705 dbbd f5c9 623e
00000050: 2b6c 953e c4aa 55bd c2d6 b93d 8fdf 59bd
00000060: 62cc 4bbc b00e 5cbc ebff 8a3e 65d2 7c3e
00000070: 742c 22be 7c96 093e e351 643d ad3f 65bd
0.1190168 0.14908448 0.08812773 -0.09947784 0.11977528 0.17645915 -0.0072440756 -0.013689019
-0.053264663 0.12759727 0.22905107 0.15572083 -0.14300126 -0.3141178 -0.09080194 0.17844376
0.061042942 0.13823365 -0.10694354 0.22147353 0.29184088 -0.052164808 0.09074165 -0.053191718
-0.012438865 -0.013431236 0.27148375 0.24689634 -0.1583727 0.13436311 0.055742156 -0.05596893

model/phi/MatMul/ReadVariableOp:0 f4 [32, 1]
00000000: f99c 303d 4b6b e93d 74ce 8d3d e7b6 aebd
00000010: c66d 023e 8587 163e 12e7 503c 837d 4e3c
00000020: 16b1 69bd 20a4 c13d 0908 423e 0b91 0f3e
00000030: 1c86 19be c521 9fbe 88fc a5bd b373 1f3e
00000040: 94fc 183c 09c7 ff3d ad26 84bd 0753 453e
00000050: a713 873e 74e2 2abd b48c 973d ecc3 75bd
00000060: 04e1 5e3c 58d0 703b 26b8 6c3e b78c 583e
00000070: ea20 18be 6bae 123e e351 643d 5fd2 a1bc
0.04311845 0.11397418 0.069241434 -0.085309796 0.12737188 0.14700134 0.012750404 0.0126031665
-0.057053648 0.094551325 0.18948378 0.14020173 -0.14992565 -0.31080452 -0.08104807 0.1557148
0.009337563 0.12489135 -0.06452689 0.19269954 0.2638218 -0.04171987 0.07399884 -0.0600013
0.013603453 0.0036745276 0.23117122 0.21147428 -0.14856306 0.14324348 0.055742156 -0.019753633

model/p6/MatMul/ReadVariableOp:0 f4 [64, 32]
00000000: 18a3 063e 1796 1f3e df66 c03d 76f2 ecbd
00000010: 1111 063e 3595 443e 02a5 ddbc c67b 27bd
00000020: e3f2 b6bd 36de 073e 550c 773e a04d 333e
00000030: 6432 36be b111 abbe 5ef6 b9bd 1ef5 483e
00000040: baad f33c 1b72 243e 53d8 06be 136e 713e
00000050: 9506 9e3e 46ce 7ebd bd30 c43d 9204 b5bd
00000060: 62cc 4bbc 6171 a2bc 4849 923e 8930 853e
00000070: 742c 22be 5745 163e e351 643d 5bb5 8abd
00000080: 8dc7 423e 5fbb 77bd b440 863c 6203 9fbd
00000090: b03e 3a3d 5e2e 483c 710e 883d cbfc b0bd
000000a0: 3919 e93a 0d07 e13d a330 b7bc 6830 0a3d
000000b0: 6859 6d3c 7d55 80bd 37a5 0a3e 852f 6dbd
000000c0: ba5a cebc 8fca e93c 68c4 5abd e6d2 78bd
000000d0: eb9d 0a3d 992a 3b3d 3854 0d3c 8200 87ba
000000e0: 6d3e b1bd 3b7b 18be d4d0 a73c c204 843d
000000f0: 1b16 23bc d763 13be 573d 36bc 2ad3 fe3d
00000100: 7b22 9bbd cc4a d33d 7fc4 1f3e 7425 403b
00000110: 2b00 27bd e88c 10be 5bad b9bd fb69 10be
00000120: adc5 f8bc 739d c7bc bbdf 74bd 539e 793b
00000130: a1d7 14bd 6c89 e13d fb9c d5bd e8b0 b23c
00000140: 6906 133e 2773 da3c 7c78 22be f5c0 05be
00000150: 03c2 e9bd b3c0 b4bd 03a1 fb3d 9c21 06bd
00000160: b9ee 8e3c d66e aabd 9b30 fb3b 260f 203e
00000170: e09b 5abc febc 8a3c 1103 393c cff9 30bd
00000180: 09e5 a0bc 0c34 593e d9f7 573e c9d5 17be
00000190: ff92 533d 00c1 623d 3cd7 c53c 17d8 fc3d
000001a0: 2c1e 3abc 4333 8a3d 9fa4 cd3e 4945 a7bc
000001b0: 4e20 0ebe d3fc dabc 9baf 633b e8c8 823d
000001c0: f0ef 74bd 25b4 9d3d 3e36 42bd 7403 1abd
000001d0: 8502 85bc bbff 67bd 95ce 0e3e 345f a03d
000001e0: 65a8 843b 0454 12be 8567 793e 5663 403d
000001f0: cc00 c13c 5123 623d 2b7a 68bd d21a 3dbe
00000200: 8a80 afbd 5a37 1abc 8caa 303b ffd0 e3bb
00000210: 3579 c73b e07a 82bd b3b1 9abe 8f56 b03d
00000220: 93f8 b5bd 6e64 253e a216 1fba 70af 473d
00000230: 4c26 95bd 61d9 a33d c3d6 033d 472e e3bd
00000240: 8db9 5cbe d323 cdbd 8844 2b3d 72cf 11bd
00000250: 7dd3 e7bd 0b6d d1bc 8209 cc3d 73f4 9fbc
00000260: f61f 4a3c 74ae a93d a8c8 e23d d7af c43c
00000270: 11cb 0a3d a894 e8bc 0492 ccbc 3d06 773c
00000280: e59a 753c 0f52 c63d ecf8 7f3c 3282 3dbb
00000290: aa86 e93d 6c1d 873e 3833 6dbd f67e 463c
000002a0: b08d c93b 347c 233e a391 6ebd e941 363e
000002b0: e317 af3d c523 fabc 4f47 ea3d ec73 ad3d
000002c0: 19fe 833d ac15 433d 1a9f 923d 00ea bf3c
000002d0: 06ff 983e 209e ae3c 7abd 7f3e 24c7 dc3c
000002e0: 73e6 0e3d 1356 2c3d 8d04 563d 5198 1d3e
000002f0: a337 913e af08 52bc 9b90 29be e87b e9bd
00000300: 6477 ea3c a524 ecbc 7334 023e e244 3a3e
00000310: 0b9b 203e 7cd7 b73d 3646 8b3c ba99 f1bd
00000320: 6add f6bc b2c5 003e 5380 083e 15e9 be3d
00000330: 4276 03bc cc88 93bc d55f 96be b61c 313e
00000340: d794 2e3c 6b77 6c3d 445d 20be 1231 3f3e
00000350: 193e 6f3d dd4a 8d3d 38ec 643d 0390 53be
00000360: 7d9a 98bd 89ef 9bbc 1c0e b1bd b33f 233e
00000370: 3452 04be 2e9e 183e 50d8 123a 77f0 6a3d
00000380: 40e4 763e cc84 593e 257c 023e baa7 de3b
00000390: 7d25 5c3c 4620 5f3d c7bb 423d 045c f3bd
000003a0: de73 883d aefd 243e 2637 373e 3d3c dbbc
000003b0: 959a 08be 8aba 383e b889 10bd dddc 173e
000003c0: 0443 f73d 2425 fc3c 07fa 32bd b087 5b3d
000003d0: 5c05 ddbc c109 ff3c aa5f 93bc 761d 803e
000003e0: 8410 40be c3ce a83d be39 273e e5f8 663e
000003f0: 10aa 4d3d 1b4b 523d 75de 8e3d 89ef 863d
0.13148153 0.15584598 0.09394621 -0.11569683 0.13092448 0.19197543 -0.02705622 -0.040889524
-0.08933046 0.1326836 0.24125798 0.1751008 -0.1779266 -0.33411935 -0.09080194 0.19624755
0.029745925 0.16059153 -0.13168459 0.23577146 0.30864397 -0.062208436 0.095796086 -0.08838762
-0.012438865 -0.019829454 0.28571534 0.26013592 -0.1583727 0.14674889 0.055742156 -0.06772872
0.19021435 -0.060481425 0.016388275 -0.07764317 0.04546994 0.012218086 0.066433795 -0.086419664
0.0017784006 0.10987673 -0.022362059 0.03373757 0.014486648 -0.062663056 0.13539587 -0.057906646
-0.025189746 0.02853897 -0.053409964 -0.060748003 0.03384201 0.04569492 0.008626036 -0.0010299834
-0.08654485 -0.14890759 0.02048532 0.0644622 -0.009954001 -0.14393555 -0.011123023 0.1244262
-0.07574936 0.10317001 0.15602301 0.0029319199 -0.040771645 -0.14116251 -0.09066268 -0.14102928
-0.030367697 -0.02436707 -0.05978368 0.0038088753 -0.036338452 0.11012539 -0.10430332 0.021812871
0.14357914 0.026666237 -0.15866274 -0.13061889 -0.11413958 -0.08825817 0.1228657 -0.032746896
0.017447816 -0.083219215 0.0076657063 0.15630779 -0.013342828 0.016935822 0.011292235 -0.043206986
-0.019640462 0.2121126 0.2109064 -0.14827646 0.05165386 0.05535984 0.024150483 0.12345903
-0.011359733 0.06748059 0.40164658 -0.02041878 -0.13879511 -0.026731884 0.003474212 0.06385976
-0.059799135 0.077003755 -0.04741501 -0.03760095 -0.016236553 -0.056640368 0.13945992 0.078306586
0.0040483945 -0.14289862 0.24355896 0.046969734 0.02355995 0.05520946 -0.056757133 -0.18467262
-0.08569439 -0.009412611 0.0026957123 -0.0069524045 0.006087447 -0.06371093 -0.302137 0.0861026
-0.088853024 0.16151592 -0.0006068741 0.048751295 -0.07282695 0.08000446 0.032187235 -0.11092811
-0.21555157 -0.100165986 0.041813403 -0.035598226 -0.11319635 -0.025564691 0.09962751 -0.019525742
0.012336722 0.082852274 0.110734284 0.024009628 0.033885065 -0.028391197 -0.02497197 0.015077171
0.014990543 0.0968362 0.015623312 -0.0028916714 0.11402638 0.26389635 -0.057910174 0.012115231
0.0061509237 0.15965348 -0.05824436 0.1779858 0.08549478 -0.030534634 0.11439382 0.08469376
0.0644495 0.04762809 0.071592525 0.02342701 0.29882067 0.021315634 0.24974623 0.026950426
0.034887742 0.042074274 0.052250434 0.15390135 0.2836276 -0.012819453 -0.16559069 -0.11400586
0.028621383 -0.028826067 0.1271532 0.18190339 0.15684144 0.08976647 0.017001253 -0.11796899
-0.030134875 0.12575415 0.13330202 0.093218006 -0.0080238 -0.018009566 -0.2936999 0.17296109
0.010655603 0.057731073 -0.15660578 0.18671063 0.05840883 0.06899045 0.05588934 -0.20660405
-0.07451341 -0.019035118 -0.08645269 0.15942268 -0.12921983 0.14904091 0.0005601691 0.05735823
0.24110508 0.21242064 0.1274267 0.006794897 0.013436672 0.054474138 0.04754236 -0.11882785
0.06662725 0.16112396 0.17892131 -0.026762122 -0.13340218 0.18039909 -0.03528759 0.14830346
0.12073329 0.030779429 -0.043695476 0.0535962 -0.026980095 0.03113258 -0.017989952 0.25022477
-0.187563 0.08242562 0.1633062 0.22555883 0.050211012 0.051341157 0.06976024 0.065886565

model/p6/BiasAdd/ReadVariableOp:0 f4 [32]
00000000: ebf1 753e 37a5 733e a8eb 7a3e dd84 19bc
00000010: 6df3 753e 2d88 743e 1514 2fbc 488a 3cbc
00000020: c9c0 6ebc 33a8 753e 13f5 703e e987 713e
00000030: ac7f 61bc 9080 d1bb 0000 0000 a091 723e
00000040: 076e 4b3e 8bb7 763e 928b 39bc 9124 723e
00000050: 76a4 713e a28e c4bb 94d5 793e 7844 8dbc
00000060: 0000 0000 e413 dfbb 1c48 713e 1caf 703e
00000070: 0000 0000 b345 753e 0000 0000 9ac1 c4bb
0.24018066 0.23793493 0.24503958 -0.009370056 0.24018641 0.23880072 -0.01068594 -0.011507578
-0.014572331 0.23989944 0.23530988 0.23587002 -0.0137633495 -0.0063934997 0.0 0.23688364
0.19866191 0.24093454 -0.01132478 0.23646761 0.23597893 -0.0059984485 0.2439788 -0.017244563
0.0 -0.006807791 0.23562664 0.23504299 0.0 0.2395237 0.0 -0.0060045244

model/p5/MatMul/ReadVariableOp:0 f4 [64, 64]
00000000: 6e3a 293d c25e 373d 981b 12bb 6c01 d0bd
00000010: 6323 e33c 4d53 b23d bc00 83bc b882 cfbc
00000020: d8f1 69bd b760 293d 911f 013e 7b9b a13d
00000030: 3e18 21be a95f a7be 0de2 b9bd 54c2 ab3d
00000040: c7fa f5bb e04b 863d c319 fcbd 0ece f63d
00000050: 9459 443e ef37 6dbd 53a2 f8b8 51a1 8dbd
00000060: 62cc 4bbc 6171 a2bc fb2b 2b3e 4262 133e
00000070: e51b 1ebe aef3 203d e351 643d 9d8f 89bd
00000080: e54f 1a3e eef4 a9bd 4834 6bbc d268 9abd
00000090: 3b3e 6a3c f736 95bc af66 9d3d d7f8 92bd
000000a0: 9823 933c 1c5e 8f3d aa81 2ebd 7695 3b3c
000000b0: 1380 fe3c 6e9f 48bd eaf6 0a3e 5ae5 b4bd
000000c0: 8022 bdbb 9fe4 86bb cca3 33bd d2b6 babd
000000d0: 138c 45bb fda7 503d 27dd e1bc 84bd 743c
000000e0: f246 a3bd e94c 0ebe 67ee 0ebc 6609 003d
000000f0: da51 83bb f2d8 39be 573d 36bc 2c75 0b3e
00000100: 027c d53c 5a57 8b3d 05f1 123e 740b bb3d
00000110: 5ad9 84bd e6d5 7ebd cf3f 47bc 60f3 7dbd
00000120: fba1 993d e460 7f3d 2005 aebd 5561 b53d
00000130: b660 463d 1e00 bb3d ae29 afbc 3f86 aeba
00000140: d454 7a3e 76e4 f03d 4bc1 e1bd d81a 1abe
00000150: 5551 14be 8d4a c5bd 6f8b ec3d 32f2 2dbd
00000160: 600c 823b 4e10 8b3b 9ac8 f8bc a228 f63d
00000170: a20f 183d 2066 aa3d 98bd c53d 13dc 2b3d
00000180: eb10 06be 8432 593e 33b2 e03d 8716 20be
00000190: 5c2a 163d 069f 073d 6ca8 f23c b15d e13d
000001a0: 627b 573b f58b 57bd f94d c93e 82fd 92bc
000001b0: 09bb 00bd 3f22 ac3d 5692 c83d f493 3fbd
000001c0: 7421 7cbc 58a4 7d3d 8d29 2cbd 1250 09be
000001d0: a18f 6ebd 505c 52bd ed27 ca3d bfa4 af3d
000001e0: d4fc ca3d ea47 44bd 8d8a 4e3e 092e d33c
000001f0: 32d9 333d ed81 78bd 2b7a 68bd 3595 2dbe
00000200: 31dd d8bd 8012 fabc 20f6 8abc 55f9 2dba
00000210: 355d 76bc 781e aebd d764 97be d825 bd3d
00000220: ec87 9ebd ed87 103e 80fd c2bc d171 f93c
00000230: dad6 7cbd b495 ae3d 8dfe 033d 6e97 07be
00000240: 8d10 4fbe dce8 d7bd fd3e 5e3d bf25 65bd
00000250: 673c 0abe aa4b afbc bb8e a93d 5c76 34bc
00000260: d746 193c 74ae a93d 9b51 b63d 07d6 343b
00000270: 53a5 0b3d ddcb 4abd 071d cabc 9f32 963c
00000280: ac2d 82bd 96f4 4f3c 7a13 62bd 18ad 7d38
00000290: 5cdd 0a3d 406c 343e 3833 6dbd f608 7c3c
000002a0: 6f1d a93c b6df 983d bc27 19be e21a c23d
000002b0: 7e3d b73d 1ae2 6fbc 05ca ee3d 724f c6ba
000002c0: 0ecf c83c a8d5 00bd 1a9f 923d 8d1c 8ebd
000002d0: fba1 4f3e 4353 ca3c eb73 353e 183a 003d
000002e0: b19b 193d 17f2 323d 0735 2ebd 7960 723d
000002f0: f349 913e 12b2 c1bd 9b90 29be e87b e9bd
00000300: 03a9 213d 9ee3 13be 0161 213d 6902 8a3e
00000310: 4da1 513d e5a0 843d 75fd b53d ecb4 19bd
00000320: 3e53 a03d 42c8 013e c523 a83c 087b b43d
00000330: 703d b13d 0343 7fbc 3bd0 5fbe 9237 743d
00000340: 7528 893d 6f71 803d d7c8 c6bd bdfb a13d
00000350: f731 80bd 9480 853d ded3 f1bc 484a 43be
00000360: cde1 aebd 6d7e 593d 867d 57be bb9f 343d
00000370: 6873 97bd c37e e73d f5ad 863d 2746 0c3e
00000380: b775 123e bdcf 5e3e 181a 303d 2458 4b3b
00000390: 91be 60bc b681 a03c d9f1 543d 9773 08be
000003a0: fe71 8d3d c227 4e3d 10be 343e 4bca 9bbc
000003b0: 6fdf 38bd e9f5 923e 9f7c 693d f0c1 623d
000003c0: 388d 203e 0fc2 133b f0a4 28bd 24a5 32bd
000003d0: b038 8ebd 3572 063d 161d 57bd bba4 7f3e
000003e0: 9b5a c7bd 35bd 373e 8d9a 003e c604 553e
000003f0: 185e 683d 0460 78bd 75de 8e3d f569 a43d
0.04131549 0.044768102 -0.002229428 -0.10156521 0.027726835 0.087072946 -0.015991561 -0.025330886
-0.057115406 0.041352 0.12609698 0.07890984 -0.15731904 -0.3269017 -0.09076319 0.083866745
-0.0075067016 0.06557441 -0.12309601 0.120510206 0.19174796 -0.05791467 -0.00011855797 -0.06915534
-0.012438865 -0.019829454 0.16715996 0.14392951 -0.15440328 0.03929489 0.055742156 -0.06716845
0.1506954 -0.0829867 -0.014355727 -0.07539524 0.014297063 -0.018214686 0.07685601 -0.07176369
0.017961308 0.07000372 -0.042604126 0.0114492085 0.03106693 -0.04898017 0.13570753 -0.08832808
-0.005771935 -0.004116609 -0.04385738 -0.091169015 -0.0030143305 0.050941456 -0.027571274 0.014937762
-0.07972516 -0.13896526 -0.008723832 0.031258963 -0.00400756 -0.18149164 -0.011123023 0.13618916
0.026060108 0.0680377 0.14349754 0.09133044 -0.06486769 -0.06221571 -0.012161209 -0.06199968
0.075015984 0.06234826 -0.08497071 0.08856455 0.048432074 0.09130882 -0.02138218 -0.0013315155
0.24446422 0.117623255 -0.11023196 -0.15049303 -0.1448415 -0.0963336 0.11550032 -0.042467304
0.0039687604 0.004243887 -0.030369092 0.12019469 0.037124284 0.0832026 0.09655303 0.041957926
-0.13092391 0.21210676 0.10971489 -0.15633593 0.03666149 0.03311064 0.029621325 0.11004198
0.0032879938 -0.052623708 0.393173 -0.017943148 -0.03142837 0.084049694 0.09793536 -0.04677196
-0.015388835 0.06192431 -0.042031813 -0.1340945 -0.058242444 -0.051357567 0.098708965 0.08576345
0.099115044 -0.047920145 0.2017004 0.025778787 0.043908305 -0.060670782 -0.056757133 -0.16951449
-0.10589064 -0.0305264 -0.016963065 -0.00066365796 -0.015036871 -0.08501905 -0.29569122 0.09235734
-0.07740769 0.14114352 -0.023802519 0.03044978 -0.061728336 0.08524647 0.03222518 -0.1324136
-0.20221157 -0.10542461 0.05425929 -0.0559442 -0.13499604 -0.021398384 0.08279177 -0.011014547
0.009355268 0.082852274 0.08902284 0.002759339 0.034093212 -0.049510825 -0.024672044 0.018334685
-0.063563675 0.012692591 -0.055194356 6.0481107e-05 0.03390251 0.17619419 -0.057910174 0.015382996
0.020643918 0.074645445 -0.14956564 0.09477784 0.089472756 -0.014641309 0.11659626 -0.0015129878
0.024512794 -0.03145376 0.071592525 -0.069390394 0.20276634 0.024697905 0.1772 0.031305403
0.037501995 0.043687906 -0.04253104 0.059174035 0.2837673 -0.09457792 -0.16559069 -0.11400586
0.039467823 -0.14442298 0.03939915 0.26954964 0.05117922 0.06476001 0.08886234 -0.037526056
0.07828377 0.12674049 0.020524869 0.08812529 0.086542964 -0.015579942 -0.21856777 0.05962331
0.0669717 0.06271636 -0.09706276 0.079093434 -0.0625953 0.06518665 -0.029519971 -0.19071305
-0.08539162 0.053099085 -0.21043977 0.044097643 -0.07395059 0.11303475 0.065761484 0.13698636
0.14302717 0.21758933 0.042993635 0.0031027878 -0.01371731 0.019593101 0.051988456 -0.13325344
0.06906508 0.050330885 0.17650628 -0.01901736 -0.045134958 0.2870324 0.057003614 0.055360734
0.1567887 0.0022546088 -0.04117292 -0.04361452 -0.06944406 0.03282376 -0.052517973 0.24965183
-0.097340785 0.1794327 0.12558956 0.20802602 0.05673036 -0.060638443 0.06976024 0.08028022

model/p5/BiasAdd/ReadVariableOp:0 f4 [64]
00000000: bde7 703e 3763 cdbc 3310 fbbb 285a 753e
00000010: 6b3d b7bc 84e8 6e3e 1b0f 673e 049b 6d3e
00000020: ebdb 713e 1c18 753e e83c 60bc baec 743e
00000030: 41a0 703e 417e a6bc 7459 743e 4033 9fbc
00000040: 131d 743e 0eb0 703e c1bf 523e a36b 31bc
00000050: 4b03 b0bc 8477 48bc 62e3 e7bb b058 34bc
00000060: 3bf6 22bc e4cf 6f3e 5320 ddbc 2cf0 d6bc
00000070: 4120 533e 5e39 643e 69aa 733e 6bc6 693e
00000080: 756b 97bc a6ca 713e 02ad 8abc f5dc 8abc
00000090: 0119 6d3e 5579 6f3e faba c4bb 7222 cabc
000000a0: 44db e4bb 2f45 87bc 3638 733e 5428 753e
000000b0: 27d8 6e3e 39a7 723e b161 733e 5818 35bc
000000c0: 2b26 6b3e 1e88 6b3e 81df 08bc 8b86 053c
000000d0: 50de 5f3e 0000 0000 1af5 4c3e 3faf 13bc
000000e0: 2d7c 743e 738f 743e 5bcc 613e 27dc 6d3e
000000f0: 1bb3 353e da23 9cbc 0000 0000 16f6 0e3c
0.23525901 -0.025071723 -0.007661843 0.23960173 -0.022368154 0.23330885 0.22564356 0.23203665
0.23619048 0.23934978 -0.013686396 0.23918429 0.23498632 -0.020323874 0.23862249 -0.019433618
0.23839216 0.2350466 0.20580961 -0.010828885 -0.021485945 -0.012235526 -0.0070766667 -0.011007473
-0.009946401 0.23419148 -0.026992952 -0.02623757 0.20617773 0.22287509 0.23795475 0.22829597
-0.018483857 0.2361246 -0.0169282 -0.016951064 0.2315407 0.23386128 -0.0060037347 -0.024674628
-0.0069841463 -0.016512481 0.23751912 0.23941165 0.23324643 0.23696603 0.23767735 -0.011053167
0.22963779 0.23001143 -0.008354069 0.008149753 0.21862149 0.0 0.20015374 -0.00901395
0.23875494 0.23882847 0.22050612 0.23228513 0.17744105 -0.019060064 0.0 0.008725664
