user/tutorials/python/UVFlash/ANN/TPX_best.onnx (onnx, 222780 bytes, 46 tensors)

model/vf4/MatMul/ReadVariableOp:0 f4 [32, 32]
0	0xbd5dd26b	-0.05415575
1	0xbe739203	-0.23786168
2	0x3db5403c	0.08850142
3	0x3cddcee8	0.0270762
4	0x3d9bd638	0.07609218
5	0xbd72a5a7	-0.05924001
6	0xbd720a03	-0.05909158
7	0xbda1295c	-0.07869217
8	0x3e1f41e4	0.15552479
9	0x3d82a7dc	0.06379673
10	0x3e703ad5	0.23459943
11	0xbdc69695	-0.0969669
12	0xbdb08b9a	-0.08620377
13	0xbe625b09	-0.2210504
14	0x3cb70220	0.02233988
15	0xbd60294e	-0.05472689
16	0x3e94bf36	0.29052132
17	0xbdc9e341	-0.09857798
18	0xbe0ee2d1	-0.13953711
19	0x3dee9d49	0.116510935
20	0xbdb31756	-0.08744685
21	0xbdee432b	-0.11633905
22	0x3ded992c	0.11601481
23	0x3d6b2cf1	0.057415906
24	0x3c708085	0.014679079
25	0xbd8280e7	-0.063722424
26	0xbe1db171	-0.1539972
27	0x3e0dc24e	0.13843653
28	0xbc0fa83b	-0.008768137
29	0xbe267100	-0.16254044
30	0x3e6be7b7	0.23037611
31	0xbda26d15	-0.07930962
32	0xbdad7bda	-0.084708884
33	0x3d682a4d	0.056680966
34	0x3ddfab63	0.10921361
35	0x3da67c79	0.0812921
36	0xbcda3b98	-0.026639745
37	0x3c1ebf9c	0.009689238
38	0x3e5e4567	0.21706162
39	0xbdcbd7fb	-0.099533044
40	0xbdf7018d	-0.12060843
41	0xbcb05c4e	-0.02152839
42	0x3c116bfd	0.008875844
43	0x3e739fc3	0.23791413
44	0xbe2963eb	-0.16542022
45	0xbcd6c88a	-0.026218671
46	0x3d4912a3	0.04909004
47	0x3d3eee79	0.046614144
48	0x3d85bb24	0.06529835
49	0x3c747dd6	0.01492258
50	0x3de00031	0.109375365
51	0x3d5a4d50	0.053296387
52	0x3dfd136a	0.123572186
53	0x3e0bb4f6	0.1364325
54	0x3d071d2c	0.032986805
55	0x3cbe1bd3	0.023206627
56	0xbd8f2662	-0.06989743
57	0x3dc3b044	0.095551044
58	0xbca89eb3	-0.020583486
59	0x3ce4e122	0.027939383
60	0xbd341dba	-0.043973662
61	0xbc4a3e92	-0.0123440195
62	0xbdcc84c8	-0.099862635
63	0xbdbf5819	-0.09342975
64	0xbda2607f	-0.079285614
65	0x3d709d97	0.05874404
66	0x3d460646	0.048345827
67	0xbd3d45e2	-0.046209224
68	0xbcd112ed	-0.02552172
69	0xbcb0bcb3	-0.021574354
70	0x3ce3a495	0.02778844
71	0x3d38f792	0.045157976
72	0x3c2205e7	0.009889103
73	0xbe196423	-0.14979605
74	0xbc3e3065	-0.011608218
75	0x3d3a827a	0.04553459
76	0x3cf0f16d	0.029411996
77	0x3d19eff7	0.037582364
78	0xbcfb4dc8	-0.030676737
79	0xbd90808f	-0.070557706
80	0x3d81395e	0.0630977
81	0x3cefbaca	0.029263873
82	0xbd1e215b	-0.03860603
83	0x3e4170d4	0.18890697
84	0xbc97e4f6	-0.018541794
85	0xbd4bf422	-0.04979337
86	0xbd1c2bf9	-0.038127873
87	0x3a058347	0.0005093109
88	0x3d5452db	0.05183683
89	0xbe11c72c	-0.14236134
90	0x3ddea57d	0.10871408
91	0x3d4558af	0.04818028
92	0x3df8fe70	0.12157905
93	0xbd8a3fd6	-0.06750457
94	0xbe00703c	-0.12542814
95	0xbe10ca8e	-0.14139768
96	0xbe04f286	-0.1298314
97	0x3d993ad7	0.07481926
98	0xbd2f9ea8	-0.042875916
99	0x3c339bc7	0.010962433
100	0xbbc1dc29	-0.0059161377
101	0x3c5ee9da	0.013605559
102	0x3e48b6c0	0.19600964
103	0xbda0c8f1	-0.078508265
104	0x3dee2dfe	0.11629866
105	0x3e016bd3	0.12638788
106	0x3d344d11	0.04401881
107	0xbdf83973	-0.121203326
108	0x3e00f82a	0.12594667
109	0x3e0b2aa4	0.13590485
110	0xbde570e0	-0.1120317
111	0xbdd02b40	-0.10164499
112	0x3e07042c	0.13185185
113	0xbe0381c3	-0.12842469
114	0x3da3e854	0.080032974
115	0xbd90a2b7	-0.070622854
116	0xbe5dc5ca	-0.21657482
117	0x3d0bc0c2	0.034119375
118	0x3e721b32	0.23643187
119	0x3d82f2f0	0.06393993
120	0x3cb30ecf	0.021857647
121	0xbe55ebc7	-0.20890723
122	0xbd7d2be2	-0.061809428
123	0x3c6bcd0b	0.014392148
124	0xbd4e7a85	-0.050409812
125	0x3e25f459	0.16206492
126	0x3cab8659	0.020938085
127	0x3dd9cc22	0.10634638
128	0x3d841dfe	0.06451033
129	0xbc3672ef	-0.011135801
130	0xbd790c22	-0.060802586
131	0x3db01a17	0.08598726
132	0xbe00c4f9	-0.12575139
133	0x3dffc5df	0.12488913
134	0xbdea8752	-0.114515916
135	0x3df5d10b	0.120027624
136	0x3bb44a22	0.0055020014
137	0xbca73082	-0.020408873
138	0xbb1db1c6	-0.002406226
139	0x3e0c8826	0.13723812
140	0xbcaf8714	-0.021426715
141	0x3ddc4600	0.10755539
142	0xbd8b0f90	-0.06790078
143	0xbd4c0b53	-0.049815487
144	0x3b9e4044	0.0048294384
145	0xbd53489e	-0.051582925
146	0x3e5cd604	0.21566015
147	0xbd63f8c7	-0.055657174
148	0x3e1a423b	0.15064327
149	0xbdc8c798	-0.098036945
150	0x3d90ce16	0.07070558
151	0x3bb3cc0b	0.0054869703
152	0xbd819084	-0.06326392
153	0x3dcefff8	0.10107416
154	0x3d9c2ffa	0.07626338
155	0x3d8f7fb5	0.0700678
156	0x3e127eae	0.14306137
157	0xbd044af6	-0.03229805
158	0x3a547f65	0.00081061415
159	0x3e6d8bd5	0.23197873
160	0x3d04b77b	0.032401543
161	0x3d8855b8	0.066569746
162	0x3cba84eb	0.022768458
163	0x3d042b3d	0.032267798
164	0x3dcac35b	0.09900542
165	0x3de6b10b	0.11264237
166	0xbda2c1bb	-0.079471074
167	0x3d8daf50	0.06918204
168	0xbe1f3613	-0.15547971
169	0x3dada898	0.08479422
170	0x3cc71b27	0.02430494
171	0xbb66183f	-0.0035109667
172	0xbd82466e	-0.0636109
173	0x3d7b5065	0.061355967
174	0xbc8b391c	-0.016995005
175	0xbd6af768	-0.05736485
176	0x3de98a95	0.114033855
177	0xbdd788c2	-0.10524131
178	0xbe3eeb94	-0.18644553
179	0x3d6d6c6a	0.05796472
180	0x3de5de07	0.11223989
181	0xbd16a587	-0.036778953
182	0x3c727ad0	0.014799789
183	0x3e060268	0.13086855
184	0xbba1962f	-0.0049312334
185	0x3d3c9785	0.046042938
186	0x3e18dad3	0.14927225
187	0x3e0560b3	0.13025169
188	0xbd8b375d	-0.06797669
189	0x3cbfd3d7	0.023416443
190	0xbe6aad3a	-0.22917643
191	0x3d9d9d13	0.07695975
192	0xbdb4b15e	-0.088228926
193	0xbdc9820f	-0.0983926
194	0x3ca1d3a3	0.019754237
195	0x3d9a8840	0.07545519
196	0xbe02eceb	-0.1278569
197	0xbdc08227	-0.093998246
198	0x3d88fa0b	0.06688317
199	0x3c8bee3f	0.017081378
200	0xbde3e46d	-0.11127553
201	0x3e782552	0.24232987
202	0x3c97e617	0.018542333
203	0xbdbdbd7d	-0.09264658
204	0xbdf449a2	-0.11928107
205	0xbd2acc1b	-0.041698556
206	0xbcc88c8e	-0.024481084
207	0xbdd87698	-0.10569495
208	0x3c0f1bba	0.008734638
209	0xbe3302df	-0.17481564
210	0xbdfd044d	-0.12354336
211	0x3e0d0ba0	0.13773966
212	0xbe0be258	-0.13660562
213	0x3d97ab5f	0.07405733
214	0xbd3e8de1	-0.046522025
215	0xbd3257f1	-0.0435409
216	0x3dc73844	0.09727529
217	0xbdd10275	-0.10205547
218	0x3dd01dd3	0.101619385
219	0xbc45e114	-0.012077589
220	0xbda8187b	-0.08207794
221	0x3d949db7	0.07256644
222	0x3e35bb07	0.17747127
223	0xbc245455	-0.010029872
224	0x3d12ac76	0.035809003
225	0xbdb708bb	-0.08937212
226	0x3d4999ed	0.04921906
227	0xbdb850df	-0.089998
228	0xbdb8b5ea	-0.09019072
229	0xbe1890b4	-0.1489895
230	0xbdf844e5	-0.121225156
231	0x3ba0928e	0.004900283
232	0x3d1be4fd	0.038060177
233	0xbdc94686	-0.098279044
234	0x3e7f02a7	0.24903356
235	0x3bd6797c	0.006545244
236	0xbd42b244	-0.04753329
237	0xbc265728	-0.010152616
238	0x3e06858a	0.13136879
239	0x3d8a5471	0.06754387
240	0x3e5add23	0.2137342
241	0x3dc3a37c	0.095526665
242	0xbcf660fd	-0.030075544
243	0x3dbf2863	0.09333875
244	0x3dc82671	0.09772957
245	0x3d709d6f	0.05874389
246	0x3e0a82f6	0.1352652
247	0x3e65482c	0.22390813
248	0xbd757385	-0.05992462
249	0x3e01ad4d	0.12663765
250	0xbd9cf394	-0.07663646
251	0x3e394fb2	0.18096808
252	0x3e2131cb	0.15741651
253	0x3c9a8810	0.018863708
254	0x3e1a388e	0.15060636
255	0xbe1457af	-0.14486574

model/vf4/BiasAdd/ReadVariableOp:0 f4 [32]
0	0xbcb34bec	-0.021886788
1	0xbc876e71	-0.016532155
2	0x00000000	0.0
3	0x3e0cd4d8	0.13753068
4	0x3de914bd	0.11380909
5	0xbc240b8e	-0.0100125205
6	0x00000000	0.0
7	0xbbd04917	-0.0063563692
8	0x3def4e22	0.116848245
9	0x3de57f49	0.11205918
10	0x3dfb8c77	0.12282651
11	0xbcf41b17	-0.029798074
12	0xbc85d923	-0.01633889
13	0xbc70f70d	-0.014707339
14	0x00000000	0.0
15	0xbc99ecc9	-0.018789666
16	0x3df32756	0.11872737
17	0xbc7e2873	-0.0155125735
18	0xbbc3de62	-0.005977438
19	0x3decdad7	0.11565178
20	0x00000000	0.0
21	0xbc80c0c6	-0.015716922
22	0x3e0368b8	0.12832916
23	0x3dec3f15	0.115354694
24	0x3dd7bdd6	0.10534255
25	0xbc931fb1	-0.017959448
26	0x00000000	0.0
27	0x3ddae172	0.106875315
28	0x3dd3afbe	0.103362545
29	0xbd2970ab	-0.041367214
30	0x3df1dc9d	0.11809657
31	0xbd0b57e8	-0.03401938

model/vf3/MatMul/ReadVariableOp:0 f4 [64, 32]
0	0x3cdd4b95	0.02701358
1	0xbe5cca5f	-0.21561573
2	0x3db5403c	0.08850142
3	0x3d124705	0.03571226
4	0x3d0ce350	0.03439647
5	0xbd4a1d0b	-0.049344104
6	0xbd720a03	-0.05909158
7	0xbd17c579	-0.03705356
8	0x3d61a1c0	0.055085897
9	0x3d90d1bd	0.070712544
10	0x3e7427ae	0.23843262
11	0xbe20e3a7	-0.15711842
12	0xbdf147c9	-0.1178127
13	0xbe5aee1a	-0.21379891
14	0x3d597324	0.053088322
15	0xbcb8db0e	-0.02256539
16	0x3e9bd30f	0.30434462
17	0xbe0b4e20	-0.13604021
18	0xbe0ab00b	-0.13543718
19	0x3dff1b5f	0.124563925
20	0xbdd1d1aa	-0.10245068
21	0xbd7662b3	-0.06015272
22	0xbd7fdfd7	-0.06246933
23	0x3c91736b	0.01775523
24	0xbd0d63a8	-0.034518868
25	0xbdb314c0	-0.08744192
26	0xbe0121af	-0.12610506
27	0x3deac0f0	0.11462581
28	0xbe392c7a	-0.18083373
29	0xbd9b9bdd	-0.07598088
30	0x3e5d3b24	0.21604592
31	0x3c2144c9	0.00984306
32	0xbd76e710	-0.060278952
33	0x3d5f7156	0.054551445
34	0x3ddfab63	0.10921361
35	0x3db9be63	0.090695165
36	0xbd452a8c	-0.04813628
37	0x3c1ebf9c	0.009689238
38	0x3e5e4567	0.21706162
39	0xbea7a79e	-0.3274507
40	0xbe27eff2	-0.16400126
41	0xbdb035aa	-0.086039856
42	0x3d42c4a2	0.047550805
43	0x3e89a341	0.26882365
44	0xbc72ad6f	-0.014811858
45	0xbd00e10f	-0.031464633
46	0x3d181bf9	0.03713605
47	0x3f25edf9	0.6481624
48	0x3dbde396	0.09271924
49	0x3aca5cf7	0.0015439083
50	0x3dc2a5fb	0.095043145
51	0x3d34187f	0.043968674
52	0x3dacfe10	0.08446896
53	0x3e0f4351	0.13990523
54	0x3eca9611	0.39567617
55	0xbc80765d	-0.01568144
56	0xbdc82fef	-0.097747676
57	0x3da9553d	0.08268211
58	0xbd537a03	-0.05163003
59	0xbce01691	-0.02735451
60	0x3e5d33fc	0.21601862
61	0x3c7c06e1	0.015382499
62	0xbe166f6c	-0.14690942
63	0xbd9af9bf	-0.075671665
64	0xbd5caa4d	-0.05387335
65	0x3d709d97	0.05874404
66	0x3d460646	0.048345827
67	0xbccce68e	-0.02501228
68	0xbcd112ed	-0.02552172
69	0xbcb0bcb3	-0.021574354
70	0x3ce3a495	0.02778844
71	0x3d8de888	0.069291174
72	0x3c226ff3	0.009914386
73	0xbe05b88e	-0.13058683
74	0x3c01d143	0.007923427
75	0x3d3aa3d0	0.04556638
76	0x3c0cb867	0.008588887
77	0x3d1a1fbf	0.03762793
78	0xbc1f876d	-0.009736878
79	0xbd7cd751	-0.06172878
80	0x3db0e549	0.08637483
81	0x3cefbaca	0.029263873
82	0xbd1e215b	-0.03860603
83	0x3e56a5ba	0.20961657
84	0xbc97e4f6	-0.018541794
85	0xbce261c5	-0.02763451
86	0xbd1c2bf9	-0.038127873
87	0x3a058347	0.0005093109
88	0x3d53a16e	0.051667623
89	0xbe11c72c	-0.14236134
90	0x3e03a914	0.12857467
91	0x3d4558af	0.04818028
92	0x3df8f057	0.12155216
93	0xbd3e90e6	-0.046524905
94	0xbde11a44	-0.10991338
95	0xbdf8324b	-0.121189676
96	0xbd9ef55d	-0.07761643
97	0x3d9a69d4	0.07539716
98	0xbd2f9ea8	-0.042875916
99	0xbb878ae7	-0.0041364315
100	0xbcde6a2b	-0.027150234
101	0x3cc09ae3	0.023511356
102	0x3e48b6c0	0.19600964
103	0xbdbbf365	-0.09177283
104	0x3da2ee02	0.07955553
105	0x3deeb27a	0.116551355
106	0x3d102e14	0.035200194
107	0xbde62004	-0.11236575
108	0x3e31c5f6	0.17360672
109	0x3e055521	0.13020755
110	0xbded5836	-0.115890905
111	0xbdac09c7	-0.084003024
112	0x3e03a7d0	0.12856984
113	0xbe1dc70c	-0.15407962
114	0x3d6bb906	0.0575495
115	0xbda6da19	-0.081470676
116	0xbe7a9be6	-0.24473533
117	0x3d756e19	0.05991945
118	0x3e0fd938	0.14047706
119	0x3d21942b	0.039447945
120	0xbad0f1bb	-0.0015941182
121	0xbe5b9a1f	-0.21445511
122	0xbd89487e	-0.0670328
123	0xbcf96111	-0.030441793
124	0xbe22d2a3	-0.15900664
125	0x3e625c10	0.22105432
126	0xbbd22148	-0.006412659
127	0x3e2bb056	0.16766486
128	0x3dd2269c	0.102612704
129	0xbcbcaeb9	-0.023032533
130	0xbd790c22	-0.060802586
131	0x3db5bbe7	0.0887373
132	0xbe3be44d	-0.18348809
133	0x3e07e060	0.13269186
134	0xbdea8752	-0.114515916
135	0x3e1bfb73	0.15232639
136	0xbc6cb83b	-0.014448221
137	0xbc687df9	-0.0141901905
138	0x3b896d46	0.0041939346
139	0x3de3ee67	0.11129456
140	0x3cb1cbbf	0.021703599
141	0x3dca5d06	0.09881024
142	0xbd7f3bf7	-0.062313046
143	0xbba74748	-0.005104933
144	0x3ce8c20b	0.02841284
145	0xbdd09866	-0.10185318
146	0x3e4449a7	0.19168721
147	0xbd3c074f	-0.045905408
148	0x3df07f48	0.11743027
149	0xbd9c69a1	-0.076373346
150	0x3dadb9ca	0.08482702
151	0xbc922ba1	-0.01784307
152	0xbdecc116	-0.11560266
153	0x3db1d373	0.08682909
154	0x3da4268c	0.08015165
155	0x3d076d07	0.03306296
156	0x3df4add0	0.119472146
157	0xbbe98a6e	-0.007127098
158	0xbb93b54a	-0.0045076953
159	0x3e844f14	0.25841582
160	0x3d35e8ac	0.044411346
161	0x3d4179cc	0.047235295
162	0x3cba84eb	0.022768458
163	0x3d0332dd	0.03203093
164	0x3d7dd416	0.06196984
165	0x3de6b10b	0.11264237
166	0xbda2c1bb	-0.079471074
167	0x3d96cabf	0.073628895
168	0xbe39a19b	-0.18128054
169	0x3da0b8e3	0.07847764
170	0x3cb48446	0.02203573
171	0xbd33d39f	-0.04390299
172	0xbd5da15e	-0.05410897
173	0x3d179676	0.037008725
174	0xbcb87def	-0.022520987
175	0xbd8bcca9	-0.06826145
176	0x3dfb5c7d	0.122735
177	0xbe1f1413	-0.15535001
178	0xbe49df75	-0.19714148
179	0x3d5c5b61	0.053798083
180	0x3dcc3812	0.09971632
181	0xbd0b706b	-0.034042757
182	0x3bc900f3	0.0061341464
183	0x3de48e71	0.11159981
184	0xbd87cf83	-0.066313766
185	0x3ca92b7d	0.02065062
186	0x3e108a34	0.1411522
187	0x3dcbba44	0.09947637
188	0xbe278125	-0.16357858
189	0x3cb35ec8	0.021895781
190	0xbe7c2b07	-0.24625789
191	0x3d9e1179	0.077181764
192	0xbd04041a	-0.032230474
193	0xbdc9820f	-0.0983926
194	0x3ca1d3a3	0.019754237
195	0x3df0b042	0.117523685
196	0xbe2d7198	-0.16937864
197	0xbdc08227	-0.093998246
198	0x3d88fa0b	0.06688317
199	0x3d68a1b2	0.05679483
200	0xbe40f947	-0.18845092
201	0x3e890a89	0.2676585
202	0x3d7a3089	0.061081443
203	0xbe1bf359	-0.15229549
204	0xbe1e0f0a	-0.15435424
205	0xbd5cc736	-0.05390092
206	0x3c62a0a0	0.013832241
207	0xbd8e010a	-0.06933792
208	0x3d772b87	0.060344245
209	0xbe6b4227	-0.22974454
210	0xbe16a92e	-0.14712974
211	0x3e365ae7	0.17808114
212	0xbe328e2a	-0.17437044
213	0x3df5c1ef	0.119998805
214	0xbd999246	-0.074986026
215	0xbd954f07	-0.07290464
216	0x3d5e2c78	0.054241627
217	0xbe12f3bd	-0.14350791
218	0x3e0e6750	0.13906598
219	0xbd123783	-0.03569747
220	0xbdbc1200	-0.09183121
221	0x3de64686	0.1124392
222	0x3e41acf7	0.18913637
223	0x3d0554a2	0.032551415
224	0x3df8900c	0.1213685
225	0xbda001d7	-0.07812851
226	0x3d4999ed	0.04921906
227	0xbdd599f0	-0.10429752
228	0xbe2d37c4	-0.16915804
229	0xbe1890b4	-0.1489895
230	0xbdf844e5	-0.121225156
231	0x3d19f40f	0.037586268
232	0xbdbe5085	-0.09292702
233	0xbe032ae2	-0.12809327
234	0x3e681cd7	0.22667252
235	0xbd496d61	-0.049176577
236	0xbdc6c5ce	-0.09705697
237	0xbcc9ab13	-0.024617707
238	0x3e23e6c6	0.16006002
239	0x3dbe6345	0.09296278
240	0x3e49feb4	0.19726068
241	0x3d33c58b	0.043889564
242	0xbd61cae7	-0.055125143
243	0x3d944bfd	0.07241056
244	0x3d7dcae3	0.061961066
245	0x3dc57c46	0.09642844
246	0x3d839df3	0.06426611
247	0x3e1ad9c8	0.1512214
248	0xbe05cefd	-0.13067241
249	0x3df249df	0.11830496
250	0xbd4853d2	-0.048908062
251	0x3dd41877	0.10356229
252	0x3ddddd1a	0.108331874
253	0x3d8b2be6	0.06795482
254	0x3dc90e1c	0.09817144
255	0xbd8ef04b	-0.06979426

model/vf3/BiasAdd/ReadVariableOp:0 f4 [32]
0	0x3de5333d	0.111914136
1	0xbca159cf	-0.019696144
2	0x00000000	0.0
3	0x3de20379	0.110358186
4	0xbcf33c0e	-0.029691722
5	0x00000000	0.0
6	0x00000000	0.0
7	0x3dfd865e	0.12379144
8	0xbcb928f6	-0.02260254
9	0x3dd7afd1	0.10531581
10	0x3dda1b9f	0.106497996
11	0xbd5f1acd	-0.05446892
12	0xbd9c4ff1	-0.07632435
13	0xbc646448	-0.013939925
14	0x3dd89513	0.10575309
15	0x3ddcf680	0.10789204
16	0x3de9036e	0.11377607
17	0xbd2493a1	-0.040179852
18	0xbc226bde	-0.009913413
19	0x3dd83f0c	0.105589
20	0xbccaf36a	-0.024774272
21	0x3de4caf0	0.1117152
22	0xbde08d87	-0.10964494
23	0xbcdb2acb	-0.026753804
24	0xbd4afbf5	-0.04955669
25	0xbcbfa280	-0.023392916
26	0x3dd47b11	0.103750356
27	0xbd10693b	-0.035256606
28	0xbd7065e8	-0.058690935
29	0x3dd7ff2f	0.10546719
30	0x3dbcd875	0.092209734
31	0x3dccb8f0	0.099962115

model/vf2/MatMul/ReadVariableOp:0 f4 [64, 64]
0	0xbb3e20ec	-0.0029011322
1	0xbe4819cd	-0.19541092
2	0x3d7fe496	0.062473856
3	0xbc5c26d7	-0.0134369945
4	0x3d7f2a2c	0.062296078
5	0xbd4e4b04	-0.05036451
6	0xbce53631	-0.027979942
7	0xbd64640e	-0.055759482
8	0x3e0b9131	0.13629605
9	0x3d1510bb	0.03639291
10	0x3e5dc48c	0.21657008
11	0xbdae473a	-0.08509679
12	0xbddd1542	-0.1079507
13	0xbe61aaaf	-0.22037767
14	0xbc6ee383	-0.01458061
15	0xbd3b0dbc	-0.045667395
16	0x3e81b164	0.2533065
17	0xbde6adb9	-0.11263604
18	0xbe1885d9	-0.14894809
19	0x3dc7e7b3	0.0976099
20	0xbe61f9c5	-0.22067936
21	0xbd8ef30d	-0.06979952
22	0x3c9c9e14	0.019118346
23	0x3d11ec74	0.03562589
24	0x3d024f63	0.03181399
25	0xbd8b58f8	-0.06804079
26	0xbe4091c5	-0.18805607
27	0x3e0ab778	0.1354655
28	0xbc773857	-0.015089116
29	0xbddb8824	-0.10719326
30	0x3e4019c3	0.18759827
31	0xbdb7b616	-0.08970277
32	0xbda5d705	-0.08097652
33	0x3d363389	0.04448274
34	0x3d958225	0.07300214
35	0x3d1ff4c2	0.03905178
36	0xbd897a95	-0.06712834
37	0xbc5ed763	-0.013601157
38	0x3e10412a	0.14087358
39	0xbde16b75	-0.11006824
40	0xbe55ae4d	-0.20867272
41	0xbd82ca65	-0.0638626
42	0xbc1d07ef	-0.009584411
43	0x3e5394f2	0.20662287
44	0xbe3ce524	-0.18446785
45	0xbd8760a9	-0.06610233
46	0x3d19753c	0.03746532
47	0x3d97feb4	0.07421628
48	0x3d0ff2f2	0.0351438
49	0x396b98f3	0.00022468324
50	0x3df0ecc5	0.1176391
51	0x3cb66bfe	0.022268292
52	0x3daba315	0.08380715
53	0x3dc1396f	0.09434783
54	0x3c4b4bfa	0.012408251
55	0xbd908383	-0.07056334
56	0xbd311471	-0.043232385
57	0x3db33877	0.08751004
58	0xbd4bb237	-0.049730506
59	0x3c7d9e04	0.015479568
60	0xbdbc3c99	-0.091912456
61	0xbd4cf01c	-0.050033674
62	0xbe0a6a27	-0.13517056
63	0xbe4c5dee	-0.19957706
64	0xbdaeccb5	-0.085351385
65	0x3e5d2500	0.21596146
66	0x3d8c2448	0.068428576
67	0xbc727deb	-0.014800529
68	0xbc4bdc83	-0.012442711
69	0xbc4678f5	-0.012113799
70	0x3d1983b5	0.03747912
71	0x3da24e56	0.07925098
72	0x3c2d05aa	0.010560432
73	0xbe0e8ddb	-0.13921301
74	0x3c9ca170	0.019119948
75	0xbd9a9a40	-0.07548952
76	0x3c6a3b51	0.014296369
77	0x3d454b44	0.048167482
78	0xbd777c88	-0.060421497
79	0xbd9db137	-0.07699817
80	0x3d857fd4	0.06518522
81	0xbb85446c	-0.0040669944
82	0xbdc5e1d5	-0.09662215
83	0x3e5ff512	0.2187083
84	0x3d1b4d27	0.037915375
85	0xbc98d0d0	-0.018654257
86	0xbbbdf63b	-0.005797175
87	0xbc843ef5	-0.016143302
88	0x3e3b5fb9	0.18298234
89	0xbe4a63f1	-0.19764687
90	0x3decb2ad	0.11557517
91	0x3d3c464b	0.045965474
92	0x3e495c34	0.19664079
93	0xbd4572e6	-0.04820528
94	0xbcb63abb	-0.022244802
95	0xbe877027	-0.26452753
96	0xbd7c1a42	-0.06154848
97	0x3ccb7aa8	0.02483876
98	0xbd98cdea	-0.0746115
99	0xbc608e18	-0.013705753
100	0x3c5f7c7b	0.013640518
101	0xbc6a8fb4	-0.014316488
102	0x3d99a8fb	0.075029336
103	0xbd50566d	-0.050863672
104	0x3dc62067	0.09674149
105	0x3db8c8a9	0.09022648
106	0x3d8858ab	0.06657537
107	0xbe2d90ef	-0.16949819
108	0x3df8c598	0.12147063
109	0x3e0a30c3	0.13495164
110	0xbde3c645	-0.11121801
111	0xbe219421	-0.15779163
112	0x3dec83ca	0.11548574
113	0xbde09295	-0.10965458
114	0x3e0f27ce	0.13980028
115	0xbd8b18c0	-0.0679183
116	0xbe79671a	-0.24355736
117	0xbc25057a	-0.0100721065
118	0x3e581d83	0.21105008
119	0xbc1d1ed3	-0.009589869
120	0x3e23f691	0.16012026
121	0xbe5f35b3	-0.21797828
122	0xbd903514	-0.07041374
123	0x3cc6119b	0.024178317
124	0xbd6a1ab8	-0.057154387
125	0x3e8cb243	0.27479753
126	0xbbd2f76b	-0.006438186
127	0x3e911292	0.2833448
128	0x3dea2cdb	0.11434337
129	0xbd78bf80	-0.060729504
130	0xbd9e5fc4	-0.077331096
131	0x3d1305c8	0.035894185
132	0xbdeae61f	-0.11469673
133	0x3e0c88e6	0.13724098
134	0xbd91096d	-0.07081876
135	0x3e45be62	0.19310907
136	0x3c730c99	0.0148345465
137	0x3d05cadf	0.032664176
138	0x3d09ba4b	0.03362493
139	0x3e725b5f	0.23667668
140	0xbd6fad7d	-0.05851506
141	0x3dd0ac05	0.1018906
142	0xbdb177e4	-0.086654454
143	0x3b0ad860	0.0021186098
144	0xba663f7c	-0.00087832636
145	0xbd3a9fb0	-0.045562446
146	0x3e5b22e1	0.21400024
147	0xbd07f831	-0.03319568
148	0x3df4ccf3	0.119531535
149	0xbda1c9c5	-0.078998126
150	0x3dcef052	0.10104431
151	0xbc98bba4	-0.018644162
152	0xbe3ddedd	-0.18542047
153	0x3d9e0fdc	0.07717869
154	0x3cb3f284	0.021966226
155	0x3dbaa77f	0.091139786
156	0x3dd64cde	0.1046388
157	0xbcaf46fa	-0.021396149
158	0xbd44b2ad	-0.04802196
159	0x3e7f3f45	0.24926479
160	0x3d362ee1	0.0444783
161	0x3c84a147	0.016190184
162	0xbc1aae18	-0.009440921
163	0x3cf75221	0.03019053
164	0x3d76a2f3	0.060213994
165	0x3d84f025	0.064911164
166	0xbdf1244f	-0.117745034
167	0x3d80a850	0.06282103
168	0xbe3420d8	-0.17590654
169	0x3dada898	0.08479422
170	0x3cc748ea	0.02432676
171	0x3dad92a7	0.08475237
172	0xbdbd0c4f	-0.09230863
173	0x3d5cf156	0.053941093
174	0xbd03f90e	-0.03221994
175	0xbc86b328	-0.01644285
176	0x3e247fd8	0.16064394
177	0xbdfe613f	-0.12420892
178	0xbe3c4c2c	-0.18388432
179	0x3d2538ac	0.04033725
180	0x3d9e59d9	0.07731981
181	0xbdc9f8ef	-0.098619334
182	0x3a319013	0.0006773483
183	0x3dafe11c	0.08587858
184	0xbe3273c7	-0.17426978
185	0x3cfc0f34	0.030768968
186	0x3dfbe0e8	0.12298757
187	0x3e020c8d	0.127001
188	0xbe2f1fc0	-0.17101955
189	0xbe05eefc	-0.13079447
190	0xbe7d9158	-0.24762475
191	0xbdc62000	-0.09674072
192	0xbcfb1324	-0.030648775
193	0xbe1539f1	-0.14572884
194	0xba5e6798	-0.00084840646
195	0x3dd52299	0.104069896
196	0xbd97495f	-0.07387041
197	0xbcd649b0	-0.026158184
198	0x3e0a979c	0.13534397
199	0x3dacd16d	0.08438382
200	0xbd7ca907	-0.061684635
201	0x3e9a87f9	0.30181864
202	0x3d86113a	0.065462545
203	0xbd0c7e66	-0.03430023
204	0xbe2a2f29	-0.16619553
205	0xbc45825b	-0.012055005
206	0xbca95576	-0.020670634
207	0xbd8f5650	-0.06998885
208	0x3d2c87a6	0.042121552
209	0xbe2c4e7d	-0.16826816
210	0xbda9be67	-0.082882695
211	0x3e4a1d5f	0.19737767
212	0xbe8cf60c	-0.2753147
213	0x3e04dd06	0.12974939
214	0xbd7cc083	-0.06170703
215	0xbd87e022	-0.06634547
216	0x3deff6f8	0.117170274
217	0xbe01d15f	-0.12677525
218	0x3dce7e16	0.10082643
219	0x3db96e20	0.09054208
220	0xbda22e72	-0.07919015
221	0x3de941dc	0.11389515
222	0x3e0b704f	0.13617061
223	0xbd40611f	-0.046967622
224	0x3de1694a	0.110064104
225	0xbdc41347	-0.09573989
226	0x3c84bc36	0.016203027
227	0xbde7a3ea	-0.11310561
228	0xbdf8d377	-0.12149709
229	0xbe377a3f	-0.17917727
230	0xbe103cfe	-0.14085767
231	0x3d1ae763	0.037818324
232	0xbda081dd	-0.078372695
233	0xbe2d57a7	-0.16927968
234	0x3e6a0146	0.22852048
235	0x3db298e3	0.08720567
236	0xbc8af62f	-0.016963093
237	0xbc356837	-0.01107221
238	0x3e2de51d	0.16981931
239	0x3e2ac89f	0.16678093
240	0x3e6d36fb	0.23165505
241	0x3dffa8c2	0.1248336
242	0x3c48ff69	0.012267926
243	0x3d815ec1	0.06316901
244	0x3e041499	0.12898482
245	0xbb1dc16c	-0.0024071587
246	0x3d8b18f9	0.067918725
247	0x3e1065c3	0.14101319
248	0xbdc008ac	-0.09376654
249	0x3e4644d1	0.19362189
250	0xbd423946	-0.0474179
251	0x3e2d6be4	0.16935688
252	0x3d91b0b9	0.07113785
253	0xbdcdc323	-0.10046985
254	0x3dee2f87	0.11630159
255	0xbe7faeb6	-0.2496899

model/vf2/BiasAdd/ReadVariableOp:0 f4 [64]
0	0x3e00ff06	0.12597284
1	0xbd0d2d5f	-0.034467097
2	0xbcbece7b	-0.023291817
3	0x3d5e223a	0.05423186
4	0x3ddce0c8	0.10785061
5	0x3de26b3f	0.11055612
6	0x3e0abe43	0.13549142
7	0x3e0a50db	0.13507406
8	0x3dc478ea	0.09593375
9	0x3e098b84	0.13432127
10	0x3dcfe699	0.10151405
11	0x3df138e8	0.11778432
12	0xbd29c6e1	-0.04144943
13	0x3dad387f	0.084580414
14	0x3d465a86	0.048426174
15	0x3ddd97fc	0.10820004
16	0x3db0c10d	0.086305715
17	0x3d1c93c4	0.038226858
18	0x3dc21110	0.09475911
19	0x3de277f5	0.11058036
20	0xbda40982	-0.08009626
21	0x3dcf2119	0.10113735
22	0x3d8b9c48	0.06816918
23	0xbcbccef7	-0.023047907
24	0x3d81f215	0.063450016
25	0xbd23f066	-0.040024184
26	0x3d454ef8	0.048171014
27	0x3e3f1969	0.18662037
28	0x3d545495	0.051838476
29	0x3dbbe661	0.09174801
30	0xbd90b809	-0.07066352
31	0xbc39aea1	-0.011333139
32	0x3db69d3a	0.08916707
33	0xbc88ff8b	-0.016723415
34	0xbcee096f	-0.029057233
35	0x3d869bf9	0.06572718
36	0x3c64126e	0.01392041
37	0xbcb6f533	-0.022333717
38	0x3d059ed7	0.032622185
39	0x3db2e068	0.08734208
40	0xbd8c669a	-0.06855507
41	0xbcf7bfce	-0.030242827
42	0x3db0d8d6	0.08635108
43	0x3ddeb750	0.10874808
44	0x3d9d3402	0.07675935
45	0x3d5ca29b	0.05386601
46	0x3dba35d8	0.09092301
47	0x3e3baf49	0.18328585
48	0x3e188b0f	0.14896797
49	0x3d917e96	0.071042225
50	0x3dbe160f	0.09281551
51	0x3d93a167	0.072085194
52	0x3daeb2ff	0.085302345
53	0xbd4f8392	-0.050662585
54	0xbc800184	-0.015625723
55	0x3baafd51	0.005218186
56	0x3cf16ff7	0.029472334
57	0x3db1f7e4	0.086898595
58	0x3d9afda9	0.07567913
59	0x3dbc0a12	0.09181608
60	0xbdb8e0be	-0.09027241
61	0xbdfb5f0e	-0.122739896
62	0x3d9e6c32	0.0773548
63	0xbe07498b	-0.13211648

model/vf1/MatMul/ReadVariableOp:0 f4 [4, 64]
0	0xbcd1a790	-0.025592595
1	0xbe9ce01c	-0.30639732
2	0x3cf4513c	0.029823892
3	0xbc854292	-0.016267095
4	0x3d97aeed	0.07406411
5	0xbd157ed0	-0.03649789
6	0xbe05a98c	-0.13052958
7	0xbd8dc3f3	-0.0692214
8	0x3c305a48	0.010763712
9	0xbd163a23	-0.036676537
10	0x3db572a1	0.08859754
11	0xbd11d4f5	-0.035603482
12	0xbd4d7e9e	-0.05016958
13	0xbe8732f7	-0.2640607
14	0x3c0146c3	0.007890406
15	0xbc8faaa7	-0.017537428
16	0x3e4e4fe5	0.20147665
17	0xbe280900	-0.16409683
18	0xbdd8ca81	-0.105854996
19	0x3dee8122	0.11645724
20	0xbddb88dd	-0.10719464
21	0xbdf25f97	-0.118346386
22	0xbb4bab8d	-0.0031077594
23	0x3c8d8451	0.017275007
24	0x3c8f701e	0.017509516
25	0xbda894ff	-0.08231544
26	0xbd7dee48	-0.06199482
27	0xbd09ae96	-0.033613764
28	0xbdd625ab	-0.10456403
29	0xbe1e9b57	-0.15488945
30	0x3e03703f	0.12835787
31	0xbd825981	-0.06364728
32	0x3cc4f462	0.024042312
33	0xba969c43	-0.0011490661
34	0x3df2cd79	0.11855597
35	0x3c78186d	0.015142542
36	0xbe331791	-0.17489459
37	0xbd6fff48	-0.058593065
38	0x3c457ce4	0.012053702
39	0xbd417971	-0.047234956
40	0xbe283767	-0.16427384
41	0xbd7197af	-0.058982547
42	0xbda07b57	-0.07836025
43	0x3e083f63	0.1330543
44	0xbdadb020	-0.08480859
45	0x3b691c22	0.0035569747
46	0x3ce09e9a	0.027419377
47	0x3c5228cd	0.0128271105
48	0xbc34f0f0	-0.011043772
49	0x3d68e6cd	0.056860734
50	0x3df20dd9	0.118190475
51	0x3d4f76b0	0.0506503
52	0x3e01ebe7	0.12687646
53	0x3d5f0c3d	0.05445503
54	0xbd8facdb	-0.070153914
55	0x3c7c4f49	0.015399762
56	0xbd877a39	-0.06615109
57	0x3d86132e	0.06546627
58	0xbd249d99	-0.04018936
59	0x3b067511	0.0020516554
60	0x3c698146	0.014252013
61	0xbb4aa799	-0.003092265
62	0xbe484aba	-0.19559756
63	0xbd458942	-0.048226602
64	0xbc929d0e	-0.017897155
65	0x3d1d015f	0.038331386
66	0x3cc51b25	0.024060795
67	0xbc5cce64	-0.013476942
68	0xbcac33f3	-0.021020865
69	0x3c9d7838	0.019222364
70	0x3b927611	0.004469641
71	0x37eb0718	2.8017486e-05
72	0xba869f53	-0.0010270871
73	0xbd1700e6	-0.03686609
74	0xbbaa4fb9	-0.005197492
75	0xbbe05bae	-0.0068468666
76	0x3cb17d25	0.021666119
77	0xbc35ffa6	-0.011108315
78	0xbbdf37ba	-0.006812063
79	0xbc475a04	-0.0121674575
80	0x3cec5195	0.028847495
81	0x3bf2edba	0.007413593
82	0xbbf0d814	-0.0073499773
83	0x3d50347c	0.050831303
84	0x3cfc2d2e	0.030783262
85	0x3c28d00f	0.010303511
86	0xbd64b481	-0.055836204
87	0xbb377bad	-0.00279973
88	0x3ca40ace	0.020024683
89	0xbdb67783	-0.08909514
90	0x3ca89c94	0.020582475
91	0x3d418759	0.04724822
92	0x3d81067f	0.06300067
93	0xbbfe8c12	-0.0077681625
94	0xbe62634e	-0.22108194
95	0xbda84c64	-0.08217695
96	0xbc491400	-0.012272835
97	0x3bfe49b1	0.0077602495
98	0xbc9a51a6	-0.018837761
99	0xb99e3886	-0.00030178222
100	0x3be1a7fb	0.00688648
101	0x3c9ad094	0.018898286
102	0x3d62b862	0.055351622
103	0x3a5ecfae	0.00084995746
104	0x3dac4668	0.084118664
105	0x3be8a592	0.0070998156
106	0x3d04e941	0.03244901
107	0xbe29f4e6	-0.16597328
108	0x3d728bc5	0.059215326
109	0x3cbcb97a	0.02303766
110	0xbb421397	-0.0029613727
111	0xba8e29ec	-0.0010846234
112	0x3d4e6009	0.050384555
113	0xbd78d8f9	-0.060753796
114	0xba444cad	-0.0007488232
115	0xbca7450c	-0.020418666
116	0xbe2e2357	-0.17005669
117	0x3db27688	0.08714014
118	0x3d21e10e	0.03952127
119	0x3d390903	0.04517461
120	0xbb30b91c	-0.0026965803
121	0xbdcc4ff5	-0.09976188
122	0xbb7e0d67	-0.0038765313
123	0xbb86527f	-0.00409919
124	0xbaf94fa2	-0.0019020925
125	0x3d8acb84	0.06777099
126	0x3db04f63	0.08608892
127	0x3d7bfc47	0.061519887
128	0x3cf7833b	0.030213943
129	0xbd701e3b	-0.05862258
130	0xbd300a25	-0.042978425
131	0x3da01aeb	0.07817634
132	0xbe03e0c8	-0.12878716
133	0x3d0ad412	0.033893652
134	0xbda74e4a	-0.08169229
135	0x3dd92efd	0.106046654
136	0xbd664192	-0.056214876
137	0x3d81876b	0.06324657
138	0xbd1fab2f	-0.038981613
139	0x3dda03f1	0.10645283
140	0xbd71074a	-0.058844842
141	0x3db20218	0.086918056
142	0xbdab4645	-0.08363012
143	0xbd4bdf82	-0.0497737
144	0xbd4128fd	-0.04715823
145	0xbdded797	-0.10880964
146	0x3d79a97a	0.06095264
147	0xbc9baa7c	-0.019002192
148	0x3aba2999	0.0014203071
149	0xbd205293	-0.03914125
150	0x3d0a87ae	0.0338208
151	0xbcfe3b48	-0.031034127
152	0x3a914e16	0.0011085893
153	0x3d3b4e7f	0.045729157
154	0x3d9d2120	0.07672334
155	0x3b83b6e4	0.004019605
156	0x3d74960a	0.0597134
157	0xbcb02169	-0.021500306
158	0x3d0facda	0.035076953
159	0x3e1e2270	0.15442824
160	0x3d7bb2ed	0.061449934
161	0x3c8a4ae2	0.01688141
162	0x3d15eb71	0.036601488
163	0xbd74076a	-0.059577383
164	0x39729708	0.00023135182
165	0xba2f0666	-0.00066766737
166	0xbe143ad9	-0.14475574
167	0x3d595be9	0.053066168
168	0xbdfba098	-0.1228649
169	0x3d2ee50f	0.042698916
170	0x3d48f605	0.049062748
171	0xbc94540e	-0.018106487
172	0xbd445a07	-0.04793742
173	0x3ce14100	0.027496815
174	0x3cb25f7a	0.021774042
175	0xbac7343f	-0.0015198066
176	0x3da516aa	0.080609635
177	0xbcf6f1c4	-0.03014458
178	0xbe21661e	-0.15761611
179	0x3d5f91b5	0.054582316
180	0x3dca00f7	0.09863465
181	0xbc05fd6b	-0.008178095
182	0x3cdef446	0.027216088
183	0x3e09062e	0.13381264
184	0xbcd5e95e	-0.026112255
185	0x3da0857b	0.078379594
186	0x3d729b76	0.05923029
187	0x3e053ea7	0.13012181
188	0x3c7f84e3	0.0155956475
189	0x3ca38517	0.019960923
190	0xbe19ee3b	-0.15032284
191	0xbb75b1f8	-0.003749011
192	0xbd1dff84	-0.038573757
193	0xbd37bb51	-0.044856373
194	0x3afcc6ea	0.0019285355
195	0x3d9c1e0e	0.0762292
196	0xbdfbfce9	-0.12304098
197	0x3b9d4c57	0.00480036
198	0x3d0b8219	0.034059618
199	0x3d10b338	0.035327166
200	0xbd3c1863	-0.045921694
201	0x3e25983c	0.16171354
202	0x3d58fcfe	0.052975647
203	0xbd30b761	-0.043143634
204	0xbd8e462d	-0.06946979
205	0xbc0dffaf	-0.008666917
206	0xbc0f6662	-0.008752437
207	0xbdb9c8db	-0.09071513
208	0x3d8385cd	0.06422005
209	0xbdd5bd3a	-0.10436483
210	0x3d155a85	0.03646328
211	0x3dd62eee	0.1045817
212	0x3c4ebe6d	0.012618643
213	0x3cb5eaeb	0.022206744
214	0xbc277081	-0.010219694
215	0xbc3e3f1b	-0.011611725
216	0x3d090a3a	0.03345702
217	0xbcfd4f14	-0.030921496
218	0x3dcf2ca6	0.10115938
219	0x3d6b5b34	0.057460025
220	0xb9f606d2	-0.00046925858
221	0x3d9fc00a	0.078003004
222	0x3e167e04	0.14696509
223	0x3dad357a	0.084574655
224	0x3d3ccb29	0.046092186
225	0xbce8fa9b	-0.02843981
226	0x3d10ef4b	0.035384458
227	0xbd2e0e1d	-0.04249393
228	0xbd1d4999	-0.038400266
229	0xbd1224b6	-0.03567954
230	0xbd65203a	-0.055938937
231	0x3cac28cb	0.021015545
232	0xbd467c06	-0.04845812
233	0xbdcea04f	-0.1008917
234	0x3e2c428e	0.16822264
235	0x3d531290	0.051531374
236	0xbd4b9d5e	-0.049710624
237	0x3cc23408	0.023706451
238	0x3dbda4f3	0.09259977
239	0x3c3faabd	0.011698422
240	0x3e423859	0.18966807
241	0x3cee669f	0.029101668
242	0xbd7146e1	-0.058905486
243	0x3d394b96	0.0452381
244	0x3de40256	0.11133258
245	0x3d034f6a	0.032058157
246	0x3d941c16	0.072319195
247	0x3e3427c3	0.17593293
248	0xbd8d9fa5	-0.069152154
249	0x3e02f900	0.12790298
250	0x3c5ba2e4	0.013405535
251	0x3e027515	0.12739976
252	0x3d5ace4b	0.053419393
253	0x3d2ee6d9	0.042700622
254	0x3c7b1ce9	0.015326717
255	0xbcb49485	-0.022043476

model/vf1/BiasAdd/ReadVariableOp:0 f4 [64]
0	0x3dfb978c	0.12284765
1	0xbd1d4871	-0.038399164
2	0x3de6adcd	0.112636186
3	0x3e02caca	0.1277267
4	0x3dd81954	0.10551706
5	0xbddd2bea	-0.107993916
6	0xbd831439	-0.064003415
7	0x3dee7d4d	0.11644993
8	0xbcc449ea	-0.023961026
9	0xbd943b04	-0.07237819
10	0xbe20c7e0	-0.15701246
11	0xbdfa33e9	-0.12216932
12	0xbdd19d61	-0.10235096
13	0xbd795eac	-0.0608813
14	0x3df371b2	0.1188692
15	0x3e16bf88	0.14721501
16	0x3b7bc157	0.00384148
17	0xbe0e99a9	-0.13925804
18	0xbdcaf9fa	-0.099109605
19	0x3c24894c	0.0100425
20	0xbdd1b24e	-0.10239087
21	0xbdaa25d8	-0.08307999
22	0xbda1d935	-0.07902757
23	0xbd0fed67	-0.035138514
24	0x3bc3f616	0.0059802635
25	0xbd38097b	-0.044930916
26	0xbe0ebf89	-0.13940252
27	0xbe28d045	-0.16485699
28	0xbdf50020	-0.119629145
29	0xbd4d1d19	-0.050076578
30	0xbe520bb4	-0.20512277
31	0xbd7ea8cf	-0.062172707
32	0x3d87cfd1	0.06631435
33	0xbde6b451	-0.112648614
34	0x3e2bb249	0.16767229
35	0xbd09963f	-0.03359055
36	0xbdb2682a	-0.08711274
37	0xbd4bbe6a	-0.04974214
38	0xbe4dae2e	-0.20085976
39	0x3d6a817e	0.0572524
40	0xbe07448b	-0.13209741
41	0xbdb2bf1c	-0.087278575
42	0xbe3d67ed	-0.18496676
43	0x3b8407f4	0.0040292684
44	0xbba4aa26	-0.005025166
45	0x3c1d24c0	0.009591281
46	0x3d2aa8b7	0.041664805
47	0xbcbe826e	-0.023255553
48	0xbe76494a	-0.24051395
49	0x3b8cf606	0.004301789
50	0x3d86aaaf	0.06575524
51	0x3df5300d	0.119720556
52	0x3da8c2fe	0.08240317
53	0xbcc8b367	-0.024499608
54	0xbe3d7c12	-0.1850436
55	0x3df90e4c	0.1216093
56	0x3e13f1b0	0.14447665
57	0x3cb3f807	0.021968855
58	0xbc9377f2	-0.01800153
59	0xbca7c4d6	-0.0204796
60	0x3ce904a5	0.028444597
61	0x3dbef34c	0.09323749
62	0xbdbca31b	-0.092107974
63	0xbd89366f	-0.066998355

model/u/MatMul/ReadVariableOp:0 f4 [32, 1]
0	0xbee435d3	-0.44572315
1	0xbe4f42c3	-0.20240311
2	0x3db5403c	0.08850142
3	0x3e4240da	0.18970051
4	0x3e737acf	0.23777317
5	0xbd4a1d0b	-0.049344104
6	0xbdc0c846	-0.09413199
7	0xbf013fc8	-0.5048795
8	0x3ea37362	0.31923968
9	0x3e6e4ae3	0.23270755
10	0x3e56a2fa	0.20960608
11	0xbec6c859	-0.38824728
12	0xbec079ff	-0.37593076
13	0xbe447c03	-0.19187932
14	0x3e574dfc	0.21025842
15	0xbe8e91c5	-0.27845588
16	0x3ee6e92c	0.4509977
17	0xbd82d4bf	-0.06388234
18	0xbe0ab00b	-0.13543718
19	0x3e90e089	0.28296307
20	0xbd8c4cef	-0.068506114
21	0xbeaa3209	-0.332413
22	0x3dc5dae7	0.09660893
23	0x3e6cd1d3	0.23126917
24	0x3e4cdf24	0.20006996
25	0xbf0dadc7	-0.5534329
26	0xbe0ffa74	-0.14060384
27	0x3e9f6ff8	0.31140113
28	0x3e400cb4	0.18754846
29	0xbf23add5	-0.6393712
30	0x3ec8e4eb	0.3923715
31	0xbb8666e3	-0.0041016205

model/rho/MatMul/ReadVariableOp:0 f4 [32, 1]
0	0x3aac77bd	0.0013158243
1	0xbe4eba5b	-0.20188276
2	0x3db5403c	0.08850142
3	0x3dfb4585	0.12269119
4	0x3d915e7a	0.07098098
5	0xbd4a1d0b	-0.049344104
6	0xbd720a03	-0.05909158
7	0xbd93428f	-0.071904294
8	0x3e81b89f	0.25336167
9	0x3e290070	0.16504073
10	0x3e56a2fa	0.20960608
11	0xbd4846b1	-0.04889554
12	0xbd737447	-0.059437063
13	0xbe44a7bb	-0.19204609
14	0x3e1295ca	0.14314952
15	0xbcd1034d	-0.02551427
16	0x3ec52482	0.38504416
17	0xbd81979a	-0.06327744
18	0xbe0ab00b	-0.13543718
19	0x3e5e634f	0.2171757
20	0xbd8cf484	-0.06882575
21	0xbdc8790a	-0.09788711
22	0x3dc5dae7	0.09660893
23	0x3e289eca	0.16466823
24	0x3e07a7fd	0.13247676
25	0xbc8bb6f6	-0.017055016
26	0xbe0fe14f	-0.14050792
27	0x3e79494f	0.24344371
28	0x3df7350a	0.12070663
29	0xbdc0fd4b	-0.09423312
30	0x3ea76656	0.32695264
31	0xbbb22d0d	-0.0054374994

model/phi/MatMul/ReadVariableOp:0 f4 [32, 1]
0	0x3b9e1e6d	0.0048254044
1	0xbe4c541a	-0.19953957
2	0x3db5403c	0.08850142
3	0x3d996a0e	0.074909315
4	0x3dabafbc	0.08383128
5	0xbd24c2e1	-0.040224914
6	0xbd720a03	-0.05909158
7	0xbd87e4ad	-0.06635413
8	0x3e24b192	0.16083363
9	0x3d967092	0.0734569
10	0x3e7bb923	0.24582343
11	0xbd140719	-0.03613958
12	0xbd4eb0ee	-0.050461702
13	0xbe450f16	-0.19244036
14	0x3cb70220	0.02233988
15	0xbc6dd913	-0.014517087
16	0x3e952b33	0.2913452
17	0xbd8c0f6a	-0.068388775
18	0xbe065221	-0.13117267
19	0x3dfe0d8c	0.124049276
20	0xbdb31756	-0.08744685
21	0xbda9d88c	-0.08293256
22	0x3e09165d	0.13387437
23	0x3d9f603e	0.077820286
24	0x3d112ff5	0.035446126
25	0xbcd2442c	-0.025667273
26	0xbe1db171	-0.1539972
27	0x3e2006c3	0.1562758
28	0x3d02c8f4	0.031929925
29	0xbdb1fe56	-0.08691089
30	0x3e702d7d	0.23454852
31	0xbb81864f	-0.0039527784

model/p6/MatMul/ReadVariableOp:0 f4 [64, 32]
0	0xbc9bb510	-0.019007236
1	0xbe5cca5f	-0.21561573
2	0x3db5403c	0.08850142
3	0x3ab87bdb	0.0014074998
4	0x3d721c85	0.05910923
5	0xbd4a1d0b	-0.049344104
6	0xbd720a03	-0.05909158
7	0xbd93428f	-0.071904294
8	0x3e061deb	0.1309735
9	0x3d435db9	0.047696803
10	0x3e56a2fa	0.20960608
11	0xbd765f18	-0.060149282
12	0xbd8804f8	-0.06641573
13	0xbe5246fd	-0.20534892
14	0x3cb70220	0.02233988
15	0xbd0690a7	-0.032852795
16	0x3e8680cf	0.26270148
17	0xbda7e05b	-0.08197089
18	0xbe0ab00b	-0.13543718
19	0x3dc0e65b	0.09418937
20	0xbdb31756	-0.08744685
21	0xbdc8cc0c	-0.09804544
22	0x3dc5dae7	0.09660893
23	0x3d3110e8	0.043229014
24	0x3c4e75bb	0.012601311
25	0xbd2e10d7	-0.04249653
26	0xbe1db171	-0.1539972
27	0x3dfd2b1a	0.123617366
28	0x3904e56b	0.00012673966
29	0xbddc0aa2	-0.107442155
30	0x3e506c10	0.20353723
31	0xbcbb6c6f	-0.022878854
32	0xbdc8e69c	-0.0980961
33	0x3d476b80	0.048686504
34	0x3ddfab63	0.10921361
35	0x3ddc4279	0.10754866
36	0xbcbece20	-0.023291647
37	0x3c1ebf9c	0.009689238
38	0x3e5e4567	0.21706162
39	0xbdcbd7fb	-0.099533044
40	0xbdd4c9ed	-0.10390077
41	0xbb959e1d	-0.0045659677
42	0xbc143716	-0.009046337
43	0x3e73d184	0.23810393
44	0xbe279d2a	-0.16368547
45	0xbd05d701	-0.032675747
46	0x3da777e5	0.08177165
47	0x3d2df43c	0.04246925
48	0x3da63857	0.08116215
49	0x3a8275f2	0.0009953363
50	0x3de56132	0.11200179
51	0x3d902ac9	0.070394106
52	0x3dd5a978	0.10432714
53	0x3e0eccf5	0.13945372
54	0x3cdb65ab	0.026781878
55	0x3d2b7909	0.041863475
56	0xbd44d44b	-0.04805402
57	0x3da00ec3	0.078153156
58	0xbd16ede6	-0.03684797
59	0x3d372658	0.0447143
60	0xbc904de2	-0.017615262
61	0xbc813c4b	-0.01577582
62	0xbdab10b6	-0.08352797
63	0xbdd6c01e	-0.10485862
64	0xbda2607f	-0.079285614
65	0x3d709d97	0.05874404
66	0x3d460646	0.048345827
67	0xbd3d45e2	-0.046209224
68	0xbcd112ed	-0.02552172
69	0xbcb0bcb3	-0.021574354
70	0x3ce3a495	0.02778844
71	0x3d38f792	0.045157976
72	0x3c2205e7	0.009889103
73	0xbe196423	-0.14979605
74	0xbc3e3065	-0.011608218
75	0x3d3a827a	0.04553459
76	0x3cf0f16d	0.029411996
77	0x3d19eff7	0.037582364
78	0xbcfb4dc8	-0.030676737
79	0xbd90808f	-0.070557706
80	0x3d81395e	0.0630977
81	0x3cefbaca	0.029263873
82	0xbd1e215b	-0.03860603
83	0x3e4170d4	0.18890697
84	0xbc97e4f6	-0.018541794
85	0xbd4bf422	-0.04979337
86	0xbd1c2bf9	-0.038127873
87	0x3a058347	0.0005093109
88	0x3d5452db	0.05183683
89	0xbe11c72c	-0.14236134
90	0x3ddea57d	0.10871408
91	0x3d4558af	0.04818028
92	0x3df8fe70	0.12157905
93	0xbd8a3fd6	-0.06750457
94	0xbe00703c	-0.12542814
95	0xbe10ca8e	-0.14139768
96	0xbdbdc5c9	-0.0926624
97	0x3dc32b51	0.09529746
98	0xbd2f9ea8	-0.042875916
99	0xbc2f71f7	-0.010708324
100	0xbc67bc13	-0.0141439615
101	0x3cc09ae3	0.023511356
102	0x3e48b6c0	0.19600964
103	0xbd92c22e	-0.07165943
104	0x3dcec1fa	0.10095592
105	0x3df4763b	0.11936613
106	0x3ce0b42a	0.027429659
107	0xbdad885a	-0.084732726
108	0x3e170957	0.14749657
109	0x3e1ab913	0.15109663
110	0xbde570e0	-0.1120317
111	0xbda26fe9	-0.079315014
112	0x3de840c2	0.113404766
113	0xbde5bf1a	-0.1121809
114	0x3dab11eb	0.08353027
115	0xbdab8df3	-0.08376684
116	0xbe5dc5ca	-0.21657482
117	0x3d5a1013	0.053237986
118	0x3e663ea0	0.22484827
119	0x3d70a647	0.058752324
120	0x3ceb7d25	0.028746197
121	0xbe3e8913	-0.18606977
122	0xbd7d2be2	-0.061809428
123	0x3c0b4b13	0.008501786
124	0xbd0531e7	-0.032518294
125	0x3e5dcea0	0.21660852
126	0x3b5a955b	0.0033353183
127	0x3e262fde	0.16229197
128	0x3da392ca	0.07986982
129	0xbba6a883	-0.005086006
130	0xbd790c22	-0.060802586
131	0x3da1b25e	0.07895349
132	0xbdfde3ed	-0.12396989
133	0x3e07e060	0.13269186
134	0xbdea8752	-0.114515916
135	0x3dfe8d73	0.12429323
136	0x3c15bcd8	0.009139262
137	0xbc8e4beb	-0.017370185
138	0xbb951413	-0.004549512
139	0x3e1fb2b2	0.1559551
140	0xbc140191	-0.009033577
141	0x3df5a842	0.11994983
142	0xbd8b0f90	-0.06790078
143	0xbd0e8286	-0.034792446
144	0x3c086fc1	0.008327425
145	0xbd1d1ec3	-0.038359415
146	0x3e6242ba	0.22095767
147	0xbd55a4bd	-0.05215906
148	0x3e1a423b	0.15064327
149	0xbdba5a03	-0.090991996
150	0x3d8f9c80	0.07012272
151	0x3a6a8bcf	0.00089472247
152	0xbd806dac	-0.06270918
153	0x3def55d8	0.11686295
154	0x3d9c2ffa	0.07626338
155	0x3d96a4eb	0.07355674
156	0x3e10b6a2	0.14132169
157	0xbc8398f6	-0.016064148
158	0x3b95b767	0.0045689824
159	0x3e7f0273	0.24903278
160	0x3ccf7ff0	0.02532956
161	0x3d7024ff	0.058629032
162	0x3cba84eb	0.022768458
163	0x3d15698b	0.036477607
164	0x3dd2c396	0.10291211
165	0x3de6b10b	0.11264237
166	0xbda2c1bb	-0.079471074
167	0x3d8daf50	0.06918204
168	0xbe1733f8	-0.14765918
169	0x3db369a7	0.08760386
170	0x3cc71b27	0.02430494
171	0xbc36f1f5	-0.0111660855
172	0xbd8dafef	-0.06918322
173	0x3d5b0dac	0.053479835
174	0xbc20349a	-0.009778166
175	0xbd824f19	-0.06362743
176	0x3df8e495	0.121529736
177	0xbde76066	-0.112976834
178	0xbe3eeb94	-0.18644553
179	0x3d869d11	0.06572927
180	0x3de5de07	0.11223989
181	0xbd16a587	-0.036778953
182	0x3c727ad0	0.014799789
183	0x3e0dbc45	0.1384135
184	0x3af3662f	0.0018569882
185	0x3d1dbba5	0.03850903
186	0x3e10d2a4	0.14142853
187	0x3e0d6095	0.13806374
188	0xbd859d5d	-0.06524155
189	0x3c800393	0.015626704
190	0xbe629d37	-0.22130285
191	0x3d8edb4d	0.06975422
192	0xbdb4b15e	-0.088228926
193	0xbdc9820f	-0.0983926
194	0x3ca1d3a3	0.019754237
195	0x3d9a8840	0.07545519
196	0xbe02eceb	-0.1278569
197	0xbdc08227	-0.093998246
198	0x3d88fa0b	0.06688317
199	0x3c8bee3f	0.017081378
200	0xbde3e46d	-0.11127553
201	0x3e782552	0.24232987
202	0x3c97e617	0.018542333
203	0xbdbdbd7d	-0.09264658
204	0xbdf449a2	-0.11928107
205	0xbd2acc1b	-0.041698556
206	0xbcc88c8e	-0.024481084
207	0xbdd87698	-0.10569495
208	0x3c0f1bba	0.008734638
209	0xbe3302df	-0.17481564
210	0xbdfd044d	-0.12354336
211	0x3e0d0ba0	0.13773966
212	0xbe0be258	-0.13660562
213	0x3d97ab5f	0.07405733
214	0xbd3e8de1	-0.046522025
215	0xbd3257f1	-0.0435409
216	0x3dc73844	0.09727529
217	0xbdd10275	-0.10205547
218	0x3dd01dd3	0.101619385
219	0xbc45e114	-0.012077589
220	0xbda8187b	-0.08207794
221	0x3d949db7	0.07256644
222	0x3e35bb07	0.17747127
223	0xbc245455	-0.010029872
224	0x3d99e397	0.075141124
225	0xbda001d7	-0.07812851
226	0x3d4999ed	0.04921906
227	0xbe099051	-0.13433959
228	0xbe0c77a3	-0.13717513
229	0xbe1890b4	-0.1489895
230	0xbdf844e5	-0.121225156
231	0x3ba0928e	0.004900283
232	0xbc81cad7	-0.015843792
233	0xbe126b15	-0.14298661
234	0x3e459c6d	0.19297953
235	0x3d174a9b	0.036936384
236	0xbd0b6a8e	-0.034037165
237	0xbc265728	-0.010152616
238	0x3e06858a	0.13136879
239	0x3d8a5471	0.06754387
240	0x3e1ffdab	0.1562411
241	0x3dd56637	0.104198866
242	0xbcf660fd	-0.030075544
243	0x3d2b7195	0.041856367
244	0x3dc82671	0.09772957
245	0x3d7875ff	0.060659405
246	0x3dad891f	0.084734194
247	0x3e372bb4	0.17887765
248	0xbdb9000b	-0.09033211
249	0x3e2415e3	0.16023974
250	0xbd9cf394	-0.07663646
251	0x3e025303	0.12726979
252	0x3e0c4798	0.13699186
253	0x3d20c070	0.039246023
254	0x3dc0e1f4	0.09418097
255	0xbdd26fba	-0.102752164

model/p6/BiasAdd/ReadVariableOp:0 f4 [32]
0	0xbc9b2dac	-0.018942676
1	0xbc7881f8	-0.015167706
2	0x00000000	0.0
3	0x3e13f759	0.14449824
4	0x3c4e7372	0.0126007665
5	0x00000000	0.0
6	0x00000000	0.0
7	0x00000000	0.0
8	0x3e005403	0.12532048
9	0x3e084ff4	0.1331175
10	0x00000000	0.0
11	0xbc4546e8	-0.012040831
12	0xbc037137	-0.008022598
13	0xbc71abfd	-0.014750478
14	0x3e0c4490	0.1369803
15	0xbc13f415	-0.009030362
16	0x3dfb4aa1	0.12270094
17	0xbca08347	-0.019593848
18	0x00000000	0.0
19	0x3e0231cc	0.12714309
20	0xbc9c1ff3	-0.019058203
21	0xbbc38549	-0.0059668166
22	0x00000000	0.0
23	0x3e07906e	0.1323869
24	0x3e0f7307	0.14008723
25	0xbccae97d	-0.024769539
26	0xbc711664	-0.014714811
27	0x3e0084fb	0.12550728
28	0x3e1417a6	0.14462146
29	0xbc6c07a0	-0.014406115
30	0x3dfcec01	0.12349702
31	0xbc98eba2	-0.018667046

model/p5/MatMul/ReadVariableOp:0 f4 [64, 64]
0	0xbc9bb510	-0.019007236
1	0xbe7ef16f	-0.24896787
2	0x3db5403c	0.08850142
3	0x3ab87bdb	0.0014074998
4	0x3d721c85	0.05910923
5	0xbd4a1d0b	-0.049344104
6	0xbd720a03	-0.05909158
7	0xbd93428f	-0.071904294
8	0x3e824ae0	0.2544775
9	0x3d435db9	0.047696803
10	0x3eabac63	0.33529958
11	0xbd765f18	-0.060149282
12	0xbd92bfde	-0.07165502
13	0xbdab5b3b	-0.0836701
14	0x3e0936db	0.13399832
15	0xbd0ff7a4	-0.035148278
16	0x3ec714a7	0.38882944
17	0xbda7e05b	-0.08197089
18	0xbe109f96	-0.14123377
19	0x3e5f82c3	0.21827225
20	0x3d125802	0.035728462
21	0xbdc8cc0c	-0.09804544
22	0x3dc5dae7	0.09660893
23	0x3d3110e8	0.043229014
24	0x3c4e75bb	0.012601311
25	0xbd576959	-0.0525907
26	0xbd04b49b	-0.0323988
27	0x3df323bf	0.118720524
28	0x3dec5b57	0.11540859
29	0x3c8c8e64	0.01715774
30	0x3e9ec87a	0.31012326
31	0x3dd49b1b	0.103811465
32	0x3d31533e	0.043292277
33	0x3e12b389	0.143263
34	0x3e6bb84a	0.2301952
35	0x3d99b987	0.0750609
36	0xbd223ffe	-0.03961181
37	0xbae88af4	-0.0017741607
38	0x3e955028	0.29162717
39	0x3ccd0a93	0.025029456
40	0xbc8e15a9	-0.017344313
41	0xbd12294c	-0.035683915
42	0x3dcbbd6b	0.09948238
43	0x3e73f4d5	0.23823865
44	0xbd01a51b	-0.031651597
45	0x3dc99249	0.09842355
46	0x3e32418b	0.17407815
47	0x3d51a6d0	0.051184475
48	0x3e1e5575	0.15462287
49	0x3e18805e	0.14892718
50	0x3e617e0b	0.22020738
51	0x3cd935fa	0.026514996
52	0x3e7cfa8d	0.24704953
53	0x3e03c0fe	0.1286659
54	0x3e1a7c2e	0.15086433
55	0xbc166b1a	-0.009180808
56	0xbde81c8f	-0.11333572
57	0x3e6b374b	0.22970311
58	0x3db36017	0.08758562
59	0x3e0c3f0f	0.1369593
60	0x3d933102	0.07187082
61	0xbcad34ef	-0.021143405
62	0x3b4a69ad	0.0030885742
63	0xbdbd9dd8	-0.09258622
64	0xbda2607f	-0.079285614
65	0x3d35d096	0.044388376
66	0x3d460646	0.048345827
67	0xbd3d45e2	-0.046209224
68	0xbcd112ed	-0.02552172
69	0xbce55b72	-0.027997706
70	0x3ce3a495	0.02778844
71	0x3d38f792	0.045157976
72	0x3cd6fbbb	0.026243081
73	0xbe196423	-0.14979605
74	0x3b852107	0.004062775
75	0x3d1e518a	0.03865198
76	0x3cbd2f9f	0.023093997
77	0x3d5a2fc8	0.053268224
78	0xbd286a42	-0.04111696
79	0xbd9077d5	-0.07054106
80	0x3da20d85	0.07912735
81	0x3cbfdb91	0.023420127
82	0xbd531bc0	-0.051540136
83	0x3e5140d4	0.20434886
84	0xbb72eeed	-0.003706868
85	0xbd4bf422	-0.04979337
86	0xbd1c2bf9	-0.038127873
87	0x3a058347	0.0005093109
88	0x3d5452db	0.05183683
89	0xbe1b6afa	-0.15177527
90	0x3dfe2787	0.12409883
91	0x3d1d7d32	0.038449474
92	0x3e0a05bc	0.1347875
93	0xbd52f0ec	-0.051499292
94	0xbe0e5e3c	-0.13903135
95	0xbe0165bb	-0.12636463
96	0xbdad9cb8	-0.08477157
97	0x3da4c0c5	0.0804458
98	0xbcdb2ae5	-0.026753852
99	0xbc96a84e	-0.0183908
100	0xbc67bc13	-0.0141439615
101	0x3d0db157	0.034592953
102	0x3e3af4b7	0.18257414
103	0xbd653d19	-0.05596647
104	0x3dc1dd1d	0.09466002
105	0x3df4763b	0.11936613
106	0x3ca3c606	0.019991886
107	0xbdafa035	-0.08575479
108	0x3e25e97f	0.16202353
109	0x3e26e190	0.16296983
110	0xbdc48952	-0.09596504
111	0xbdba99ad	-0.091113426
112	0x3dd06d9c	0.10177156
113	0xbdc64074	-0.09680262
114	0x3d9ac67e	0.07557391
115	0xbdc5d4d2	-0.09659733
116	0xbe4de04c	-0.20105094
117	0x3d55f3ea	0.052234568
118	0x3e75bd60	0.23998022
119	0x3d2ced65	0.042218585
120	0x3c6f0bd3	0.014590221
121	0xbe2f1146	-0.17096433
122	0xbd4300ad	-0.047608066
123	0x3cc95a67	0.02457924
124	0xbc8f034b	-0.017457625
125	0x3e4e8c5b	0.20170729
126	0x3c96089f	0.018314658
127	0x3e27f73a	0.16402903
128	0x3da392ca	0.07986982
129	0xbba6a883	-0.005086006
130	0xbd790c22	-0.060802586
131	0x3da1b25e	0.07895349
132	0xbdfde3ed	-0.12396989
133	0x3e07e060	0.13269186
134	0xbdea8752	-0.114515916
135	0x3dfe8d73	0.12429323
136	0x3c15bcd8	0.009139262
137	0xbc8e4beb	-0.017370185
138	0xbb951413	-0.004549512
139	0x3e1fb2b2	0.1559551
140	0xbc140191	-0.009033577
141	0x3df5a842	0.11994983
142	0xbd8b0f90	-0.06790078
143	0xbd0e8286	-0.034792446
144	0x3c086fc1	0.008327425
145	0xbd1d1ec3	-0.038359415
146	0x3e6242ba	0.22095767
147	0xbd55a4bd	-0.05215906
148	0x3e1a423b	0.15064327
149	0xbdba5a03	-0.090991996
150	0x3d8f9c80	0.07012272
151	0x3a6a8bcf	0.00089472247
152	0xbd806dac	-0.06270918
153	0x3def55d8	0.11686295
154	0x3d9c2ffa	0.07626338
155	0x3d96a4eb	0.07355674
156	0x3e10b6a2	0.14132169
157	0xbc8398f6	-0.016064148
158	0x3b95b767	0.0045689824
159	0x3e7f0273	0.24903278
160	0x3d04b77b	0.032401543
161	0x3d8855b8	0.066569746
162	0x3cba84eb	0.022768458
163	0x3d042b3d	0.032267798
164	0x3dcac35b	0.09900542
165	0x3de6b10b	0.11264237
166	0xbda2c1bb	-0.079471074
167	0x3d8daf50	0.06918204
168	0xbe1f3613	-0.15547971
169	0x3dada898	0.08479422
170	0x3cc71b27	0.02430494
171	0xbb66183f	-0.0035109667
172	0xbd82466e	-0.0636109
173	0x3d7b5065	0.061355967
174	0xbc8b391c	-0.016995005
175	0xbd6af768	-0.05736485
176	0x3de98a95	0.114033855
177	0xbdd788c2	-0.10524131
178	0xbe3eeb94	-0.18644553
179	0x3d6d6c6a	0.05796472
180	0x3de5de07	0.11223989
181	0xbd16a587	-0.036778953
182	0x3c727ad0	0.014799789
183	0x3e060268	0.13086855
184	0xbba1962f	-0.0049312334
185	0x3d3c9785	0.046042938
186	0x3e18dad3	0.14927225
187	0x3e0560b3	0.13025169
188	0xbd8b375d	-0.06797669
189	0x3cbfd3d7	0.023416443
190	0xbe6aad3a	-0.22917643
191	0x3d9d9d13	0.07695975
192	0xbdb4b15e	-0.088228926
193	0xbdc9820f	-0.0983926
194	0x3ca1d3a3	0.019754237
195	0x3d9a8840	0.07545519
196	0xbe02eceb	-0.1278569
197	0xbdc08227	-0.093998246
198	0x3d88fa0b	0.06688317
199	0x3c8bee3f	0.017081378
200	0xbde3e46d	-0.11127553
201	0x3e782552	0.24232987
202	0x3c97e617	0.018542333
203	0xbdbdbd7d	-0.09264658
204	0xbdf449a2	-0.11928107
205	0xbd2acc1b	-0.041698556
206	0xbcc88c8e	-0.024481084
207	0xbdd87698	-0.10569495
208	0x3c0f1bba	0.008734638
209	0xbe3302df	-0.17481564
210	0xbdfd044d	-0.12354336
211	0x3e0d0ba0	0.13773966
212	0xbe0be258	-0.13660562
213	0x3d97ab5f	0.07405733
214	0xbd3e8de1	-0.046522025
215	0xbd3257f1	-0.0435409
216	0x3dc73844	0.09727529
217	0xbdd10275	-0.10205547
218	0x3dd01dd3	0.101619385
219	0xbc45e114	-0.012077589
220	0xbda8187b	-0.08207794
221	0x3d949db7	0.07256644
222	0x3e35bb07	0.17747127
223	0xbc245455	-0.010029872
224	0x3d99e397	0.075141124
225	0xbda001d7	-0.07812851
226	0x3d4999ed	0.04921906
227	0xbe099051	-0.13433959
228	0xbe0c77a3	-0.13717513
229	0xbe1890b4	-0.1489895
230	0xbdf844e5	-0.121225156
231	0x3ba0928e	0.004900283
232	0xbc81cad7	-0.015843792
233	0xbe126b15	-0.14298661
234	0x3e459c6d	0.19297953
235	0x3d174a9b	0.036936384
236	0xbd0b6a8e	-0.034037165
237	0xbc265728	-0.010152616
238	0x3e06858a	0.13136879
239	0x3d8a5471	0.06754387
240	0x3e1ffdab	0.1562411
241	0x3dd56637	0.104198866
242	0xbcf660fd	-0.030075544
243	0x3d2b7195	0.041856367
244	0x3dc82671	0.09772957
245	0x3d7875ff	0.060659405
246	0x3dad891f	0.084734194
247	0x3e372bb4	0.17887765
248	0xbdb9000b	-0.09033211
249	0x3e2415e3	0.16023974
250	0xbd9cf394	-0.07663646
251	0x3e025303	0.12726979
252	0x3e0c4798	0.13699186
253	0x3d20c070	0.039246023
254	0x3dc0e1f4	0.09418097
255	0xbdd26fba	-0.102752164
